results/proba_02/EscapeFromMaze.onnx (onnx, 52159 bytes, 7 tensors)

discrete_act_size_vector f4 [1, 2]
000000 00 00 00 40 00 00 00 40
       2.0 2.0

network_body._body_endoder.seq_layers.0.weight f4 [64, 174]
000000 f9 aa e4 3d fc 10 51 3e 6e a1 cc 3d 0b af 32 bb
       0.11165423 0.20416635 0.09991728 -0.0027264978
000010 0d a2 1e 3d c7 8e c7 3d 85 dc bb 3b 8b 0f 42 3c
       0.038728762 0.097440295 0.005733075 0.011844526
000020 6c 2d cb ba c1 c9 a8 3c 00 8c d6 bd 8b 21 47 bd
       -0.0015501208 0.020604016 -0.10475922 -0.048615973
000030 02 43 0a bb a9 f2 b3 bd 08 ab 39 bd a4 03 86 3c
       -0.0021097069 -0.08786518 -0.045329124 0.016359158
000040 9b 60 92 3b fb 0c c6 bb d2 0f 47 3d 0c c5 91 bb
       0.0044670827 -0.006044028 0.04859907 -0.0044485386
000050 09 6c 15 bd 24 f7 28 bd d2 cc 7a bd ca a1 9f 3d
       -0.036479983 -0.041251317 -0.061230488 0.07794531
000060 55 ea d2 3d b6 0d 3e bd 68 b6 f8 bd cf ef 96 3d
       0.102986015 -0.046399795 -0.12144166 0.073699586
000070 3c 9c 0d bd 60 aa bb bd cb 81 84 3d 59 fb b7 3b
       -0.034572825 -0.09163356 0.064700685 0.00561468
000080 e6 17 c6 bd 19 c5 04 3d 2e ca 94 3d d8 80 8a 3c
       -0.09672527 0.03241453 0.07265125 0.01690714
000090 4f 41 79 3d 54 5f a5 bc 67 cc b2 bd 7d be 16 3e
       0.0608533 -0.020187058 -0.08730393 0.14721103
0000a0 ef d9 f4 bc f8 92 f0 3c 59 ff 1a be d1 86 3a 3d
       -0.029889075 0.029366955 -0.1513647 0.045538727
0000b0 14 d1 a5 bd 9e ac 31 bd bb 6a dc bd 8b 3f 73 bd
       -0.08096519 -0.04337751 -0.10762545 -0.05938677
0000c0 d8 ed 27 bd 77 7a c4 bc fd 1a 1d bc 51 3f c6 bd
       -0.04099831 -0.023984177 -0.009588954 -0.096800454
0000d0 4b e9 46 bd f5 a4 ee 3b 76 2f 16 bd 80 ce 47 bd
       -0.04856233 0.007282848 -0.036666356 -0.048780918
0000e0 ac 49 9d 3d 94 02 03 be f2 8b c1 3c 91 5e 5d 3c
       0.076800674 -0.12793952 0.023626301 0.013511316
0000f0 7b 72 3f 3d e2 8a be 3d 31 0b 38 be 89 1c 48 bd
       0.046740036 0.093038335 -0.17973019 -0.04885534
000100 97 84 d4 bc f5 ec a3 3c 18 83 15 be be 13 44 bc
       -0.02594213 0.02001045 -0.1460079 -0.0119675975
000110 3d 33 81 bd d4 ec 18 be 59 56 1c 3d c4 7b 85 be
       -0.06308601 -0.14934093 0.038168285 -0.26070988
000120 f8 c2 cf bb 95 a1 95 3b ad 3c e0 3d 57 84 37 be
       -0.0063403808 0.004566381 0.10949073 -0.17921577
000130 a0 00 a8 bc 9e 08 a7 bd 28 93 41 bd 6c e9 14 bd
       -0.02050811 -0.081559405 -0.04725948 -0.03635542
000140 00 38 81 3d 29 5c e2 3c 56 cf 04 bd 0e 8b 8d bd
       0.06309509 0.027631836 -0.032424293 -0.06911288
000150 5d 2f 86 3c 1d 01 79 bd 2d 80 12 3d ba 75 18 bd
       0.016380006 -0.060792077 0.03576677 -0.037221648
000160 eb 11 c6 3d 59 1e 0b bd 1e 0e 34 3e df 81 00 be
       0.09671386 -0.03396449 0.1758351 -0.12549542
000170 a6 f5 c8 bd 9b 86 81 bd 28 ca 86 3c 3d 20 69 bb
       -0.09812479 -0.06324502 0.016453817 -0.0035572194
000180 d8 25 a5 bc 9f 79 8a 3d 7c 3d 85 3b f2 ac cf bc
       -0.020159647 0.06761479 0.0040661674 -0.025351021
000190 c0 32 81 3d df 2e bc bb 37 88 a9 3d 62 09 9b bc
       0.06308508 -0.005742892 0.08277934 -0.018925373
0001a0 de e8 50 be a0 13 03 3d 44 33 c3 3c 41 10 cc 3d
       -0.20401332 0.032001138 0.023828156 0.09964038
0001b0 f2 23 0a 3d 35 79 84 3d 22 50 ca bd 38 70 a3 3d
       0.033725686 0.06468431 -0.09878565 0.079803884
0001c0 1d 79 71 3d 13 74 b3 bd 93 a7 4f 3e e2 36 03 3d
       0.058953393 -0.08762374 0.20278768 0.032034762
0001d0 81 75 87 bc 5d 66 ec bd 3f 9a 62 bd 08 40 bc 3d
       -0.016535522 -0.11542962 -0.05532288 0.091919005
0001e0 5d f1 c2 3d 71 32 ca bd da e0 30 bd 89 84 0f bd
       0.09518693 -0.09872902 -0.043183185 -0.035038505
0001f0 f0 2f 82 bc 1e 00 c4 3c c0 b6 b9 bd ce 79 c9 3d
       -0.015891999 0.023925837 -0.0906806 0.098376855
000200 de 6a 43 3b 9d 70 3b 3d 4d 93 2d 3d 48 98 86 bc
       0.0029818336 0.045761693 0.042376805 -0.016430035
000210 b9 3b 28 bd bc c5 e8 3c a8 4c 9a 3c 4c 19 f6 bb
       -0.04107258 0.0284146 0.01883538 -0.00751034
000220 3b 00 c1 3d ec d0 8b 3b db 60 98 3d 2e 12 28 3d
       0.09423872 0.004266849 0.07440349 0.041032963
000230 9d d3 90 3c 4b 3e d7 bd a1 3a 25 be 03 b1 d9 3d
       0.01767903 -0.10509928 -0.16135646 0.106294654
000240 6f ba 0e 3d eb 0b c8 3c 80 be ae bd a8 70 2c 3d
       0.034845766 0.024419745 -0.08532429 0.042099625
000250 ad 0f 98 3d c7 58 9e bd 0f e7 d3 3c 7e 93 55 bd
       0.07424865 -0.07731777 0.025867013 -0.052142613
000260 3f b8 9b bd 46 e1 9a 3d 74 cc 36 3d 6c ea 07 3e
       -0.076035015 0.07562499 0.044628575 0.13273019
000270 ac ca 1d bc 0c 0e 95 bb c2 cb 98 3d be 18 2f bd
       -0.00963084 -0.0045487937 0.07460739 -0.042748205
000280 9a 12 71 3d bd 9e 3c 3e 41 a8 9c bd 4a a7 25 3d
       0.05885563 0.18419929 -0.076492794 0.040442742
000290 d9 f6 91 bd a9 f0 2c 3b 3b 6e 76 3c 2b 85 6e bc
       -0.071271606 0.0026388562 0.015040929 -0.014558117
0002a0 4e 25 bc bd ab 35 4f 3e bc 92 89 ba b3 fe 03 3e
       -0.09186803 0.20235316 -0.0010496001 0.12890129
0002b0 22 c1 24 3c c7 32 9c bc 16 f6 04 3d eb 3b 1c 3d
       0.010055812 -0.019067181 0.03246125 0.03814308
0002c0 a4 95 0b 3d 33 db 0b be b6 45 17 3d 57 cd b3 3d
       0.034078255 -0.13657837 0.036931716 0.087794
0002d0 10 cc 15 be d2 24 56 3d 47 ad 44 3d 43 8d d8 bd
       -0.14628625 0.05228121 0.048016813 -0.105738185
0002e0 32 31 04 3e c7 d6 db bc b2 cd 44 3d c5 8f b6 bd
       0.12909392 -0.026835812 0.04804773 -0.089141406
0002f0 91 4c 3d 3d 14 0b 06 3e 67 0d 2c bd 7e 13 72 3d
       0.046215598 0.13090163 -0.04200497 0.05910062
000300 1e 13 c5 bb 33 2b 87 3d 2f 2d fb 3d f7 88 69 bd
       -0.006014242 0.066000365 0.122644775 -0.057015385
000310 da a7 75 bd 02 66 6c bd 35 0c 84 bd c4 e5 73 bd
       -0.05997453 -0.05771447 -0.06447641 -0.059545293
000320 c0 e2 8e 3c a5 d7 15 be 43 29 d1 bc af c7 ee 3a
       0.017442107 -0.14633043 -0.02553237 0.0018217469
000330 b2 8e b1 3d c5 6d 09 3d eb 1c e0 bd 33 1c 1f 3d
       0.08669795 0.03355195 -0.10943016 0.038845252
000340 1c 81 50 be 5b 16 87 bd 8d d5 6f bd 20 e5 a8 3d
       -0.20361751 -0.06596061 -0.058553267 0.08246827
000350 cd 88 8e bc 89 4f 77 3e d8 8f af 3c 6c a2 e4 bd
       -0.017399216 0.24151434 0.021430895 -0.11163792
000360 81 be f2 bd c3 63 09 bd 11 a6 d8 3d de fa 1a bc
       -0.11852742 -0.033542406 0.1057855 -0.009459225
000370 b2 5e 30 be 8c 01 12 bc 2f 20 d7 ba 41 c6 09 3d
       -0.17223623 -0.008911502 -0.001641279 0.033636335
000380 e9 f6 bb bb 94 5f ef bd 96 e5 42 3e b4 fc 2f 3d
       -0.005736221 -0.11688152 0.19032893 0.042965606
000390 b8 c4 55 bd 5b 03 41 3d 37 9a 56 be 0c 07 b8 3d
       -0.05218956 0.04712234 -0.20957266 0.08985719
0003a0 45 66 fa bd b2 6a f6 3c a5 fb 5d bd 37 29 0b 3e
       -0.122265376 0.030080173 -0.054195065 0.13589941
0003b0 02 67 a4 bc 80 86 0e bd 5b 8c 3f 3e 1e 92 0d 3d
       -0.02006865 -0.034796238 0.18705885 0.034563176
0003c0 6e bc ae bd e6 d0 ab 3c fe 31 b4 3c 89 ba 12 be
       -0.08532034 0.020973634 0.021996494 -0.1432897
0003d0 fd 66 0d 3e 09 4c 2d bd 52 f6 42 3c 0f 06 67 bc
       0.13808818 -0.04230884 0.011899548 -0.014100566
0003e0 f8 4e 11 3b a2 21 e3 bb 60 ff 60 3d 28 19 ab bd
       0.0022172313 -0.0069314996 0.054931045 -0.083544075
0003f0 2c a6 99 3c cc 47 67 bd 5f 73 4d 3d ee 8e 82 bd
       0.018755995 -0.056464955 0.050158855 -0.06374918

network_body._body_endoder.seq_layers.0.bias f4 [64]
000000 4b 3a 13 3c dd 5e e4 3b 18 a2 6e 3b 13 9b a6 3b
       0.008986066 0.0069693164 0.0036412533 0.0050844043
000010 ab 6e 16 3c 98 a2 9d bc b1 f3 9a 3c f5 3d 90 3c
       0.009181659 -0.01924257 0.01891503 0.017607668
000020 6d 24 8a 3c 1d 6d d6 3c e2 3c 87 3c e5 fd a5 3b
       0.016863072 0.026175076 0.016508523 0.005065667
000030 2d f5 f3 3c 33 02 4c 3b c1 6d 02 3c 91 c0 a5 3c
       0.029779995 0.003112924 0.007960738 0.020233424
000040 c2 d7 ae 3c fa b1 6a 3c b7 95 8a 3b eb c2 8a 3c
       0.021343116 0.0143246595 0.004229273 0.016938647
000050 d6 90 80 3c ee 6c 99 3c 66 01 8b 3c 28 3e a2 3c
       0.015694063 0.0187287 0.01696844 0.019805029
000060 f8 b2 e9 3c cd ef 5a 3c 3d 5d b1 3b cd 27 d6 3c
       0.028527722 0.013362837 0.005412726 0.026142025
000070 d3 82 5e 3c 55 04 0a 3c a0 02 88 3c 4e e0 98 3c
       0.013580996 0.008423884 0.016602814 0.018661644
000080 b4 d6 8f 3c 9a e0 43 3c ec a3 0d 3c f3 90 1d 3c
       0.017558433 0.011955405 0.008645039 0.009617078
000090 8f 32 fc 3c 7c b0 dd 3c 0e 23 4e 3c 65 a7 a4 3c
       0.030785827 0.027061693 0.0125816 0.020099351
0000a0 70 1a c7 3c 66 ed 44 3b 34 6e 00 3c e0 75 b1 3c
       0.024304599 0.0030048727 0.0078387745 0.021662652
0000b0 b1 ac 38 3b 4a 9c 7c 3c ae d8 a4 3c c2 a4 86 3c
       0.0028179104 0.015418122 0.020122852 0.016435985
0000c0 f6 dd c6 3c 2a ee 70 3c 6e c9 49 3c e7 4c 00 3d
       0.024275761 0.01470522 0.012316091 0.03132334
0000d0 f7 8c 7c 3c d6 6a 68 3c 5b 66 4b 3c 92 da 8d 3c
       0.015414468 0.014185628 0.01241454 0.017316137
0000e0 84 f0 33 3c 9d 78 66 3c 30 4f 33 3c 43 92 37 3c
       0.010982636 0.014066842 0.010944173 0.011204305
0000f0 38 71 80 3c eb c1 96 3c fb 44 a5 3c d6 1e 8e 3c
       0.015678987 0.018403014 0.020174494 0.017348688

action_model._discrete_distribution.branches.0.weight f4 [2, 64]
000000 1f 8d 39 bd 49 50 4c bd 79 18 ac bc 50 2c 55 bc
       -0.0453006 -0.049881253 -0.021007763 -0.013011053
000010 64 be e8 bc 44 20 f0 bc 91 61 2e 3d 96 91 52 3d
       -0.028411098 -0.02931226 0.042573515 0.051408373
000020 aa a9 70 bd d8 04 81 3d bc a8 18 3c cf 93 a5 bc
       -0.058755554 0.06299752 0.009317573 -0.020212082
000030 54 19 f0 3c 7d 5a 28 bb 2f ee 23 bd fa 20 4e bd
       0.029308952 -0.00256887 -0.04002207 -0.050324418
000040 24 7b 87 3d 5f 81 98 ba f7 f3 31 bd bf 3f 3a 3c
       0.06615284 -0.0011635235 -0.043445554 0.011367737
000050 9b 98 0e 3d 95 4c 79 3c 31 bb ab bc 37 e4 6c 3d
       0.034813505 0.0152160125 -0.020963283 0.05783483
000060 34 bb f9 ba 00 8e f3 bb 9d 8d 81 bb e4 ae 12 bc
       -0.0019052983 -0.007432699 -0.003953649 -0.00895283
000070 2e 2f 57 bc f4 a7 7f 3c db 0c da bc 83 15 53 bd
       -0.013133807 0.015604008 -0.026617458 -0.051534187
000080 8e 99 6c bd ab 32 63 bb cc b4 74 bd a2 aa d1 3b
       -0.05776363 -0.0034667652 -0.059742734 0.006398515
000090 34 19 67 3d ad 9a a6 3d 5e b3 17 bd ba 23 09 3d
       0.05642052 0.08134971 -0.037036292 0.033481337
0000a0 c7 71 1b 3c 7c 04 38 bc 89 51 a3 bc 5d e6 93 bd
       0.009487576 -0.011231538 -0.01993634 -0.07221673
0000b0 de 47 e2 bc 29 60 85 bc d3 13 9b bd 96 f4 67 bd
       -0.02762216 -0.016281204 -0.075721405 -0.05662974
0000c0 c9 94 a1 3d 5f f8 a9 bc 2c 28 20 bd 79 ff b3 bd
       0.07889707 -0.020748315 -0.03910081 -0.08788962
0000d0 7e 82 3d bd 4a f9 f8 3c 37 99 1e 3d 1a 64 52 bd
       -0.046267025 0.030392308 0.038720336 -0.051364996
0000e0 93 1c a1 ba 94 0b e7 3c 51 d2 ad 3c 46 ee bc bb
       -0.0012291841 0.028203763 0.02121845 -0.005765709
0000f0 93 24 3f bc a8 dd 5a 3d e3 da 9f 3d 4c 19 30 bc
       -0.011666435 0.053434044 0.07805421 -0.010748219
000100 1f ec 27 3d b0 46 02 3d fa 61 98 3b 89 ab 3d ba
       0.040996667 0.031805694 0.0046503516 -0.00072353386
000110 b0 96 d6 3c 85 07 b2 3c 31 7a 51 bd c4 80 9c bd
       0.0261949 0.021732101 -0.05114192 -0.076417476
000120 05 25 4d 3d b0 f5 01 bd 51 82 0e 3d 58 02 07 3d
       0.050084133 -0.031728446 0.03479225 0.03296122
000130 ec 0b d9 bc 44 8c 87 3b cc 39 74 3d 26 25 b2 3d
       -0.026494943 0.004136594 0.059625432 0.08698492
000140 1c 86 6a bd 89 17 95 3c d0 12 1a 3d cb e9 31 bd
       -0.057256803 0.018199699 0.037615597 -0.043435853
000150 cf b6 ea bc 72 1b 04 bd d3 5c 8b 3c 7e 1c 7f bd
       -0.028651623 -0.032252736 0.017012035 -0.06228303
000160 a4 68 a0 bc 31 38 d3 bb 13 18 3c 3c 11 9d 2d 3b
       -0.019581147 -0.0064459075 0.011480349 0.0026491324
000170 be cc c2 3c 12 c5 6a 3b e4 c0 fd 3c d7 1a 14 3d
       0.02377927 0.003582303 0.030975766 0.03615841
000180 62 4c 57 3d 9d 28 e7 3c a7 b4 3c 3d 9b f9 00 bd
       0.05256308 0.028217608 0.04607072 -0.031488042
000190 a4 50 28 bd 12 f6 50 bd 73 a2 db 3c ef bd 55 bd
       -0.04109253 -0.05101592 0.02681086 -0.052183088
0001a0 28 e5 49 3c 95 83 02 3c 1f a8 1c 3d 2a 56 8f 3d
       0.0123227015 0.007965942 0.03824627 0.06998856
0001b0 b9 f1 6c 3c 9e 7c f0 3c 7a 8c 89 3d 1e fb 65 3d
       0.014461928 0.029356297 0.06716247 0.056147687
0001c0 41 5a b0 bd 9a 7c 61 3d 1b 1b 3e 3d ee ce 79 3d
       -0.086109646 0.05505047 0.04641257 0.06098836
0001d0 fa 8e db 3c e3 40 44 bd 8e b2 bc bc f2 e6 88 3d
       0.026801575 -0.047913443 -0.02303436 0.06684674
0001e0 8d d2 8d bc bd b0 97 3a 5a 8b c2 bb 9e 32 2e 3c
       -0.017312312 0.0011573058 -0.005937022 0.010632185
0001f0 82 67 73 3c c9 8f 4d bd 02 7e 45 bd 6e ce e8 3c
       0.014856221 -0.050185952 -0.048215874 0.028418746

action_model._discrete_distribution.branches.0.bias f4 [2]
000000 97 8d 9d 3b a0 8d 9d bb
       0.0048081386 -0.004808143

action_model._discrete_distribution.branches.1.weight f4 [2, 64]
000000 b7 b3 2a 3c 16 99 6c 3c bd 73 09 bd 7f d8 68 3c
       0.010418824 0.014440795 -0.033557642 0.014211773
000010 f9 01 45 bd 5a db 12 3c ef 15 4e bc 78 d0 e1 3c
       -0.048097584 0.00896343 -0.012578472 0.027565226
000020 2f 66 00 bc b7 b4 05 3d e9 f3 86 bd 4d e5 25 3d
       -0.0078368625 0.032643046 -0.06589491 0.04050188
000030 ba b0 a3 3d 25 98 2c bd c2 83 85 3c 25 43 42 bd
       0.07992692 -0.042137284 0.016298179 -0.047427315
000040 e2 3f b6 bc b5 26 b3 bd f3 71 2d bc a6 ee 9e bd
       -0.022247259 -0.08747617 -0.01058625 -0.07760362
000050 34 fd 9f 3c 1b 2b 32 bd 5d 32 98 bd 08 49 fa bb
       0.019529916 -0.04349814 -0.07431481 -0.0076381005
000060 8f d4 81 3d 16 ba 6a 3d 1d d1 0a bd a7 8f 6a 3d
       0.063393705 0.05730637 -0.033890832 0.057265904
000070 53 a8 67 3d 89 47 1b bd d9 98 8d 3d 98 54 60 3d
       0.05655701 -0.037910018 0.06913919 0.054768175
000080 bf 98 d5 ba 4d 1d d1 bb c2 c2 03 bd 32 63 b3 bc
       -0.0016296132 -0.0063816668 -0.032168157 -0.021897886
000090 1d 6b 45 3d 2c d5 3e bc 27 ff 12 3d 5c 08 86 bd
       0.048197854 -0.011647504 0.035887863 -0.06544563
0000a0 dc e2 73 bd 37 f8 3d 3d 0f dc 06 3d 03 d1 84 bb
       -0.05954252 0.046379294 0.032924708 -0.0040532365
0000b0 b8 b0 b9 3b e1 fb 48 bd 95 6e a5 3c 15 80 e3 3b
       0.0056668185 -0.049068335 0.020194331 0.006942759
0000c0 f6 26 20 3c ea 45 29 3d 1e e5 a3 bc 95 bd bb 3c
       0.009774914 0.04132644 -0.020006713 0.022917548
0000d0 e6 30 73 3c a7 cb 9f bc a1 44 bc bb 62 e6 ba bc
       0.014843201 -0.019506289 -0.005745486 -0.022814933
0000e0 38 5d 3d 3d d4 5c 6e 3d 4b 92 f9 3c fd f7 26 3d
       0.04623148 0.058193997 0.030465266 0.040763844
0000f0 7f 85 71 3d 39 64 fc bc 86 79 4c ba 59 a0 92 bd
       0.058965202 -0.030809509 -0.0007800091 -0.0715949
000100 15 83 41 3c 5c 8c 9c 3b 99 e8 b8 3c 09 e0 42 bb
       0.011811038 0.0047774743 0.022571849 -0.0029735586
000110 15 3f d1 3c 39 32 46 3b 15 19 c9 3c aa 91 63 bc
       0.025542775 0.0030242337 0.024548093 -0.0138897095
000120 23 9b ea 3c c4 0b ee bc e7 c5 cb 3d bf 01 7f bc
       0.028638428 -0.029058345 0.09949856 -0.015564381
000130 a9 bd 3c bd 4b b1 5f 3c 70 11 9d bc 48 1a 05 3d
       -0.04607931 0.01365311 -0.019173354 0.032495767
000140 c3 66 9b 3c 89 a4 89 3d 37 12 a4 3c 9a 42 66 3d
       0.018969899 0.06720836 0.020028217 0.05621586
000150 54 41 17 bd 7b bd bd 3d 4c 48 90 3d cf 94 b9 3c
       -0.036927536 0.09264656 0.070450395 0.022653965
000160 47 cf 93 bd dd 54 53 bd e6 63 fb 3c 78 47 89 bd
       -0.072172694 -0.051594604 0.030687284 -0.06703085
000170 4f 9f 84 bd 45 c8 42 3d b9 84 7d bd 5e a7 66 bd
       -0.06475698 0.047554273 -0.061894152 -0.056311958
000180 11 c7 c1 3c d1 4a 5a 3a 53 46 9b 3c 53 23 21 3d
       0.023654493 0.00083271886 0.018954432 0.03934033
000190 63 31 87 bd 8b 59 27 3d a6 8a aa bc 76 6c 72 3d
       -0.06601217 0.04085688 -0.020818066 0.059185468
0001a0 65 1a 93 3d d5 aa d3 bc b5 90 bc bb 2f 66 a1 3c
       0.07182769 -0.025838295 -0.005754555 0.019702045
0001b0 7a d7 dd bc 9c 3a 76 3d 3c 98 d8 bc 2b db 94 bc
       -0.027080286 0.060114488 -0.026439779 -0.018170914
0001c0 93 fe a3 bc 47 70 9c bc 2e 83 b4 3b 62 68 d4 ba
       -0.020018851 -0.019096507 0.005508802 -0.0016205425
0001d0 15 f7 7e bd 55 a9 35 3c 9e 40 25 3c fc 73 d0 bc
       -0.062247355 0.011087735 0.010086207 -0.02544593
0001e0 41 7c 42 bd d0 a9 75 bd e6 2c 16 bd 49 15 3d bd
       -0.04748178 -0.0599764 -0.036663912 -0.046162877
0001f0 f4 dd 99 bd c9 fb e0 3c 8b a6 07 bc f0 a0 76 3d
       -0.07513037 0.02746381 -0.008279453 0.060212076

action_model._discrete_distribution.branches.1.bias f4 [2]
000000 dc 47 89 3a d4 47 89 ba
       0.0010473686 -0.0010473677
