results/proba_02/EscapeFromMaze/checkpoint.pt (torch, 465835 bytes, 43 tensors)

discrete_act_size_vector f4 [1, 2]
000000 00 00 00 40 00 00 00 40
       2.0 2.0

network_body._body_endoder.seq_layers.0.weight f4 [64, 174]
000000 f9 aa e4 3d fc 10 51 3e 6e a1 cc 3d 0b af 32 bb
       0.11165423 0.20416635 0.09991728 -0.0027264978
000010 0d a2 1e 3d c7 8e c7 3d 85 dc bb 3b 8b 0f 42 3c
       0.038728762 0.097440295 0.005733075 0.011844526
000020 6c 2d cb ba c1 c9 a8 3c 00 8c d6 bd 8b 21 47 bd
       -0.0015501208 0.020604016 -0.10475922 -0.048615973
000030 02 43 0a bb a9 f2 b3 bd 08 ab 39 bd a4 03 86 3c
       -0.0021097069 -0.08786518 -0.045329124 0.016359158
000040 9b 60 92 3b fb 0c c6 bb d2 0f 47 3d 0c c5 91 bb
       0.0044670827 -0.006044028 0.04859907 -0.0044485386
000050 09 6c 15 bd 24 f7 28 bd d2 cc 7a bd ca a1 9f 3d
       -0.036479983 -0.041251317 -0.061230488 0.07794531
000060 55 ea d2 3d b6 0d 3e bd 68 b6 f8 bd cf ef 96 3d
       0.102986015 -0.046399795 -0.12144166 0.073699586
000070 3c 9c 0d bd 60 aa bb bd cb 81 84 3d 59 fb b7 3b
       -0.034572825 -0.09163356 0.064700685 0.00561468
000080 e6 17 c6 bd 19 c5 04 3d 2e ca 94 3d d8 80 8a 3c
       -0.09672527 0.03241453 0.07265125 0.01690714
000090 4f 41 79 3d 54 5f a5 bc 67 cc b2 bd 7d be 16 3e
       0.0608533 -0.020187058 -0.08730393 0.14721103
0000a0 ef d9 f4 bc f8 92 f0 3c 59 ff 1a be d1 86 3a 3d
       -0.029889075 0.029366955 -0.1513647 0.045538727
0000b0 14 d1 a5 bd 9e ac 31 bd bb 6a dc bd 8b 3f 73 bd
       -0.08096519 -0.04337751 -0.10762545 -0.05938677
0000c0 d8 ed 27 bd 77 7a c4 bc fd 1a 1d bc 51 3f c6 bd
       -0.04099831 -0.023984177 -0.009588954 -0.096800454
0000d0 4b e9 46 bd f5 a4 ee 3b 76 2f 16 bd 80 ce 47 bd
       -0.04856233 0.007282848 -0.036666356 -0.048780918
0000e0 ac 49 9d 3d 94 02 03 be f2 8b c1 3c 91 5e 5d 3c
       0.076800674 -0.12793952 0.023626301 0.013511316
0000f0 7b 72 3f 3d e2 8a be 3d 31 0b 38 be 89 1c 48 bd
       0.046740036 0.093038335 -0.17973019 -0.04885534
000100 97 84 d4 bc f5 ec a3 3c 18 83 15 be be 13 44 bc
       -0.02594213 0.02001045 -0.1460079 -0.0119675975
000110 3d 33 81 bd d4 ec 18 be 59 56 1c 3d c4 7b 85 be
       -0.06308601 -0.14934093 0.038168285 -0.26070988
000120 f8 c2 cf bb 95 a1 95 3b ad 3c e0 3d 57 84 37 be
       -0.0063403808 0.004566381 0.10949073 -0.17921577
000130 a0 00 a8 bc 9e 08 a7 bd 28 93 41 bd 6c e9 14 bd
       -0.02050811 -0.081559405 -0.04725948 -0.03635542
000140 00 38 81 3d 29 5c e2 3c 56 cf 04 bd 0e 8b 8d bd
       0.06309509 0.027631836 -0.032424293 -0.06911288
000150 5d 2f 86 3c 1d 01 79 bd 2d 80 12 3d ba 75 18 bd
       0.016380006 -0.060792077 0.03576677 -0.037221648
000160 eb 11 c6 3d 59 1e 0b bd 1e 0e 34 3e df 81 00 be
       0.09671386 -0.03396449 0.1758351 -0.12549542
000170 a6 f5 c8 bd 9b 86 81 bd 28 ca 86 3c 3d 20 69 bb
       -0.09812479 -0.06324502 0.016453817 -0.0035572194
000180 d8 25 a5 bc 9f 79 8a 3d 7c 3d 85 3b f2 ac cf bc
       -0.020159647 0.06761479 0.0040661674 -0.025351021
000190 c0 32 81 3d df 2e bc bb 37 88 a9 3d 62 09 9b bc
       0.06308508 -0.005742892 0.08277934 -0.018925373
0001a0 de e8 50 be a0 13 03 3d 44 33 c3 3c 41 10 cc 3d
       -0.20401332 0.032001138 0.023828156 0.09964038
0001b0 f2 23 0a 3d 35 79 84 3d 22 50 ca bd 38 70 a3 3d
       0.033725686 0.06468431 -0.09878565 0.079803884
0001c0 1d 79 71 3d 13 74 b3 bd 93 a7 4f 3e e2 36 03 3d
       0.058953393 -0.08762374 0.20278768 0.032034762
0001d0 81 75 87 bc 5d 66 ec bd 3f 9a 62 bd 08 40 bc 3d
       -0.016535522 -0.11542962 -0.05532288 0.091919005
0001e0 5d f1 c2 3d 71 32 ca bd da e0 30 bd 89 84 0f bd
       0.09518693 -0.09872902 -0.043183185 -0.035038505
0001f0 f0 2f 82 bc 1e 00 c4 3c c0 b6 b9 bd ce 79 c9 3d
       -0.015891999 0.023925837 -0.0906806 0.098376855
000200 de 6a 43 3b 9d 70 3b 3d 4d 93 2d 3d 48 98 86 bc
       0.0029818336 0.045761693 0.042376805 -0.016430035
000210 b9 3b 28 bd bc c5 e8 3c a8 4c 9a 3c 4c 19 f6 bb
       -0.04107258 0.0284146 0.01883538 -0.00751034
000220 3b 00 c1 3d ec d0 8b 3b db 60 98 3d 2e 12 28 3d
       0.09423872 0.004266849 0.07440349 0.041032963
000230 9d d3 90 3c 4b 3e d7 bd a1 3a 25 be 03 b1 d9 3d
       0.01767903 -0.10509928 -0.16135646 0.106294654
000240 6f ba 0e 3d eb 0b c8 3c 80 be ae bd a8 70 2c 3d
       0.034845766 0.024419745 -0.08532429 0.042099625
000250 ad 0f 98 3d c7 58 9e bd 0f e7 d3 3c 7e 93 55 bd
       0.07424865 -0.07731777 0.025867013 -0.052142613
000260 3f b8 9b bd 46 e1 9a 3d 74 cc 36 3d 6c ea 07 3e
       -0.076035015 0.07562499 0.044628575 0.13273019
000270 ac ca 1d bc 0c 0e 95 bb c2 cb 98 3d be 18 2f bd
       -0.00963084 -0.0045487937 0.07460739 -0.042748205
000280 9a 12 71 3d bd 9e 3c 3e 41 a8 9c bd 4a a7 25 3d
       0.05885563 0.18419929 -0.076492794 0.040442742
000290 d9 f6 91 bd a9 f0 2c 3b 3b 6e 76 3c 2b 85 6e bc
       -0.071271606 0.0026388562 0.015040929 -0.014558117
0002a0 4e 25 bc bd ab 35 4f 3e bc 92 89 ba b3 fe 03 3e
       -0.09186803 0.20235316 -0.0010496001 0.12890129
0002b0 22 c1 24 3c c7 32 9c bc 16 f6 04 3d eb 3b 1c 3d
       0.010055812 -0.019067181 0.03246125 0.03814308
0002c0 a4 95 0b 3d 33 db 0b be b6 45 17 3d 57 cd b3 3d
       0.034078255 -0.13657837 0.036931716 0.087794
0002d0 10 cc 15 be d2 24 56 3d 47 ad 44 3d 43 8d d8 bd
       -0.14628625 0.05228121 0.048016813 -0.105738185
0002e0 32 31 04 3e c7 d6 db bc b2 cd 44 3d c5 8f b6 bd
       0.12909392 -0.026835812 0.04804773 -0.089141406
0002f0 91 4c 3d 3d 14 0b 06 3e 67 0d 2c bd 7e 13 72 3d
       0.046215598 0.13090163 -0.04200497 0.05910062
000300 1e 13 c5 bb 33 2b 87 3d 2f 2d fb 3d f7 88 69 bd
       -0.006014242 0.066000365 0.122644775 -0.057015385
000310 da a7 75 bd 02 66 6c bd 35 0c 84 bd c4 e5 73 bd
       -0.05997453 -0.05771447 -0.06447641 -0.059545293
000320 c0 e2 8e 3c a5 d7 15 be 43 29 d1 bc af c7 ee 3a
       0.017442107 -0.14633043 -0.02553237 0.0018217469
000330 b2 8e b1 3d c5 6d 09 3d eb 1c e0 bd 33 1c 1f 3d
       0.08669795 0.03355195 -0.10943016 0.038845252
000340 1c 81 50 be 5b 16 87 bd 8d d5 6f bd 20 e5 a8 3d
       -0.20361751 -0.06596061 -0.058553267 0.08246827
000350 cd 88 8e bc 89 4f 77 3e d8 8f af 3c 6c a2 e4 bd
       -0.017399216 0.24151434 0.021430895 -0.11163792
000360 81 be f2 bd c3 63 09 bd 11 a6 d8 3d de fa 1a bc
       -0.11852742 -0.033542406 0.1057855 -0.009459225
000370 b2 5e 30 be 8c 01 12 bc 2f 20 d7 ba 41 c6 09 3d
       -0.17223623 -0.008911502 -0.001641279 0.033636335
000380 e9 f6 bb bb 94 5f ef bd 96 e5 42 3e b4 fc 2f 3d
       -0.005736221 -0.11688152 0.19032893 0.042965606
000390 b8 c4 55 bd 5b 03 41 3d 37 9a 56 be 0c 07 b8 3d
       -0.05218956 0.04712234 -0.20957266 0.08985719
0003a0 45 66 fa bd b2 6a f6 3c a5 fb 5d bd 37 29 0b 3e
       -0.122265376 0.030080173 -0.054195065 0.13589941
0003b0 02 67 a4 bc 80 86 0e bd 5b 8c 3f 3e 1e 92 0d 3d
       -0.02006865 -0.034796238 0.18705885 0.034563176
0003c0 6e bc ae bd e6 d0 ab 3c fe 31 b4 3c 89 ba 12 be
       -0.08532034 0.020973634 0.021996494 -0.1432897
0003d0 fd 66 0d 3e 09 4c 2d bd 52 f6 42 3c 0f 06 67 bc
       0.13808818 -0.04230884 0.011899548 -0.014100566
0003e0 f8 4e 11 3b a2 21 e3 bb 60 ff 60 3d 28 19 ab bd
       0.0022172313 -0.0069314996 0.054931045 -0.083544075
0003f0 2c a6 99 3c cc 47 67 bd 5f 73 4d 3d ee 8e 82 bd
       0.018755995 -0.056464955 0.050158855 -0.06374918

network_body._body_endoder.seq_layers.0.bias f4 [64]
000000 4b 3a 13 3c dd 5e e4 3b 18 a2 6e 3b 13 9b a6 3b
       0.008986066 0.0069693164 0.0036412533 0.0050844043
000010 ab 6e 16 3c 98 a2 9d bc b1 f3 9a 3c f5 3d 90 3c
       0.009181659 -0.01924257 0.01891503 0.017607668
000020 6d 24 8a 3c 1d 6d d6 3c e2 3c 87 3c e5 fd a5 3b
       0.016863072 0.026175076 0.016508523 0.005065667
000030 2d f5 f3 3c 33 02 4c 3b c1 6d 02 3c 91 c0 a5 3c
       0.029779995 0.003112924 0.007960738 0.020233424
000040 c2 d7 ae 3c fa b1 6a 3c b7 95 8a 3b eb c2 8a 3c
       0.021343116 0.0143246595 0.004229273 0.016938647
000050 d6 90 80 3c ee 6c 99 3c 66 01 8b 3c 28 3e a2 3c
       0.015694063 0.0187287 0.01696844 0.019805029
000060 f8 b2 e9 3c cd ef 5a 3c 3d 5d b1 3b cd 27 d6 3c
       0.028527722 0.013362837 0.005412726 0.026142025
000070 d3 82 5e 3c 55 04 0a 3c a0 02 88 3c 4e e0 98 3c
       0.013580996 0.008423884 0.016602814 0.018661644
000080 b4 d6 8f 3c 9a e0 43 3c ec a3 0d 3c f3 90 1d 3c
       0.017558433 0.011955405 0.008645039 0.009617078
000090 8f 32 fc 3c 7c b0 dd 3c 0e 23 4e 3c 65 a7 a4 3c
       0.030785827 0.027061693 0.0125816 0.020099351
0000a0 70 1a c7 3c 66 ed 44 3b 34 6e 00 3c e0 75 b1 3c
       0.024304599 0.0030048727 0.0078387745 0.021662652
0000b0 b1 ac 38 3b 4a 9c 7c 3c ae d8 a4 3c c2 a4 86 3c
       0.0028179104 0.015418122 0.020122852 0.016435985
0000c0 f6 dd c6 3c 2a ee 70 3c 6e c9 49 3c e7 4c 00 3d
       0.024275761 0.01470522 0.012316091 0.03132334
0000d0 f7 8c 7c 3c d6 6a 68 3c 5b 66 4b 3c 92 da 8d 3c
       0.015414468 0.014185628 0.01241454 0.017316137
0000e0 84 f0 33 3c 9d 78 66 3c 30 4f 33 3c 43 92 37 3c
       0.010982636 0.014066842 0.010944173 0.011204305
0000f0 38 71 80 3c eb c1 96 3c fb 44 a5 3c d6 1e 8e 3c
       0.015678987 0.018403014 0.020174494 0.017348688

action_model._discrete_distribution.branches.0.weight f4 [2, 64]
000000 1f 8d 39 bd 49 50 4c bd 79 18 ac bc 50 2c 55 bc
       -0.0453006 -0.049881253 -0.021007763 -0.013011053
000010 64 be e8 bc 44 20 f0 bc 91 61 2e 3d 96 91 52 3d
       -0.028411098 -0.02931226 0.042573515 0.051408373
000020 aa a9 70 bd d8 04 81 3d bc a8 18 3c cf 93 a5 bc
       -0.058755554 0.06299752 0.009317573 -0.020212082
000030 54 19 f0 3c 7d 5a 28 bb 2f ee 23 bd fa 20 4e bd
       0.029308952 -0.00256887 -0.04002207 -0.050324418
000040 24 7b 87 3d 5f 81 98 ba f7 f3 31 bd bf 3f 3a 3c
       0.06615284 -0.0011635235 -0.043445554 0.011367737
000050 9b 98 0e 3d 95 4c 79 3c 31 bb ab bc 37 e4 6c 3d
       0.034813505 0.0152160125 -0.020963283 0.05783483
000060 34 bb f9 ba 00 8e f3 bb 9d 8d 81 bb e4 ae 12 bc
       -0.0019052983 -0.007432699 -0.003953649 -0.00895283
000070 2e 2f 57 bc f4 a7 7f 3c db 0c da bc 83 15 53 bd
       -0.013133807 0.015604008 -0.026617458 -0.051534187
000080 8e 99 6c bd ab 32 63 bb cc b4 74 bd a2 aa d1 3b
       -0.05776363 -0.0034667652 -0.059742734 0.006398515
000090 34 19 67 3d ad 9a a6 3d 5e b3 17 bd ba 23 09 3d
       0.05642052 0.08134971 -0.037036292 0.033481337
0000a0 c7 71 1b 3c 7c 04 38 bc 89 51 a3 bc 5d e6 93 bd
       0.009487576 -0.011231538 -0.01993634 -0.07221673
0000b0 de 47 e2 bc 29 60 85 bc d3 13 9b bd 96 f4 67 bd
       -0.02762216 -0.016281204 -0.075721405 -0.05662974
0000c0 c9 94 a1 3d 5f f8 a9 bc 2c 28 20 bd 79 ff b3 bd
       0.07889707 -0.020748315 -0.03910081 -0.08788962
0000d0 7e 82 3d bd 4a f9 f8 3c 37 99 1e 3d 1a 64 52 bd
       -0.046267025 0.030392308 0.038720336 -0.051364996
0000e0 93 1c a1 ba 94 0b e7 3c 51 d2 ad 3c 46 ee bc bb
       -0.0012291841 0.028203763 0.02121845 -0.005765709
0000f0 93 24 3f bc a8 dd 5a 3d e3 da 9f 3d 4c 19 30 bc
       -0.011666435 0.053434044 0.07805421 -0.010748219
000100 1f ec 27 3d b0 46 02 3d fa 61 98 3b 89 ab 3d ba
       0.040996667 0.031805694 0.0046503516 -0.00072353386
000110 b0 96 d6 3c 85 07 b2 3c 31 7a 51 bd c4 80 9c bd
       0.0261949 0.021732101 -0.05114192 -0.076417476
000120 05 25 4d 3d b0 f5 01 bd 51 82 0e 3d 58 02 07 3d
       0.050084133 -0.031728446 0.03479225 0.03296122
000130 ec 0b d9 bc 44 8c 87 3b cc 39 74 3d 26 25 b2 3d
       -0.026494943 0.004136594 0.059625432 0.08698492
000140 1c 86 6a bd 89 17 95 3c d0 12 1a 3d cb e9 31 bd
       -0.057256803 0.018199699 0.037615597 -0.043435853
000150 cf b6 ea bc 72 1b 04 bd d3 5c 8b 3c 7e 1c 7f bd
       -0.028651623 -0.032252736 0.017012035 -0.06228303
000160 a4 68 a0 bc 31 38 d3 bb 13 18 3c 3c 11 9d 2d 3b
       -0.019581147 -0.0064459075 0.011480349 0.0026491324
000170 be cc c2 3c 12 c5 6a 3b e4 c0 fd 3c d7 1a 14 3d
       0.02377927 0.003582303 0.030975766 0.03615841
000180 62 4c 57 3d 9d 28 e7 3c a7 b4 3c 3d 9b f9 00 bd
       0.05256308 0.028217608 0.04607072 -0.031488042
000190 a4 50 28 bd 12 f6 50 bd 73 a2 db 3c ef bd 55 bd
       -0.04109253 -0.05101592 0.02681086 -0.052183088
0001a0 28 e5 49 3c 95 83 02 3c 1f a8 1c 3d 2a 56 8f 3d
       0.0123227015 0.007965942 0.03824627 0.06998856
0001b0 b9 f1 6c 3c 9e 7c f0 3c 7a 8c 89 3d 1e fb 65 3d
       0.014461928 0.029356297 0.06716247 0.056147687
0001c0 41 5a b0 bd 9a 7c 61 3d 1b 1b 3e 3d ee ce 79 3d
       -0.086109646 0.05505047 0.04641257 0.06098836
0001d0 fa 8e db 3c e3 40 44 bd 8e b2 bc bc f2 e6 88 3d
       0.026801575 -0.047913443 -0.02303436 0.06684674
0001e0 8d d2 8d bc bd b0 97 3a 5a 8b c2 bb 9e 32 2e 3c
       -0.017312312 0.0011573058 -0.005937022 0.010632185
0001f0 82 67 73 3c c9 8f 4d bd 02 7e 45 bd 6e ce e8 3c
       0.014856221 -0.050185952 -0.048215874 0.028418746

action_model._discrete_distribution.branches.0.bias f4 [2]
000000 97 8d 9d 3b a0 8d 9d bb
       0.0048081386 -0.004808143

action_model._discrete_distribution.branches.1.weight f4 [2, 64]
000000 b7 b3 2a 3c 16 99 6c 3c bd 73 09 bd 7f d8 68 3c
       0.010418824 0.014440795 -0.033557642 0.014211773
000010 f9 01 45 bd 5a db 12 3c ef 15 4e bc 78 d0 e1 3c
       -0.048097584 0.00896343 -0.012578472 0.027565226
000020 2f 66 00 bc b7 b4 05 3d e9 f3 86 bd 4d e5 25 3d
       -0.0078368625 0.032643046 -0.06589491 0.04050188
000030 ba b0 a3 3d 25 98 2c bd c2 83 85 3c 25 43 42 bd
       0.07992692 -0.042137284 0.016298179 -0.047427315
000040 e2 3f b6 bc b5 26 b3 bd f3 71 2d bc a6 ee 9e bd
       -0.022247259 -0.08747617 -0.01058625 -0.07760362
000050 34 fd 9f 3c 1b 2b 32 bd 5d 32 98 bd 08 49 fa bb
       0.019529916 -0.04349814 -0.07431481 -0.0076381005
000060 8f d4 81 3d 16 ba 6a 3d 1d d1 0a bd a7 8f 6a 3d
       0.063393705 0.05730637 -0.033890832 0.057265904
000070 53 a8 67 3d 89 47 1b bd d9 98 8d 3d 98 54 60 3d
       0.05655701 -0.037910018 0.06913919 0.054768175
000080 bf 98 d5 ba 4d 1d d1 bb c2 c2 03 bd 32 63 b3 bc
       -0.0016296132 -0.0063816668 -0.032168157 -0.021897886
000090 1d 6b 45 3d 2c d5 3e bc 27 ff 12 3d 5c 08 86 bd
       0.048197854 -0.011647504 0.035887863 -0.06544563
0000a0 dc e2 73 bd 37 f8 3d 3d 0f dc 06 3d 03 d1 84 bb
       -0.05954252 0.046379294 0.032924708 -0.0040532365
0000b0 b8 b0 b9 3b e1 fb 48 bd 95 6e a5 3c 15 80 e3 3b
       0.0056668185 -0.049068335 0.020194331 0.006942759
0000c0 f6 26 20 3c ea 45 29 3d 1e e5 a3 bc 95 bd bb 3c
       0.009774914 0.04132644 -0.020006713 0.022917548
0000d0 e6 30 73 3c a7 cb 9f bc a1 44 bc bb 62 e6 ba bc
       0.014843201 -0.019506289 -0.005745486 -0.022814933
0000e0 38 5d 3d 3d d4 5c 6e 3d 4b 92 f9 3c fd f7 26 3d
       0.04623148 0.058193997 0.030465266 0.040763844
0000f0 7f 85 71 3d 39 64 fc bc 86 79 4c ba 59 a0 92 bd
       0.058965202 -0.030809509 -0.0007800091 -0.0715949
000100 15 83 41 3c 5c 8c 9c 3b 99 e8 b8 3c 09 e0 42 bb
       0.011811038 0.0047774743 0.022571849 -0.0029735586
000110 15 3f d1 3c 39 32 46 3b 15 19 c9 3c aa 91 63 bc
       0.025542775 0.0030242337 0.024548093 -0.0138897095
000120 23 9b ea 3c c4 0b ee bc e7 c5 cb 3d bf 01 7f bc
       0.028638428 -0.029058345 0.09949856 -0.015564381
000130 a9 bd 3c bd 4b b1 5f 3c 70 11 9d bc 48 1a 05 3d
       -0.04607931 0.01365311 -0.019173354 0.032495767
000140 c3 66 9b 3c 89 a4 89 3d 37 12 a4 3c 9a 42 66 3d
       0.018969899 0.06720836 0.020028217 0.05621586
000150 54 41 17 bd 7b bd bd 3d 4c 48 90 3d cf 94 b9 3c
       -0.036927536 0.09264656 0.070450395 0.022653965
000160 47 cf 93 bd dd 54 53 bd e6 63 fb 3c 78 47 89 bd
       -0.072172694 -0.051594604 0.030687284 -0.06703085
000170 4f 9f 84 bd 45 c8 42 3d b9 84 7d bd 5e a7 66 bd
       -0.06475698 0.047554273 -0.061894152 -0.056311958
000180 11 c7 c1 3c d1 4a 5a 3a 53 46 9b 3c 53 23 21 3d
       0.023654493 0.00083271886 0.018954432 0.03934033
000190 63 31 87 bd 8b 59 27 3d a6 8a aa bc 76 6c 72 3d
       -0.06601217 0.04085688 -0.020818066 0.059185468
0001a0 65 1a 93 3d d5 aa d3 bc b5 90 bc bb 2f 66 a1 3c
       0.07182769 -0.025838295 -0.005754555 0.019702045
0001b0 7a d7 dd bc 9c 3a 76 3d 3c 98 d8 bc 2b db 94 bc
       -0.027080286 0.060114488 -0.026439779 -0.018170914
0001c0 93 fe a3 bc 47 70 9c bc 2e 83 b4 3b 62 68 d4 ba
       -0.020018851 -0.019096507 0.005508802 -0.0016205425
0001d0 15 f7 7e bd 55 a9 35 3c 9e 40 25 3c fc 73 d0 bc
       -0.062247355 0.011087735 0.010086207 -0.02544593
0001e0 41 7c 42 bd d0 a9 75 bd e6 2c 16 bd 49 15 3d bd
       -0.04748178 -0.0599764 -0.036663912 -0.046162877
0001f0 f4 dd 99 bd c9 fb e0 3c 8b a6 07 bc f0 a0 76 3d
       -0.07513037 0.02746381 -0.008279453 0.060212076

action_model._discrete_distribution.branches.1.bias f4 [2]
000000 dc 47 89 3a d4 47 89 ba
       0.0010473686 -0.0010473677

exp_avg f4 [64, 174]
000000 45 60 19 ba 00 00 00 00 1a 8d f9 36 e1 bc 40 b8
       -0.0005850832 0.0 7.4372047e-06 -4.5952274e-05
000010 6e e5 e6 b8 80 4e 1f ba 00 00 00 00 6a b5 fb b6
       -0.00011009989 -0.0006077066 0.0 -7.5015023e-06
000020 9d 1b 8e b8 4d bf 28 b9 d7 d1 2f ba 00 00 00 00
       -6.776231e-05 -0.00016092994 -0.0006706989 0.0
000030 d4 d2 ab b6 5c 49 09 b7 40 0f b6 b8 45 60 19 ba
       -5.1207408e-06 -8.182917e-06 -8.681277e-05 -0.0005850832
000040 00 00 00 00 1a 8d f9 36 e1 bc 40 b8 6e e5 e6 b8
       0.0 7.4372047e-06 -4.5952274e-05 -0.00011009989
000050 03 78 34 ba 00 00 00 00 37 61 a7 b6 58 6e 92 38
       -0.0006884338 0.0 -4.988305e-06 6.9823756e-05
000060 c2 7d 59 b8 4e 82 f8 b9 00 00 00 00 97 22 05 b9
       -5.1853953e-05 -0.0004739933 0.0 -0.00012696754
000070 7d e5 bd b7 a7 32 15 b9 3b 06 30 ba 00 00 00 00
       -2.263742e-05 -0.00014228617 -0.00067147956 0.0
000080 35 d2 a5 36 c6 19 34 38 90 17 f5 b8 26 9f 21 ba
       4.9418545e-06 4.2939348e-05 -0.00011686899 -0.00061653776
000090 00 00 00 00 25 13 01 b7 8b e4 29 35 67 10 1e b9
       0.0 -7.693457e-06 6.328998e-07 -0.00015074165
0000a0 e8 e5 28 ba 00 00 00 00 b3 e2 8b b7 42 c0 1c 38
       -0.000644295 0.0 -1.6675656e-05 3.7372352e-05
0000b0 92 37 2d b8 fe e2 20 ba 00 00 00 00 e6 4e 6d b7
       -4.1298168e-05 -0.000613734 0.0 -1.4144671e-05
0000c0 4a a0 8f 36 63 a2 8b b7 ad 42 1a ba 00 00 00 00
       4.280392e-06 -1.6645708e-05 -0.0005884569 0.0
0000d0 e8 de 68 b8 55 f4 aa 37 59 b7 5a b8 74 65 19 ba
       -5.5520708e-05 2.0379355e-05 -5.2146006e-05 -0.00058516045
0000e0 00 00 00 00 ac 06 6b b8 8f 9c 93 37 14 60 9d b7
       0.0 -5.603458e-05 1.7596669e-05 -1.8760598e-05
0000f0 80 4e 1f ba 00 00 00 00 6a b5 fb b6 9d 1b 8e b8
       -0.0006077066 0.0 -7.5015023e-06 -6.776231e-05
000100 4d bf 28 b9 14 d9 21 ba 00 00 00 00 2f 42 d8 b5
       -0.00016092994 -0.000617401 0.0 -1.6112516e-06
000110 39 21 86 b8 82 1f 36 b9 e8 ed 2c ba 00 00 00 00
       -6.395806e-05 -0.0001736861 -0.000659673 0.0
000120 70 44 14 38 bc fb 75 b8 ac 46 42 b9 e1 59 2d ba
       3.5349687e-05 -5.8646998e-05 -0.00018527609 -0.0006612819
000130 00 00 00 00 7f 85 22 37 15 99 03 b8 55 fa 51 b9
       0.0 9.687034e-06 -3.1375403e-05 -0.00020025049
000140 2f e8 2b ba 00 00 00 00 6f 3c e7 b7 56 ad c5 34
       -0.00065577304 0.0 -2.7565487e-05 3.6820228e-07
000150 ec 46 8a b9 42 40 24 ba 00 00 00 00 5c 09 3e b8
       -0.00026374252 -0.00062656787 0.0 -4.5308247e-05
000160 9c 21 3a b7 d4 91 df b8 86 06 3a ba 00 00 00 00
       -1.1094289e-05 -0.00010660631 -0.0007096309 0.0
000170 7d 7b a7 37 9a a6 e0 36 97 60 a7 b8 f1 53 22 ba
       1.9965455e-05 6.695115e-06 -7.981172e-05 -0.0006192318
000180 00 00 00 00 15 b7 8a b8 c7 75 21 36 a3 d9 cf b8
       0.0 -6.6144545e-05 2.4059425e-06 -9.911067e-05
000190 42 ae 26 ba 00 00 00 00 91 ef 5e b8 eb ee c9 36
       -0.0006358364 0.0 -5.3152038e-05 6.0180805e-06
0001a0 8d 8b 8f b8 d7 d1 2f ba 00 00 00 00 d4 d2 ab b6
       -6.844765e-05 -0.0006706989 0.0 -5.1207408e-06
0001b0 5c 49 09 b7 40 0f b6 b8 a3 be 38 ba 00 00 00 00
       -8.182917e-06 -8.681277e-05 -0.000704745 0.0
0001c0 c5 b0 57 36 e4 09 93 37 fc 0e fd b8 f3 9e 23 ba
       3.214039e-06 1.7528371e-05 -0.00012066771 -0.0006241642
0001d0 00 00 00 00 41 15 1f b8 bf cb b7 b7 03 78 17 b9
       0.0 -3.792835e-05 -2.1910177e-05 -0.0001444519
0001e0 6f c2 38 ba 00 00 00 00 e3 be 1e b6 63 51 c2 37
       -0.0007048016 0.0 -2.3654945e-06 2.31645e-05
0001f0 c7 a6 1b b9 87 dd 30 ba 00 00 00 00 e5 3c 2f b7
       -0.00014844081 -0.00067468773 0.0 -1.0444991e-05
000200 2d ac 97 35 6d 4a af b9 46 f0 2e ba 00 00 00 00
       1.1300486e-06 -0.00033434053 -0.0006673377 0.0
000210 0e da 2e b8 43 e8 d1 37 35 17 c9 b8 0f e4 2b ba
       -4.1687912e-05 2.5022897e-05 -9.5887495e-05 -0.00065571157
000220 00 00 00 00 81 50 43 b8 7c 4e 99 37 91 1b b6 b8
       0.0 -4.6566598e-05 1.8275568e-05 -8.683571e-05
000230 f4 0a 2e ba 00 00 00 00 46 c4 eb b7 27 9d 06 37
       -0.00066392054 0.0 -2.810558e-05 8.023612e-06
000240 2c 58 c6 b8 64 f4 31 ba 00 00 00 00 5f e8 8f b7
       -9.457799e-05 -0.0006788431 0.0 -1.7155135e-05
000250 d7 40 49 37 54 cf 51 b8 38 a1 85 b8 fa 78 a3 b9
       1.199563e-05 -5.0022572e-05 -6.3719635e-05 -0.00031179917
000260 f1 45 57 39 9e 11 ab b9 c8 42 e1 b8 d6 a9 3d ba
       0.00020530053 -0.00032628787 -0.00010741275 -0.00072350854
000270 5a 43 98 b9 69 92 6e b9 4a be 82 b6 5d 09 b3 b9
       -0.0002904188 -0.00022751991 -3.8964545e-06 -0.00034148517
000280 a1 6f 84 39 c6 64 f0 b9 d9 aa d2 b8 5f 6b 43 ba
       0.00025260172 -0.0004585145 -0.00010045403 -0.0007454659
000290 3b 75 3d b9 10 2d 8e b6 3c 0a 29 38 a3 4e b3 b9
       -0.00018068116 -4.2371757e-06 4.030227e-05 -0.0003420013
0002a0 e9 15 85 39 ad a6 c8 b9 c9 22 cb b8 51 40 43 ba
       0.0002538406 -0.00038271156 -9.6862736e-05 -0.00074482436
0002b0 72 9a af b8 e7 32 5c 39 bf f4 11 ba 00 00 00 00
       -8.373418e-05 0.00020999798 -0.0005567781 0.0
0002c0 84 de 8e 37 c6 f1 96 b8 ba 1f 09 b9 96 c2 0d ba
       1.7031336e-05 -7.197591e-05 -0.00013077157 -0.00054077187
0002d0 00 00 00 00 cc 69 8e b7 a6 1b c3 b8 02 b1 3c b9
       0.0 -1.6976985e-05 -9.3034745e-05 -0.00017995018
0002e0 20 d2 1a ba 00 00 00 00 30 49 39 b7 8d 2a 7b b7
       -0.0005905945 0.0 -1.10439e-05 -1.4970673e-05
0002f0 94 f4 ae b8 bf f4 11 ba 00 00 00 00 84 de 8e 37
       -8.342523e-05 -0.0005567781 0.0 1.7031336e-05
000300 c6 f1 96 b8 ba 1f 09 b9 ed 1d 2e ba 00 00 00 00
       -7.197591e-05 -0.00013077157 -0.00066420325 0.0
000310 19 99 18 b7 7d 22 81 38 d7 56 54 b8 74 cc ea b9
       -9.095552e-06 6.157623e-05 -5.0625615e-05 -0.00044784287
000320 00 00 00 00 66 74 09 b9 f7 8a 09 b8 77 ac 19 b9
       0.0 -0.000131087 -3.2792766e-05 -0.00014655465
000330 d3 be 30 ba 00 00 00 00 67 83 99 37 38 6b 39 38
       -0.0006742302 0.0 1.830021e-05 4.4207292e-05
000340 62 44 dc b8 1b ed 15 ba 00 00 00 00 8d a8 2d b8
       -0.00010503155 -0.00057192304 0.0 -4.140339e-05
000350 28 41 d7 35 ee 93 04 b9 e3 55 20 ba 00 00 00 00
       1.6037711e-06 -0.00012643609 -0.0006116314 0.0
000360 06 2c 59 b8 ee c9 58 38 19 88 ec b6 f5 dd 1c ba
       -5.177783e-05 5.1686475e-05 -7.049192e-06 -0.0005984002
000370 00 00 00 00 c6 23 a1 b7 ca 87 c5 36 a8 2e 3e b7
       0.0 -1.9209354e-05 5.8868654e-06 -1.13357455e-05
000380 4d fe 12 ba 00 00 00 00 12 c0 a9 b8 69 49 fb 37
       -0.0005607352 0.0 -8.094324e-05 2.9955716e-05
000390 b8 87 d0 b7 a0 ef 12 ba 00 00 00 00 e0 48 a4 b8
       -2.4858731e-05 -0.0005605165 0.0 -7.8337034e-05
0003a0 06 97 e3 37 00 0c 9c 37 96 c2 0d ba 00 00 00 00
       2.7130834e-05 1.8602237e-05 -0.00054077187 0.0
0003b0 cc 69 8e b7 a6 1b c3 b8 02 b1 3c b9 cd 59 17 ba
       -1.6976985e-05 -9.3034745e-05 -0.00017995018 -0.0005773574
0003c0 00 00 00 00 70 ad 9a b6 7e 51 90 b8 38 43 35 b9
       0.0 -4.6097484e-06 -6.881634e-05 -0.00017286546
0003d0 44 cf 24 ba 00 00 00 00 e5 d4 63 38 16 3b a0 b8
       -0.00062869885 0.0 5.431929e-05 -7.6404e-05
0003e0 8d 49 4d b9 04 ef 25 ba 00 00 00 00 4d 0c 21 37
       -0.00019577723 -0.00063298666 0.0 9.599212e-06
0003f0 a0 d0 e5 b7 48 55 3d b9 e9 3a 1d ba 00 00 00 00
       -2.7396076e-05 -0.00018056214 -0.0005997853 0.0

exp_avg_sq f4 [64, 174]
000000 12 64 9c 35 00 00 00 00 55 c7 d2 32 ad c5 d1 32
       1.165203e-06 0.0 2.4537863e-08 2.4420695e-08
000010 cf 5b bc 33 0a 5d af 35 00 00 00 00 69 1d d2 32
       8.771132e-08 1.3065594e-06 0.0 2.4460592e-08
000020 4f 1c ca 32 a0 2f c9 33 9d 21 bd 35 00 00 00 00
       2.3528768e-08 9.368455e-08 1.409138e-06 0.0
000030 3c 38 16 33 5d c7 e6 32 d2 94 da 33 12 64 9c 35
       3.497574e-08 2.6866184e-08 1.0178486e-07 1.165203e-06
000040 00 00 00 00 55 c7 d2 32 ad c5 d1 32 cf 5b bc 33
       0.0 2.4537863e-08 2.4420695e-08 8.771132e-08
000050 86 4a 99 35 00 00 00 00 92 e0 2d 32 ad 92 14 33
       1.1421077e-06 0.0 1.0120987e-08 3.4592336e-08
000060 b3 18 bd 33 51 44 99 35 00 00 00 00 37 6b 6b 32
       8.805491e-08 1.1419271e-06 0.0 1.3703178e-08
000070 0c 1d 90 32 94 9d 9a 33 ba cf 9c 35 00 00 00 00
       1.6777015e-08 7.199847e-08 1.1683362e-06 0.0
000080 62 6e f0 31 62 71 96 32 9a b2 d3 33 ec 76 9b 35
       6.9974684e-09 1.7513859e-08 9.8579406e-08 1.1583011e-06
000090 00 00 00 00 f5 64 b1 32 6e d7 d9 30 cf 60 18 34
       0.0 2.0651422e-08 1.5850057e-09 1.4191322e-07
0000a0 97 10 9d 35 00 00 00 00 16 0c 66 32 be d3 14 32
       1.170224e-06 0.0 1.339051e-08 8.662878e-09
0000b0 b7 f6 97 33 51 aa 9d 35 00 00 00 00 e1 71 98 32
       7.0763626e-08 1.174698e-06 0.0 1.7746915e-08
0000c0 49 55 7c 31 97 10 a7 33 1a 83 95 35 00 00 00 00
       3.6719305e-09 7.779561e-08 1.1139521e-06 0.0
0000d0 06 32 64 33 d6 75 5c 31 02 b8 ed 33 40 73 96 35
       5.3130883e-08 3.2081195e-09 1.1069643e-07 1.1209413e-06
0000e0 00 00 00 00 d9 54 64 33 16 3e 6a 31 cf 9e ba 33
       0.0 5.3162555e-08 3.4086773e-09 8.690187e-08
0000f0 0a 5d af 35 00 00 00 00 69 1d d2 32 4f 1c ca 32
       1.3065594e-06 0.0 2.4460592e-08 2.3528768e-08
000100 a0 2f c9 33 7b 1e ab 35 00 00 00 00 f1 36 4e 32
       9.368455e-08 1.2749364e-06 0.0 1.200327e-08
000110 69 d2 f7 32 12 48 b8 33 ea ce ab 35 00 00 00 00
       2.8850268e-08 8.581277e-08 1.2800713e-06 0.0
000120 e8 e5 2b 32 ef 60 96 32 0f 91 af 33 c9 17 ac 35
       1.0005785e-08 1.7506379e-08 8.1754585e-08 1.2821921e-06
000130 00 00 00 00 75 9e 1c 32 73 ba ad 32 e8 9a ee 33
       0.0 9.116424e-09 2.0224638e-08 1.1110916e-07
000140 e3 8c ad 35 00 00 00 00 62 bf bb 32 f3 1c 87 30
       1.2930508e-06 0.0 2.1856696e-08 9.830771e-10
000150 78 cb 2e 34 fe a9 ae 35 00 00 00 00 60 37 72 32
       1.6279034e-07 1.3013484e-06 0.0 1.4098845e-08
000160 7f b5 1c 32 b2 bd a0 33 45 89 af 35 00 00 00 00
       9.1216625e-09 7.485086e-08 1.3078467e-06 0.0
000170 6e 00 90 32 1c 5f 1e 31 c1 bf b5 33 ad 69 a6 35
       1.6764002e-08 2.304609e-09 8.463349e-08 1.239872e-06
000180 00 00 00 00 58 5a 69 33 23 68 26 31 25 d8 fb 33
       0.0 5.4331707e-08 2.4215374e-09 1.1727415e-07
000190 42 a0 a7 35 00 00 00 00 cd a3 78 33 14 83 23 31
       1.2489111e-06 0.0 5.7890976e-08 2.379413e-09
0001a0 26 df b6 33 9d 21 bd 35 00 00 00 00 3c 38 16 33
       8.515626e-08 1.409138e-06 0.0 3.497574e-08
0001b0 5d c7 e6 32 d2 94 da 33 11 5d b9 35 00 00 00 00
       2.6866184e-08 1.0178486e-07 1.381066e-06 0.0
0001c0 34 05 86 32 ef 91 17 33 d4 70 ce 33 d7 74 b8 35
       1.560202e-08 3.5290153e-08 9.613146e-08 1.3743073e-06
0001d0 00 00 00 00 0c 99 45 32 24 ea a6 32 16 1d c0 33
       0.0 1.1501708e-08 1.9431418e-08 8.9459874e-08
0001e0 4e 8b b7 35 00 00 00 00 35 ef 16 32 02 b7 b9 32
       1.3675105e-06 0.0 8.7855385e-09 2.1620057e-08
0001f0 69 72 04 34 d7 5f b9 35 00 00 00 00 af 3e f3 32
       1.233508e-07 1.3811467e-06 0.0 2.8317428e-08
000200 e5 70 26 31 05 23 4a 34 7f e7 b8 35 00 00 00 00
       2.4220352e-09 1.8825456e-07 1.3776443e-06 0.0
000210 45 12 7d 32 35 9c 31 32 32 0d b7 33 1a 10 bb 35
       1.4730692e-08 1.0338273e-08 8.524002e-08 1.3937272e-06
000220 00 00 00 00 5f f4 c6 32 ba 44 a9 31 7b 22 be 33
       0.0 2.316136e-08 4.9263607e-09 8.8538364e-08
000230 b9 72 b3 35 00 00 00 00 4b f1 83 33 61 7c 9a 31
       1.3369928e-06 0.0 6.144054e-08 4.49613e-09
000240 a0 7e 06 34 d9 27 b6 35 00 00 00 00 80 ec 88 33
       1.2525788e-07 1.3571654e-06 0.0 6.3760126e-08
000250 6d 7d 9a 31 c1 e1 c7 33 ac 11 39 35 0c 95 9f 34
       4.496249e-09 9.307724e-08 6.8943586e-07 2.9724504e-07
000260 11 dc 57 35 bd cc ea 34 11 b2 ee 32 c3 bc 17 35
       8.041398e-07 4.3734863e-07 2.7787822e-08 5.652657e-07
000270 55 ed 05 35 29 63 ff 34 7f c5 4b 35 0c a9 b0 34
       4.9891725e-07 4.75696e-07 7.591079e-07 3.2905552e-07
000280 92 16 62 35 fa 27 0a 35 24 cb 02 33 8c 1c 22 35
       8.4224405e-07 5.146718e-07 3.045274e-08 6.0391244e-07
000290 4a 93 18 35 c5 be 08 35 53 e3 57 35 1f 44 bd 34
       5.6838746e-07 5.0941554e-07 8.042454e-07 3.5253558e-07
0002a0 c1 19 77 35 d6 b8 17 35 4d 52 0b 33 ea a9 2c 35
       9.205215e-07 5.6520855e-07 3.243831e-08 6.432225e-07
0002b0 92 9a 19 35 d5 e2 10 35 a2 32 02 36 00 00 00 00
       5.722187e-07 5.3974264e-07 1.9400982e-06 0.0
0002c0 6f 49 81 33 3b 6e c7 32 3d eb 1f 34 a2 11 0d 36
       6.020388e-08 2.3216776e-08 1.4893608e-07 2.10209e-06
0002d0 00 00 00 00 6a dd 85 33 a1 0c f1 32 01 1e 30 34
       0.0 6.23357e-08 2.8061836e-08 1.6402193e-07
0002e0 6f 79 15 36 00 00 00 00 21 29 92 33 d5 34 da 32
       2.2273414e-06 0.0 6.806136e-08 2.5402565e-08
0002f0 d7 a7 2f 34 a2 32 02 36 00 00 00 00 6f 49 81 33
       1.6359205e-07 1.9400982e-06 0.0 6.020388e-08
000300 3b 6e c7 32 3d eb 1f 34 66 a3 01 36 00 00 00 00
       2.3216776e-08 1.4893608e-07 1.9317608e-06 0.0
000310 1b 1c aa 32 7f 9a e9 32 54 97 04 34 47 b4 ff 35
       1.9803386e-08 2.7195027e-08 1.2348511e-07 1.9051448e-06
000320 00 00 00 00 b1 cc b6 32 65 42 c5 32 77 60 01 34
       0.0 2.1280671e-08 2.2964011e-08 1.2049155e-07
000330 2d 9c 02 36 00 00 00 00 ec 6b a4 32 64 51 82 32
       1.9462416e-06 0.0 1.914119e-08 1.5171004e-08
000340 61 e0 25 34 0c 98 00 36 00 00 00 00 e6 d6 1d 33
       1.5448451e-07 1.916199e-06 0.0 3.674986e-08
000350 4f 42 3a 32 44 ef 69 34 56 a0 01 36 00 00 00 00
       1.0841702e-08 2.178686e-07 1.9315826e-06 0.0
000360 61 f3 ec 32 8c e6 41 32 2b 3a 05 34 ea d2 01 36
       2.7584692e-08 1.1286499e-08 1.2407752e-07 1.9345266e-06
000370 00 00 00 00 98 22 1e 33 13 38 84 32 99 e3 13 34
       0.0 3.6818705e-08 1.5392322e-08 1.3773241e-07
000380 4e 54 f8 35 00 00 00 00 f1 b4 c5 33 20 62 13 32
       1.8501976e-06 0.0 9.2064404e-08 8.578837e-09
000390 da 95 35 34 c1 b0 f9 35 00 00 00 00 8c fc c0 33
       1.6911454e-07 1.8603388e-06 0.0 8.986635e-08
0003a0 7b 5c 1f 32 7f 4d 1b 34 a2 11 0d 36 00 00 00 00
       9.276046e-09 1.4463693e-07 2.10209e-06 0.0
0003b0 6a dd 85 33 a1 0c f1 32 01 1e 30 34 2d 1f 0c 36
       6.23357e-08 2.8061836e-08 1.6402193e-07 2.0879772e-06
0003c0 00 00 00 00 a4 ce d2 32 b4 f3 05 33 7e e1 0c 34
       0.0 2.4541187e-08 3.1188122e-08 1.312055e-07
0003d0 70 c8 0a 36 00 00 00 00 0b 5a 9c 32 0e a8 cd 32
       2.0680272e-06 0.0 1.8201737e-08 2.3941563e-08
0003e0 89 ae 10 34 fe 41 0c 36 00 00 00 00 2d 90 c5 32
       1.347454e-07 2.0900038e-06 0.0 2.2999382e-08
0003f0 7c 9e ab 32 ba 66 36 34 88 08 0c 36 00 00 00 00
       1.997909e-08 1.6987443e-07 2.0866592e-06 0.0

exp_avg f4 [64]
000000 a4 4e 33 ba ef a3 21 ba 7f 32 c0 b9 b8 59 ab 37
       -0.00068400265 -0.00061660906 -0.00036658716 2.0426567e-05
000010 d7 79 07 ba 06 56 0f 38 07 2b 0a 3a 87 6c 30 3a
       -0.0005167997 3.4173972e-05 0.0005270694 0.0006730039
000020 fd ce 28 ba 7c 05 16 3a 17 0f 25 ba f2 6c 49 b9
       -0.0006439535 0.0005722863 -0.0006296499 -0.00019209439
000030 60 2a 7f 39 16 45 3f b9 97 77 b6 b9 69 eb a6 ba
       0.00024334481 -0.00018240916 -0.00034802846 -0.0012734953
000040 12 72 84 39 06 ac 01 ba 46 1c 2c ba 7a 6d d2 b8
       0.0002526199 -0.0004946593 -0.00065654924 -0.00010033972
000050 9a 9f 77 39 06 bb 4d b9 6c 1f 06 ba 6f ec c2 39
       0.00023615212 -0.00019619995 -0.00051163766 0.0003717872
000060 0c 69 4b 39 cb 7c 73 39 87 fa 8d b9 b2 8a 81 38
       0.00019398722 0.00023220775 -0.00027080273 6.177033e-05
000070 2f a7 f0 b7 dc a7 62 b9 f0 69 19 b9 8a fd d4 b9
       -2.868808e-05 -0.00021615572 -0.00014630682 -0.00040624692
000080 2c 3b 1b ba 3e 17 ec b8 e0 dd 62 ba 93 60 6f 38
       -0.0005921598 -0.00011257686 -0.0008654278 5.7071982e-05
000090 88 de f4 39 f0 37 11 3a a8 48 8f b9 d5 da 22 39
       0.00046705105 0.00055396464 -0.0002732922 0.00015531045
0000a0 b8 89 1e ba 0e 4d d6 38 28 9a 75 b9 6f 9e 9c ba
       -0.00060477434 0.00010218668 -0.00023422448 -0.0011949072
0000b0 30 87 69 b8 35 89 3e ba 91 98 52 ba 2d 95 2c ba
       -5.5677432e-05 -0.000726837 -0.00080335984 -0.0006583508
0000c0 16 39 3e 3a 73 c0 52 b9 58 5c 1e ba bc 17 85 ba
       0.0007256431 -0.00020098854 -0.0006040982 -0.0010154168
0000d0 24 eb 04 b9 14 48 dd 39 fb e8 88 39 1e 28 35 ba
       -0.00012676098 0.00042206107 0.00026113525 -0.000691058
0000e0 39 6b 2a 39 3a e8 a7 39 10 28 56 39 b2 70 c8 36
       0.00016252407 0.00032025744 0.00020423555 5.973584e-06
0000f0 74 ff 38 b7 8f f8 07 3a e7 bb 10 3a c6 d6 1c ba
       -1.1026732e-05 0.00051868794 0.00055211637 -0.00059829315

exp_avg_sq f4 [64]
000000 1e 44 bd 35 51 3a 15 36 01 30 ac 35 11 4f 14 32
       1.4101422e-06 2.2236675e-06 1.282897e-06 8.632711e-09
000010 e7 ef 01 36 c5 19 39 32 36 3b 41 36 d7 58 af 36
       1.936214e-06 1.0774277e-08 2.8793706e-06 5.2257487e-06
000020 7c a7 cb 35 af f3 51 36 1f 5f eb 36 f6 27 a7 35
       1.5173423e-06 3.128527e-06 7.0146193e-06 1.24541e-06
000030 b0 8b b3 36 61 b2 3d 35 a2 eb 08 36 e0 70 07 37
       5.3508775e-06 7.066756e-07 2.0402736e-06 8.072908e-06
000040 aa 1e 54 36 3e 3f a7 36 c5 b5 1f 36 c6 1e b7 36
       3.160831e-06 4.98435e-06 2.379865e-06 5.4574075e-06
000050 83 12 a0 35 68 58 aa 36 37 a6 a8 36 32 a5 5b 36
       1.1926317e-06 5.0766866e-06 5.02614e-06 3.27297e-06
000060 b0 bb 88 36 4e cd 4e 36 6a c9 4f 35 81 9b a6 36
       4.0749655e-06 3.0815895e-06 7.7406605e-07 4.9652886e-06
000070 7a dd 66 36 5d 95 cb 35 a9 8a cc 36 ce 3c bd 36
       3.4401587e-06 1.5168149e-06 6.095816e-06 5.6397175e-06
000080 4a da 02 36 76 38 6a 33 29 c0 51 36 d3 07 0a 36
       1.949857e-06 5.453372e-08 3.1255279e-06 2.0568157e-06
000090 2b 59 e0 36 cd d0 bb 36 f9 44 fa 35 f2 08 e3 36
       6.6861007e-06 5.597342e-06 1.8646525e-06 6.7661686e-06
0000a0 7e 76 5b 36 fa e9 79 35 18 f2 ca 35 80 bf 83 36
       3.2702515e-06 9.310021e-07 1.5120631e-06 3.9263978e-06
0000b0 e3 fd 37 34 9b 8b 9a 36 09 ae c8 36 c5 4f 23 36
       1.7135567e-07 4.60581e-06 5.980725e-06 2.4335325e-06
0000c0 34 d6 e0 36 e3 a1 9e 35 94 4e 0d 36 90 15 a8 36
       6.7006567e-06 1.1819033e-06 2.1056376e-06 5.0093004e-06
0000d0 ad 1f 23 36 44 5a 33 36 ce 5a 9c 35 b5 98 92 36
       2.430733e-06 2.672562e-06 1.1649333e-06 4.3689165e-06
0000e0 38 20 46 36 b4 ba 3d 36 9e 2d e2 35 8a aa 91 35
       2.9523053e-06 2.827187e-06 1.6851588e-06 1.0852975e-06
0000f0 0e c9 94 36 6d 55 89 36 3a 25 73 36 e9 75 97 36
       4.4341496e-06 4.092863e-06 3.623149e-06 4.5138772e-06

exp_avg f4 [2, 64]
000000 3b 8a c4 3b ad d4 0c 3c 9f a6 d6 3b 8b 3f 03 bb
       0.0059979237 0.008595628 0.0065506245 -0.0020026888
000010 d3 18 a0 3b 2f b7 cf ba ea e0 92 3b ce 1b 9d 3a
       0.004885772 -0.001584744 0.0044823783 0.0011986436
000020 d4 35 d1 3a b5 93 6f 3b fb bb 83 3b 4b 50 41 3b
       0.0015961477 0.0036556546 0.0040202118 0.0029497321
000030 d1 81 37 bb fd 92 28 3b 21 38 ac 3a ef ce ef 3b
       -0.002800096 0.0025722377 0.0013139286 0.0073183696
000040 54 69 2a ba e2 60 f7 3a e0 a3 cf 3b 4f 7d 33 3b
       -0.00065006805 0.0018873478 0.006336674 0.0027387922
000050 a9 ca b0 b9 a8 ad 73 3b c5 2f 36 3b a8 3a e7 b9
       -0.0003372033 0.0037182365 0.002779947 -0.00044103456
000060 f0 36 5a 3a c8 fb 55 3a 2f 48 ab 3a 0b 23 8a ba
       0.00083242264 0.00081628235 0.0013067777 -0.0010539008
000070 9c 9b 73 3a ac be 6e 39 0a 11 6c 3b ee 78 93 3b
       0.0009292902 0.0002276848 0.0036020898 0.0045005
000080 5d c2 d5 3a 9b 84 09 ba 5f 52 88 3b 06 03 fa 3b
       0.0016308535 -0.0005245895 0.00416021 0.007629755
000090 4d 94 d5 ba 65 67 d5 3a 6c b0 cd 3b 74 76 d0 3b
       -0.0016294807 0.0016281424 0.0062771346 0.006361777
0000a0 47 aa ad 3a b2 ef 32 ba 88 98 7b 3b 8e 18 c3 3b
       0.0013249599 -0.00068258785 0.0038390476 0.005953855
0000b0 1a a5 4b ba 22 e9 e9 3b 4c 7b 99 3b f0 76 51 3b
       -0.00077684375 0.0071383873 0.0046838876 0.0031961761
0000c0 37 c1 8d 39 81 e2 ae 38 a6 f2 7e 3b 3e 0a a7 3b
       0.00027037572 8.339156e-05 0.0038901954 0.0050976565
0000d0 5a ab 87 39 f9 7e 8e 3b 69 5a 31 3a 8e d7 51 3b
       0.00025876873 0.0043486324 0.00067654863 0.003201935
0000e0 e5 a1 46 3b 17 97 06 bb c9 16 c5 3a 34 04 a8 b9
       0.00303089 -0.0020536834 0.0015036698 -0.0003204659
0000f0 ba 7c 7d 3a 57 5c 80 3b b4 5b 4c 3a cb bf 44 3b
       0.000966977 0.003917258 0.0007795647 0.0030021544
000100 3b 8a c4 bb ab d4 0c bc a0 a6 d6 bb 8b 3f 03 3b
       -0.0059979237 -0.008595626 -0.006550625 0.0020026888
000110 d4 18 a0 bb 2e b7 cf 3a ea e0 92 bb d3 1b 9d ba
       -0.0048857722 0.0015847438 -0.0044823783 -0.0011986442
000120 d4 35 d1 ba b6 93 6f bb fa bb 83 bb 49 50 41 bb
       -0.0015961477 -0.0036556548 -0.0040202113 -0.0029497317
000130 d0 81 37 3b fd 92 28 bb 1d 38 ac ba ee ce ef bb
       0.0028000958 -0.0025722377 -0.0013139282 -0.007318369
000140 4e 69 2a 3a e2 60 f7 ba de a3 cf bb 50 7d 33 bb
       0.0006500677 -0.0018873478 -0.006336673 -0.0027387924
000150 a3 ca b0 39 aa ad 73 bb c6 2f 36 bb a9 3a e7 39
       0.00033720312 -0.003718237 -0.0027799471 0.0004410346
000160 ee 36 5a ba c9 fb 55 ba 2d 48 ab ba 09 23 8a 3a
       -0.0008324225 -0.0008162824 -0.0013067775 0.0010539006
000170 96 9b 73 ba 9f be 6e b9 0d 11 6c bb ef 78 93 bb
       -0.00092928985 -0.0002276846 -0.0036020905 -0.0045005004
000180 5d c2 d5 ba 9d 84 09 3a 61 52 88 bb 05 03 fa bb
       -0.0016308535 0.0005245896 -0.004160211 -0.0076297545
000190 4e 94 d5 3a 67 67 d5 ba 6b b0 cd bb 75 76 d0 bb
       0.0016294809 -0.0016281427 -0.006277134 -0.0063617774
0001a0 45 aa ad ba b5 ef 32 3a 89 98 7b bb 8f 18 c3 bb
       -0.0013249597 0.000682588 -0.0038390479 -0.0059538553
0001b0 19 a5 4b 3a 21 e9 e9 bb 4a 7b 99 bb f0 76 51 bb
       0.0007768437 -0.007138387 -0.0046838867 -0.0031961761
0001c0 2e c1 8d b9 89 e2 ae b8 a6 f2 7e bb 3e 0a a7 bb
       -0.00027037546 -8.339162e-05 -0.0038901954 -0.0050976565
0001d0 4c ab 87 b9 f8 7e 8e bb 69 5a 31 ba 8d d7 51 bb
       -0.00025876833 -0.004348632 -0.00067654863 -0.0032019347
0001e0 e9 a1 46 bb 16 97 06 3b ca 16 c5 ba 2e 04 a8 39
       -0.0030308908 0.0020536832 -0.0015036699 0.0003204657
0001f0 be 7c 7d ba 58 5c 80 bb b5 5b 4c ba cb bf 44 bb
       -0.0009669772 -0.0039172582 -0.0007795648 -0.0030021544

exp_avg_sq f4 [2, 64]
000000 6c 3d 5b 38 6c 9e 80 39 55 0a 26 39 41 44 e0 37
       5.2270872e-05 0.00024532096 0.00015834843 2.6734664e-05
000010 ac 0b 53 38 95 d9 f2 37 c2 f1 fc 38 34 66 e8 38
       5.031719e-05 2.8949968e-05 0.00012061327 0.00011081659
000020 83 41 00 37 ec cc a4 38 72 43 7e 38 71 d1 19 38
       7.644648e-06 7.858299e-05 6.0621132e-05 3.66731e-05
000030 44 78 1b 39 90 27 2b 38 69 ca cd 37 72 57 30 39
       0.00014826754 4.0806422e-05 2.4532159e-05 0.00016817244
000040 b0 d5 19 38 2d 14 01 38 a8 99 22 39 02 0f ba 38
       3.6677055e-05 3.0774787e-05 0.00015506765 8.8719666e-05
000050 2d 81 d9 37 c6 77 91 38 2a b2 4e 38 30 ac 37 38
       2.5928568e-05 6.936448e-05 4.9280156e-05 4.3790962e-05
000060 9e a8 43 38 3f ec a3 38 5b 95 d8 37 85 5b 3d 39
       4.664866e-05 7.81645e-05 2.5818756e-05 0.00018058538
000070 fd 00 27 38 c1 d2 1f 38 aa 50 f5 38 78 c6 f7 38
       3.9816823e-05 3.8104834e-05 0.00011697535 0.000118148455
000080 53 5e 06 38 32 c0 4e 37 5e ff 3f 38 ef e4 d4 39
       3.2035936e-05 1.2323306e-05 4.5775778e-05 0.0004060636
000090 c8 0f 14 39 46 47 01 39 bd 10 b5 38 9a a4 20 39
       0.00014120259 0.0001232895 8.63387e-05 0.00015320108
0000a0 c8 5f 04 38 d1 b1 99 37 f9 5d 10 39 fe 31 76 38
       3.1560456e-05 1.8321824e-05 0.00013767918 5.869753e-05
0000b0 68 3c 28 37 cc 89 2f 39 6c 73 e0 38 c5 46 5f 38
       1.0027645e-05 0.00016740634 0.00010702651 5.3233252e-05
0000c0 b0 e9 83 38 21 f1 49 37 c1 9b ac 38 08 d6 c1 38
       6.2900945e-05 1.2036676e-05 8.2306105e-05 9.2428236e-05
0000d0 89 35 41 38 d4 ea ce 39 90 7a fa 38 e4 86 2a 39
       4.6064644e-05 0.00039466342 0.00011943758 0.00016262714
0000e0 9b 19 2f 39 c5 94 1e 38 20 dc 3d 39 68 f1 88 37
       0.0001669884 3.7808688e-05 0.00018106448 1.6324877e-05
0000f0 f6 ab 96 38 64 c0 00 39 84 91 6e 38 bf 03 86 38
       7.1845876e-05 0.00012278702 5.6879144e-05 6.390316e-05
000100 6d 3d 5b 38 6c 9e 80 39 54 0a 26 39 43 44 e0 37
       5.2270876e-05 0.00024532096 0.00015834841 2.6734668e-05
000110 ab 0b 53 38 97 d9 f2 37 c2 f1 fc 38 32 66 e8 38
       5.0317187e-05 2.8949971e-05 0.00012061327 0.000110816574
000120 83 41 00 37 eb cc a4 38 73 43 7e 38 71 d1 19 38
       7.644648e-06 7.858298e-05 6.0621136e-05 3.66731e-05
000130 43 78 1b 39 90 27 2b 38 67 ca cd 37 71 57 30 39
       0.00014826753 4.0806422e-05 2.4532155e-05 0.00016817242
000140 b0 d5 19 38 2d 14 01 38 a7 99 22 39 02 0f ba 38
       3.6677055e-05 3.0774787e-05 0.00015506764 8.8719666e-05
000150 2a 81 d9 37 c7 77 91 38 2a b2 4e 38 30 ac 37 38
       2.5928563e-05 6.936449e-05 4.9280156e-05 4.3790962e-05
000160 9f a8 43 38 3f ec a3 38 5a 95 d8 37 85 5b 3d 39
       4.6648664e-05 7.81645e-05 2.5818754e-05 0.00018058538
000170 fd 00 27 38 c1 d2 1f 38 a9 50 f5 38 77 c6 f7 38
       3.9816823e-05 3.8104834e-05 0.000116975345 0.00011814845
000180 54 5e 06 38 34 c0 4e 37 5e ff 3f 38 ee e4 d4 39
       3.203594e-05 1.2323308e-05 4.5775778e-05 0.00040606357
000190 c6 0f 14 39 45 47 01 39 bb 10 b5 38 9a a4 20 39
       0.00014120256 0.00012328949 8.633869e-05 0.00015320108
0001a0 c7 5f 04 38 d0 b1 99 37 fa 5d 10 39 fc 31 76 38
       3.1560452e-05 1.8321822e-05 0.00013767919 5.8697522e-05
0001b0 6a 3c 28 37 cc 89 2f 39 6f 73 e0 38 c5 46 5f 38
       1.0027647e-05 0.00016740634 0.000107026535 5.3233252e-05
0001c0 ad e9 83 38 21 f1 49 37 c3 9b ac 38 05 d6 c1 38
       6.290092e-05 1.2036676e-05 8.230612e-05 9.2428214e-05
0001d0 89 35 41 38 d4 ea ce 39 91 7a fa 38 e5 86 2a 39
       4.6064644e-05 0.00039466342 0.00011943759 0.00016262716
0001e0 9a 19 2f 39 c4 94 1e 38 1f dc 3d 39 68 f1 88 37
       0.00016698838 3.7808684e-05 0.00018106446 1.6324877e-05
0001f0 f7 ab 96 38 64 c0 00 39 84 91 6e 38 bf 03 86 38
       7.184588e-05 0.00012278702 5.6879144e-05 6.390316e-05

exp_avg f4 [2]
000000 62 37 f3 3b 61 37 f3 bb
       0.0074223736 -0.007422373

exp_avg_sq f4 [2]
000000 bc 1a 02 3a bb 1a 02 3a
       0.000496309 0.00049630896

exp_avg f4 [2, 64]
000000 6b 52 0c 3b eb 78 8c ba ec fb 39 3b 4c 9c 0e b9
       0.002141143 -0.0010717189 0.0028378917 -0.000136004
000010 00 13 f8 39 0d ec 88 ba d9 bd b0 b9 8a f4 af ba
       0.00047316402 -0.0010446325 -0.00033710783 -0.0013424319
000020 e0 b3 16 3a e1 cb 4f bb 3c f6 cb 3a cd 3f 56 39
       0.00057488494 -0.0031707215 0.0015561054 0.00020432398
000030 c8 d5 e7 ba 7c 6c 8b 3a 4f 0b fa 3a 87 ac 59 3b
       -0.0017687613 0.0010637189 0.0019076857 0.0033214407
000040 67 9c 77 3a 34 44 90 3a cb dc cd 3a 4e 21 26 3b
       0.0009445608 0.0011006654 0.001570606 0.002534944
000050 3d 4e 06 bb af 1e 43 3b cb 08 f3 39 a5 d5 63 ba
       -0.002049341 0.0029772928 0.00046355123 -0.00086911983
000060 37 82 e3 ba 04 6b 6e b8 13 32 23 3b ba 3c 0c bb
       -0.0017357533 -5.6843288e-05 0.0024901673 -0.00213985
000070 d2 bd a1 ba 15 a2 d0 3a a7 dd a4 ba 93 01 ba ba
       -0.0012339896 0.0015917445 -0.0012578265 -0.0014191143
000080 f8 4f e1 ba 5d 9c 5f 39 78 15 3a 3b 29 31 87 3b
       -0.001718997 0.00021325187 0.0028394144 0.0041257334
000090 a6 f2 5a ba f6 f5 5a ba da f8 24 3b f9 1b 64 3b
       -0.00083521975 -0.0008352691 0.002517274 0.0034806712
0000a0 4f a2 85 3b 22 93 04 3a 3e 68 a9 3a 92 d2 14 bb
       0.0040781866 0.0005057325 0.0012924743 -0.0022708517
0000b0 64 fe a7 38 f9 57 66 3b 07 70 9f 3a dc 79 9e ba
       8.0105645e-05 0.003514765 0.0012164124 -0.001209076
0000c0 44 09 8d ba f7 f9 6f b9 49 bd 2b 3b c3 47 d5 ba
       -0.0010760208 -0.00022885935 0.0026205352 -0.0016271997
0000d0 e2 98 6b 3a 6c 63 34 3b 25 26 cb 38 b3 1f 09 3b
       0.000898732 0.002752508 9.686899e-05 0.0020923435
0000e0 e6 5d 60 bb 5a 9d fe 39 11 21 1e bb c7 f5 81 ba
       -0.0034235655 0.0004856389 -0.0024128596 -0.0009915166
0000f0 13 76 0d bb 03 bf 18 3a e4 61 ac ba 47 68 d1 3a
       -0.002158527 0.0005826803 -0.0013151732 0.0015976512
000100 6a 52 0c bb e7 78 8c 3a ef fb 39 bb 52 9c 0e 39
       -0.0021411427 0.0010717184 -0.0028378924 0.00013600409
000110 f5 12 f8 b9 0f ec 88 3a dc bd b0 39 84 f4 af 3a
       -0.0004731637 0.0010446328 0.00033710792 0.0013424312
000120 df b3 16 ba de cb 4f 3b 3d f6 cb ba d5 3f 56 b9
       -0.0005748849 0.0031707208 -0.0015561056 -0.0002043241
000130 c2 d5 e7 3a 7b 6c 8b ba 4d 0b fa ba 84 ac 59 bb
       0.0017687606 -0.0010637188 -0.0019076854 -0.00332144
000140 6d 9c 77 ba 39 44 90 ba ce dc cd ba 4e 21 26 bb
       -0.00094456115 -0.001100666 -0.0015706064 -0.002534944
000150 3c 4e 06 3b b0 1e 43 bb ca 08 f3 b9 9d d5 63 3a
       0.0020493409 -0.002977293 -0.0004635512 0.00086911937
000160 35 82 e3 3a d4 6a 6e 38 14 32 23 bb b7 3c 0c 3b
       0.001735753 5.6843113e-05 -0.0024901675 0.0021398494
000170 cf bd a1 3a 15 a2 d0 ba a0 dd a4 3a 91 01 ba 3a
       0.0012339893 -0.0015917445 0.0012578256 0.0014191141
000180 fa 4f e1 3a 54 9c 5f b9 78 15 3a bb 2a 31 87 bb
       0.0017189973 -0.00021325174 -0.0028394144 -0.004125734
000190 99 f2 5a 3a f0 f5 5a 3a db f8 24 bb fb 1b 64 bb
       0.000835219 0.00083526876 -0.0025172743 -0.0034806717
0001a0 50 a2 85 bb 27 93 04 ba 3f 68 a9 ba 91 d2 14 3b
       -0.004078187 -0.0005057328 -0.0012924745 0.0022708515
0001b0 46 fe a7 b8 f8 57 66 bb 03 70 9f ba da 79 9e 3a
       -8.010543e-05 -0.0035147648 -0.0012164119 0.0012090758
0001c0 41 09 8d 3a f0 f9 6f 39 47 bd 2b bb c3 47 d5 3a
       0.0010760204 0.00022885925 -0.0026205347 0.0016271997
0001d0 e4 98 6b ba 71 63 34 bb 82 26 cb b8 b4 1f 09 bb
       -0.0008987321 -0.0027525092 -9.686967e-05 -0.0020923438
0001e0 e3 5d 60 3b 66 9d fe b9 0c 21 1e 3b c4 f5 81 3a
       0.0034235648 -0.00048563926 0.0024128584 0.0009915163
0001f0 12 76 0d 3b 0f bf 18 ba df 61 ac 3a 46 68 d1 ba
       0.0021585268 -0.000582681 0.0013151726 -0.001597651

exp_avg_sq f4 [2, 64]
000000 8a 78 52 38 59 28 81 39 64 0f 1f 39 3a f6 e7 37
       5.0180162e-05 0.0002463486 0.00015169155 2.7652004e-05
000010 30 a8 54 38 0c c8 f6 37 42 5d fb 38 44 e4 fe 38
       5.0701376e-05 2.941864e-05 0.00011985983 0.000121541816
000020 4e f7 fe 36 2c 3a b6 38 6e 9b 70 38 fd ae 12 38
       7.59858e-06 8.6892716e-05 5.7365214e-05 3.4972083e-05
000030 e7 a5 1d 39 78 4b 19 38 93 a5 d9 37 58 ed 36 39
       0.0001503449 3.654833e-05 2.5945517e-05 0.0001744529
000040 08 59 0d 38 66 1b 01 38 b4 40 26 39 9d c5 b3 38
       3.3699936e-05 3.0781513e-05 0.00015855097 8.5721935e-05
000050 57 8f f2 37 7e 6f 8c 38 34 ca 59 38 0b e3 4a 38
       2.8915396e-05 6.696487e-05 5.1925148e-05 4.8372003e-05
000060 6e 04 46 38 84 3f a6 38 a8 03 e4 37 95 a5 54 39
       4.7211004e-05 7.9273275e-05 2.718142e-05 0.0002027958
000070 18 a1 2c 38 34 29 15 38 23 85 04 39 ca 3b 01 39
       4.1158026e-05 3.556274e-05 0.00012638098 0.00012324672
000080 bb 71 03 38 e9 49 4f 37 86 05 49 38 83 01 cf 39
       3.1338754e-05 1.235537e-05 4.792728e-05 0.00039483243
000090 13 c7 17 39 a1 26 06 39 22 e0 b4 38 62 46 11 39
       0.00014474643 0.00012793626 8.624817e-05 0.00013854497
0000a0 96 d5 00 38 99 d7 97 37 33 d8 07 39 b2 d9 71 38
       3.0716496e-05 1.8100998e-05 0.00012955144 5.7661622e-05
0000b0 f9 e3 21 37 03 e6 26 39 c2 be f4 38 45 98 77 38
       9.649427e-06 0.0001591668 0.00011670358 5.90312e-05
0000c0 fe 82 8c 38 e7 fe 35 37 ef 5c ab 38 b2 1d c6 38
       6.7001194e-05 1.084779e-05 8.1712256e-05 9.446907e-05
0000d0 51 f2 3c 38 95 7f c1 39 fd a0 fa 38 a2 49 32 39
       4.5048368e-05 0.00036906885 0.00011950915 0.00017002833
0000e0 17 8c 42 39 63 5f 15 38 b9 de 3d 39 fa 3a 84 37
       0.00018553469 3.5613204e-05 0.00018107415 1.576309e-05
0000f0 74 d1 9b 38 6a cf f7 38 94 16 80 38 de 59 86 38
       7.42999e-05 0.00011816512 6.107721e-05 6.406357e-05
000100 8b 78 52 38 59 28 81 39 64 0f 1f 39 3b f6 e7 37
       5.0180166e-05 0.0002463486 0.00015169155 2.7652006e-05
000110 33 a8 54 38 0b c8 f6 37 41 5d fb 38 44 e4 fe 38
       5.0701386e-05 2.9418637e-05 0.000119859826 0.000121541816
000120 51 f7 fe 36 2e 3a b6 38 6e 9b 70 38 fd ae 12 38
       7.5985813e-06 8.689273e-05 5.7365214e-05 3.4972083e-05
000130 ea a5 1d 39 78 4b 19 38 96 a5 d9 37 5a ed 36 39
       0.00015034495 3.654833e-05 2.5945523e-05 0.00017445293
000140 08 59 0d 38 66 1b 01 38 b5 40 26 39 9d c5 b3 38
       3.3699936e-05 3.0781513e-05 0.00015855099 8.5721935e-05
000150 59 8f f2 37 7e 6f 8c 38 33 ca 59 38 0c e3 4a 38
       2.89154e-05 6.696487e-05 5.1925144e-05 4.8372007e-05
000160 6e 04 46 38 84 3f a6 38 a8 03 e4 37 94 a5 54 39
       4.7211004e-05 7.9273275e-05 2.718142e-05 0.00020279578
000170 18 a1 2c 38 35 29 15 38 21 85 04 39 ca 3b 01 39
       4.1158026e-05 3.5562745e-05 0.00012638095 0.00012324672
000180 bc 71 03 38 e8 49 4f 37 86 05 49 38 82 01 cf 39
       3.1338757e-05 1.2355369e-05 4.792728e-05 0.0003948324
000190 16 c7 17 39 a1 26 06 39 23 e0 b4 38 60 46 11 39
       0.00014474647 0.00012793626 8.6248176e-05 0.00013854494
0001a0 96 d5 00 38 99 d7 97 37 32 d8 07 39 b3 d9 71 38
       3.0716496e-05 1.8100998e-05 0.00012955142 5.7661626e-05
0001b0 fa e3 21 37 02 e6 26 39 c2 be f4 38 45 98 77 38
       9.649428e-06 0.00015916678 0.00011670358 5.90312e-05
0001c0 fe 82 8c 38 e5 fe 35 37 ee 5c ab 38 b1 1d c6 38
       6.7001194e-05 1.0847788e-05 8.171225e-05 9.446906e-05
0001d0 51 f2 3c 38 95 7f c1 39 fd a0 fa 38 a2 49 32 39
       4.5048368e-05 0.00036906885 0.00011950915 0.00017002833
0001e0 15 8c 42 39 63 5f 15 38 b7 de 3d 39 fb 3a 84 37
       0.00018553466 3.5613204e-05 0.00018107412 1.5763091e-05
0001f0 74 d1 9b 38 69 cf f7 38 95 16 80 38 de 59 86 38
       7.42999e-05 0.00011816511 6.107722e-05 6.406357e-05

exp_avg f4 [2]
000000 1d 6c 6e 3b 1f 6c 6e bb
       0.0036380359 -0.0036380363

exp_avg_sq f4 [2]
000000 9e 41 03 3a 9d 41 03 3a
       0.0005007031 0.00050070306
