results/proba_02/EscapeFromMaze/EscapeFromMaze-1007218.onnx (onnx, 52159 bytes, 7 tensors)

discrete_act_size_vector f4 [1, 2]
00000000: 0000 0040 0000 0040
2.0 2.0

network_body._body_endoder.seq_layers.0.weight f4 [64, 174]
00000000: 7504 e23d fc10 513e 3195 ce3d c672 88bb
00000010: 45dd 183d ceef c33d 85dc bb3b 7527 523c
00000020: 0959 a0ba 219f a23c da3d dabd 8b21 47bd
00000030: 3488 0bba d819 b3bd bad9 3abd 1cd3 763c
00000040: 9b60 923b 82d0 a6bb 682c 413d 2deb bfbb
00000050: a51d 1abd 24f7 28bd e7a9 78bd 7e26 9c3d
00000060: 41d8 cf3d dca6 42bd 68b6 f8bd a7f4 933d
00000070: bda6 10bd c702 bebd cbe4 813d 59fb b73b
00000080: f30a c5bd dd8b 003d 690c 943d 9ea1 7d3c
00000090: 4f41 793d 569d a0bc eb78 b2bd 43d1 143e
000000a0: 965f 00bd f892 f03c 42a8 1abe 2af8 3c3d
000000b0: a545 a7bd 22c9 36bd bb6a dcbd 805e 75bd
000000c0: 5ab8 2abd 9412 c9bc 79dd 31bc 513f c6bd
000000d0: 6fe8 48bd 9d83 e73b d79c 17bd 7cba 4cbd
000000e0: ac49 9d3d f1bb 03be b44e be3c 8f6c 4a3c
000000f0: 9134 383d e28a be3d af09 37be e1c5 46bd
00000100: 37af dabc ed26 983c 1883 15be 7666 41bc
00000110: 0a7e 83bd 7cc3 19be 20ae 153d c47b 85be
00000120: 08d1 d0bb 3fe5 a13b 1c3c df3d eee8 38be
00000130: a000 a8bc a30c a7bd 8c34 49bd 1254 15bd
00000140: 3a0f 7c3d 295c e23c 583a 05bd 2693 8dbd
00000150: 7d43 6b3c a66c 7fbd 2d80 123d 0dd9 15bd
00000160: 324b c43d e153 10bd 1772 323e df81 00be
00000170: 8eba c8bd 7360 82bd 9418 733c 1d56 a1bb
00000180: d825 a5bc af4b 883d 3a78 7d3b 45eb dabc
00000190: 6bc5 7c3d df2e bcbb 1f87 a73d ce2f 9dbc
000001a0: 4ab5 52be e75f f73c 4433 c33c 4a4b cf3d
000001b0: 95d5 0b3d e2e1 833d fa21 cdbd 3870 a33d
000001c0: c8cd 723d 0c50 b5bd 8e20 4f3e b8af f93c
000001d0: 8175 87bc d94c edbd 9313 5fbd 531a bc3d
000001e0: 551f c03d 7132 cabd 4bc0 2fbd da31 14bd
000001f0: 2f40 84bc 8639 b73c c0b6 b9bd feb4 ca3d
00000200: b150 4a3b 5254 323d 842d 273d 4898 86bc
00000210: 3a90 26bd 8bde ea3c cbb7 993c 8de3 14bc
00000220: 3b00 c13d 6b9f aa3b 994e 973d 265b 223d
00000230: 4c61 853c 4b3e d7bd 36ae 25be a63b d93d
00000240: 251f 093d 042e bc3c 80be aebd d3e1 2b3d
00000250: 3743 973d 4d9e a1bd 63d3 c43c 4417 5bbd
00000260: b359 93bd cf16 963d 360d 313d 03b0 063e
00000270: 9a2a 27bc 14e3 88bb 07e6 943d 0d81 35bd
00000280: e06f 803d dfc1 393e 880e a0bd fc6f 213d
00000290: 4772 93bd 5c33 2f3b e9eb 533c 254f 83bc
000002a0: 3101 b4bd 6e4d 4c3e 5d9c 19bb 6aec 023e
000002b0: ab02 1d3c b6a0 9dbc 673d 013d eb3b 1c3d
000002c0: 702c 0f3d 7a67 0dbe 0e5d 133d 6c0f b13d
000002d0: 10cc 15be 7ae9 593d c74a 463d a7aa d9bd
000002e0: 6fbb 023e c7d6 dbbc a96a 4b3d 3eb2 b5bd
000002f0: e287 3c3d e31c 053e 670d 2cbd 4aaa 753d
00000300: 289c f6bb df36 853d 3089 f93d f788 69bd
00000310: 0f6c 73bd 40d4 72bd e108 86bd 32d0 76bd
00000320: c0e2 8e3c 1900 17be d4d3 d7bc b9c8 923a
00000330: 83b6 af3d c56d 093d e7e7 debd 1fa0 1b3d
00000340: b4af 50be ec20 89bd 8dd5 6fbd c6ec a93d
00000350: 3cd9 8bbc ecd4 753e ce7f a73c 6ca2 e4bd
00000360: a661 f2bd 7ff2 06bd 26db d73d 1399 28bc
00000370: b25e 30be 9f21 19bc 1c5e f6ba 5a20 093d
00000380: 7e30 d5bb 945f efbd 4237 423e b15a 2f3d
00000390: c860 55bd aa26 3e3d 379a 56be 551c b63d
000003a0: 3ff6 fabd c014 f23c 7477 63bd 3729 0b3e
000003b0: b3dd 9cbc 00e9 0cbd a1fd 3e3e a33d 093d
000003c0: 6ebc aebd ff1f ae3c 1188 ad3c 041e 13be
000003d0: e734 0c3e 094c 2dbd b945 443c 7076 62bc
000003e0: dc5c f13a 3a81 01bc 60ff 603d 683b abbd
000003f0: 24ba 8c3c e45a 66bd 2ce7 483d ee8e 82bd
0.11036006 0.20416635 0.1008705 -0.0041640727 0.037320394 0.095672235 0.005733075 0.01282679
-0.0012233566 0.01985127 -0.106563285 -0.048615973 -0.0005322725 -0.08745164 -0.045617796 0.015064981
0.0044670827 -0.005090774 0.04716149 -0.0058568926 -0.037625927 -0.041251317 -0.060708907 0.07624529
0.10148669 -0.04752241 -0.12144166 0.07224398 -0.035315264 -0.092778735 0.06342467 0.00561468
-0.09621229 0.031383384 0.072289295 0.015480427 0.0608533 -0.019606274 -0.087144695 0.14532952
-0.031341158 0.029366955 -0.15103248 0.046135105 -0.081675805 -0.04462541 -0.10762545 -0.059904575
-0.041679718 -0.024544992 -0.010856026 -0.096800454 -0.04904979 0.00706525 -0.03701481 -0.049982533
0.076800674 -0.12864663 0.023230888 0.012354984 0.044972006 0.093038335 -0.17874788 -0.048528556
-0.026694877 0.018573249 -0.1460079 -0.011804214 -0.064205244 -0.15015978 0.03654301 -0.26070988
-0.0063725747 0.0049406583 0.10900137 -0.18057606 -0.02050811 -0.08156707 -0.04912238 -0.03645713
0.06153796 0.027631836 -0.032526344 -0.06912832 0.014359352 -0.062359475 0.03576677 -0.03658395
0.09584655 -0.035236243 0.17426334 -0.12549542 -0.098012075 -0.063660525 0.014837403 -0.0049235956
-0.020159647 0.066550605 0.0038676397 -0.026723513 0.06171171 -0.005742892 0.08180069 -0.019187834
-0.20576969 0.030197097 0.023828156 0.10121782 0.034139235 0.06439568 -0.10016246 0.079803884
0.05927828 -0.08853158 0.20227262 0.030479297 -0.016535522 -0.11586923 -0.054462027 0.091847084
0.09380976 -0.09872902 -0.042907994 -0.036180355 -0.016143886 0.022366296 -0.0906806 0.09897803
0.003087085 0.043537445 0.04081489 -0.016430035 -0.04066489 0.02867057 0.018764397 -0.009087455
0.09423872 0.0052069924 0.07388038 0.039637707 0.016281746 -0.10509928 -0.16179737 0.1060708
0.033476967 0.02297116 -0.08532429 0.04196341 0.07385867 -0.078915216 0.024026578 -0.053488985
-0.07194843 0.07328569 0.04322549 0.1315308 -0.010203028 -0.0041774604 0.07270437 -0.044312526
0.062713385 0.18140362 -0.078152716 0.039413437 -0.07199531 0.0026733493 0.012934663 -0.01602895
-0.0878929 0.19951412 -0.0023439147 0.12785497 0.009583156 -0.019241672 0.0315527 0.03814308
0.03495449 -0.13809004 0.035977416 0.086455196 -0.14628625 0.053201176 0.048411157 -0.106282525
0.12766813 -0.026835812 0.049662266 -0.088718876 0.046028025 0.129993 -0.04200497 0.059976853
-0.0075259395 0.065046065 0.121843696 -0.057015385 -0.059429225 -0.05928445 -0.06544662 -0.060257144
0.017442107 -0.14746131 -0.026346125 0.0011198736 0.08579733 0.03355195 -0.108840756 0.0379945
-0.20379525 -0.066957325 -0.058553267 0.08297114 -0.017071359 0.24007004 0.020446684 -0.11163792
-0.11835031 -0.032946106 0.10539846 -0.010290402 -0.17223623 -0.009346395 -0.0018796357 0.03347812
-0.006506025 -0.11688152 0.18966392 0.0428111 -0.05209425 0.04642359 -0.20957266 0.08892123
-0.12253999 0.02955091 -0.05553384 0.13589941 -0.019148683 -0.034401894 0.18651439 0.033506047
-0.08532034 0.021255491 0.021183046 -0.14366919 0.13692056 -0.04230884 0.011979514 -0.013822183
0.0018414515 -0.007904345 0.054931045 -0.0836094 0.017178603 -0.056239024 0.049048588 -0.06374918

network_body._body_endoder.seq_layers.0.bias f4 [64]
00000000: 4442 f63b dae8 c03b 282d 423b 961c 9b3b
00000010: 55e5 083c 769e 93bc 0d23 9e3c 159a 953c
00000020: daae 7d3c 63bd dd3c 4b79 833c 4b7c 9e3b
00000030: 1616 f63c c072 283b 2455 fb3b 7558 9c3c
00000040: 9d32 b13c 4fff 5f3c 2dae 4e3b 3251 893c
00000050: adc7 843c 56c9 973c 1aab 843c 3cd1 a53c
00000060: b4c9 ed3c e968 603c e754 9b3b 43f6 d83c
00000070: 7c78 603c f856 053c 5359 893c a869 963c
00000080: 7e25 823c bcc0 2d3c 8128 f73b 99b5 1d3c
00000090: 2497 fe3c 908d e13c 80ae 4a3c e8b1 a43c
000000a0: cc11 c23c 5b35 523b 7894 fc3b 7a3f a13c
000000b0: e914 243b a014 703c 83d6 9f3c c497 773c
000000c0: e4e6 c83c 061c 6a3c b5ee 413c 58f2 f33c
000000d0: bfec 7d3c 5d53 6d3c 60cb 513c d86b 883c
000000e0: 175e 3b3c 1bec 683c d1e1 393c b4cb 3b3c
000000f0: ebbc 803c 1728 993c 99bb aa3c 1226 883c
0.0075152237 0.005887133 0.0029628966 0.0047336323 0.008355458 -0.018019896 0.019303823 0.018261949
0.015483582 0.027067846 0.016049048 0.004836594 0.030039828 0.0025703162 0.0076700617 0.019085148
0.02163058 0.01367171 0.0031536922 0.01676235 0.016208494 0.018528622 0.016194869 0.020241372
0.029026844 0.0136968875 0.0047403458 0.026484614 0.013700601 0.008138411 0.016766226 0.018360928
0.015887018 0.0106050335 0.0075426702 0.009625816 0.031077929 0.027533323 0.012370706 0.020104364
0.023690127 0.003207526 0.0077081285 0.019683588 0.0025036877 0.014653355 0.019511467 0.015111867
0.02452416 0.014288908 0.011836697 0.029778644 0.015498339 0.014485207 0.012804836 0.016652986
0.011436007 0.014216448 0.011345343 0.011462141 0.015715083 0.018695874 0.020841407 0.016619716

action_model._discrete_distribution.branches.0.weight f4 [2, 64]
00000000: 25bc 2cbd 6302 44bd 1cbd a0bc e3c3 5dbc
00000010: 6135 e0bc 66aa f3bc a48e 2f3d 1f22 543d
00000020: 2f4b 65bd 8413 833d d68d 283c 38d5 99bc
00000030: 42f0 e53c e726 a7b9 664f 23bd 09ad 47bd
00000040: 8fa5 863d e508 58b9 748b 2abd cd63 363c
00000050: 844d 0e3d f586 753c 765f 9abc 1ed6 6c3d
00000060: f54f d3ba e6ac edbb 9817 5dbb 3540 0dbc
00000070: 1ad5 41bc d14e 813c 5c32 d1bc 4484 4cbd
00000080: 23bf 60bd ab68 4cbb 1a39 6ebd c22d d63b
00000090: c98d 643d 5145 a73d eff2 12bd 18c1 0a3d
000000a0: f6b8 173c e992 41bc e61c a1bc 4ea5 8cbd
000000b0: 85db e3bc 593e 79bc 5888 98bd 58f6 5bbd
000000c0: 91df 9f3d 6c9f 9dbc 17cd 21bd 1945 adbd
000000d0: 5916 3fbd 07bb f23c 3cea 1d3d 71bb 4fbd
000000e0: 79fb b3b9 40ab d53c b945 a83c a04a c2bb
000000f0: 5aef 23bc e7ae 5a3d b4de a03d 2c72 27bc
00000100: 251b 1b3d 99f1 f33c 43e9 553b 2fc9 50b9
00000110: ad0d ce3c a791 b53c 44a7 52bd 0e49 9dbd
00000120: 8ac6 413d 1a13 06bd 0d89 0a3d 1023 013d
00000130: dae2 cebc ca45 f73a 039b 733d 36eb ae3d
00000140: fcda 68bd 883f 8d3c 4daa 123d cdf2 30bd
00000150: b320 eabc 122a 03bd 2a02 743c 650e 7fbd
00000160: 59cf a2bc 4c19 d9bb 2f97 323c 4ee2 173b
00000170: af1f b83c 4dee 5e3b 65e6 f43c 9889 0d3d
00000180: f771 4b3d 5c4f e43c f538 363d fe89 01bd
00000190: 39c5 25bd 674b 52bd 9f21 d23c 4d5b 57bd
000001a0: f89d 4d3c 0212 0c3c d38d 1b3d 1b15 883d
000001b0: 1719 703c a3bb e73c ff00 873d e0fc 593d
000001c0: 09a5 aebd 1c50 5b3d 06c0 3f3d 315a 6c3d
000001d0: a9b6 de3c c521 41bd 8754 bbbc 9792 873d
000001e0: 6414 95bc feda 563b 0a59 acbb cae0 303c
000001f0: 4932 583c 0861 4dbd a085 47bd d87a e43c
-0.042171616 -0.04785384 -0.019621424 -0.013535473 -0.027369203 -0.029744338 0.042860642 0.051790353
-0.055979904 0.06400207 0.010287723 -0.018778428 0.028068665 -0.00031881707 -0.039870642 -0.048749004
0.065745465 -0.00020602679 -0.0416369 0.011132193 0.034741893 0.01498579 -0.018844347 0.057821386
-0.0016121852 -0.007253277 -0.0033735987 -0.008621265 -0.0118305925 0.015784653 -0.025536709 -0.049930826
-0.054869782 -0.0031190317 -0.058159925 0.0065362165 0.05579928 0.08167518 -0.03587621 0.033875555
0.009260407 -0.011814811 -0.0196671 -0.06867467 -0.027814636 -0.015212619 -0.074478805 -0.05370173
0.07806314 -0.019241057 -0.03950223 -0.08460445 -0.04665217 0.029630197 0.03855346 -0.050715867
-0.00034328902 0.026082635 0.020541059 -0.005929306 -0.010005796 0.053389456 0.07854977 -0.010220092
0.037867684 0.029778289 0.0032640256 -0.00019911373 0.025153005 0.022164179 -0.05142905 -0.0767995
0.047308482 -0.03273306 0.033822108 0.03152758 -0.025254656 0.0018865403 0.059474003 0.08540957
-0.056849465 0.017242208 0.035806943 -0.043200303 -0.028580045 -0.032022543 0.014893094 -0.062269587
-0.019874262 -0.00662533 0.010900303 0.002317566 0.022476045 0.003401655 0.029895017 0.034555048
0.049669232 0.027869873 0.044487912 -0.03162574 -0.04047129 -0.05134144 0.025650797 -0.052577306
0.01254987 0.008549215 0.03797705 0.066446505 0.014654419 0.028287714 0.06591987 0.053219676
-0.08527572 0.053543195 0.046813987 0.0577032 0.027186709 -0.047151346 -0.022867454 0.06619757
-0.0181982 0.0032784338 -0.0052596377 0.010795781 0.013195583 -0.050141364 -0.04871142 0.027890608

action_model._discrete_distribution.branches.0.bias f4 [2]
00000000: c090 b13b c890 b1bb
0.005418867 -0.0054188706

action_model._discrete_distribution.branches.1.weight f4 [2, 64]
00000000: 560d 3b3c 2464 793c 4dc3 07bd 9bd2 613c
00000010: 1fec 41bd 78f1 0c3c 1c80 4bbc eae0 e03c
00000020: 28b2 e5bb 2db2 053d 4f4c 86bd 780c 293d
00000030: 2a6a a33d 9147 29bd 31d6 8a3c a335 3cbd
00000040: 4f75 b9bc 0af5 b0bd 5faf 20bc 860a 9ebd
00000050: 265d 9a3c 4979 30bd c76a 96bd 9dd2 01bc
00000060: 29ac 823d 44bb 6b3d ef7b 06bd 30cd 6b3d
00000070: f283 693d 0ba8 19bd 6877 8f3d 062e 623d
00000080: aaec 28ba 2c43 d9bb d65f fcbc f6ac b0bc
00000090: e0dc 443d a75f 42bc ac8f 163d 9ccb 84bd
000000a0: 33f3 6ebd 38a3 3d3d 74da 093d 837f 36bb
000000b0: eb80 bf3b 3845 45bd 8312 ae3c 3ee6 043c
000000c0: c794 163c 5747 2e3d 4952 9abc 0ffb c23c
000000d0: fcf0 7f3c 6f2e a0bc 7bc5 c0bb 13ef b1bc
000000e0: a9ba 3d3d 4138 6d3d 5064 fa3c 6243 283d
000000f0: 5588 713d e857 fbbc 92ee a3ba c2f0 90bd
00000100: 7529 313c 44f6 823b c687 b53c 72c8 26bb
00000110: 6313 cb3c d5d9 5d3b 28ce c73c 8ab2 61bc
00000120: 97d4 e33c bd06 eebc 4d1e cb3d 39cf 85bc
00000130: 8830 3cbd e36e 523c df63 a2bc 9719 fe3c
00000140: 309c 9e3c dd72 873d f1b0 9d3c 567a 643d
00000150: 4f71 14bd 95e4 bc3d b580 8e3d ddeb bb3c
00000160: e1a6 94bd 0b56 54bd 82b9 f23c 40e6 89bd
00000170: 1e8d 85bd c728 413d eba0 80bd cc80 68bd
00000180: e7b4 b93c d2bc 8d3a ac20 903c 2fc8 1f3d
00000190: 46ea 86bd 2b3c 283d bbab b1bc fcf2 6f3d
000001a0: 91a2 903d d100 d3bc d283 d4bb de01 973c
000001b0: 7f4b dfbc f383 723d 2a3c e1bc 486e 9ebc
000001c0: 7135 9fbc 1473 a6bc bc37 8e3b ce1f 24bb
000001d0: 8f13 81bd ee6e 363c 0a81 273c 4b6b d9bc
000001e0: b3d9 42bd 3d85 74bd ea95 16bd ae60 3ebd
000001f0: 5fdf 99bd 78ef df3c a9e0 ffbb be41 733d
0.011416754 0.015221629 -0.033145238 0.013783122 -0.047344323 0.0086024925 -0.01242068 0.027450997
-0.0070097633 0.032640625 -0.065575235 0.041271657 0.079792336 -0.041328017 0.016947838 -0.04594959
-0.022638945 -0.086404875 -0.009807437 -0.07716851 0.018843245 -0.043084417 -0.07344585 -0.007923749
0.06380493 0.057551637 -0.032833036 0.05756873 0.0570106 -0.037513774 0.07005197 0.055219673
-0.0006443957 -0.006630322 -0.030807417 -0.02156685 0.048062205 -0.011863626 0.03675811 -0.06484148
-0.0583374 0.046298236 0.0336556 -0.0027847 0.0058442256 -0.048161715 0.021249061 0.008111535
0.009190745 0.042548504 -0.018838065 0.023801355 0.01562142 -0.019553391 -0.0058829165 -0.021720445
0.04632059 0.057914976 0.03056541 0.041079886 0.058967907 -0.030681565 -0.0012507013 -0.07077171
0.010813107 0.0039966423 0.022159468 -0.0025449065 0.024789518 0.0033851762 0.024390295 -0.013775477
0.027811332 -0.029055947 0.09917889 -0.016334163 -0.04594472 0.01284382 -0.019823013 0.031018062
0.019361585 0.06613705 0.019249411 0.05578073 -0.036240872 0.09223286 0.06958143 0.022939617
-0.07258392 -0.05183987 0.029629473 -0.0673337 -0.065210566 0.04715803 -0.06280693 -0.056763455
0.022669269 0.0010813719 0.017593704 0.03900927 -0.06587653 0.041073006 -0.021688333 0.058581337
0.07062257 -0.025757225 -0.006485441 0.018433508 -0.027257679 0.059207868 -0.027494509 -0.019339696
-0.019434663 -0.020318545 0.00434014 -0.002504337 -0.06302559 0.011134846 0.010223636 -0.02654042
-0.047570895 -0.05969738 -0.036764063 -0.04647892 -0.07513308 0.027335867 -0.007808764 0.05938887

action_model._discrete_distribution.branches.1.bias f4 [2]
00000000: c30d b73a bd0d b7ba
0.0013965893 -0.0013965886
