results/proba_02/EscapeFromMaze/EscapeFromMaze-1007218.pt (torch, 466727 bytes, 43 tensors)

discrete_act_size_vector f4 [1, 2]
000000 00 00 00 40 00 00 00 40
       2.0 2.0

network_body._body_endoder.seq_layers.0.weight f4 [64, 174]
000000 75 04 e2 3d fc 10 51 3e 31 95 ce 3d c6 72 88 bb
       0.11036006 0.20416635 0.1008705 -0.0041640727
000010 45 dd 18 3d ce ef c3 3d 85 dc bb 3b 75 27 52 3c
       0.037320394 0.095672235 0.005733075 0.01282679
000020 09 59 a0 ba 21 9f a2 3c da 3d da bd 8b 21 47 bd
       -0.0012233566 0.01985127 -0.106563285 -0.048615973
000030 34 88 0b ba d8 19 b3 bd ba d9 3a bd 1c d3 76 3c
       -0.0005322725 -0.08745164 -0.045617796 0.015064981
000040 9b 60 92 3b 82 d0 a6 bb 68 2c 41 3d 2d eb bf bb
       0.0044670827 -0.005090774 0.04716149 -0.0058568926
000050 a5 1d 1a bd 24 f7 28 bd e7 a9 78 bd 7e 26 9c 3d
       -0.037625927 -0.041251317 -0.060708907 0.07624529
000060 41 d8 cf 3d dc a6 42 bd 68 b6 f8 bd a7 f4 93 3d
       0.10148669 -0.04752241 -0.12144166 0.07224398
000070 bd a6 10 bd c7 02 be bd cb e4 81 3d 59 fb b7 3b
       -0.035315264 -0.092778735 0.06342467 0.00561468
000080 f3 0a c5 bd dd 8b 00 3d 69 0c 94 3d 9e a1 7d 3c
       -0.09621229 0.031383384 0.072289295 0.015480427
000090 4f 41 79 3d 56 9d a0 bc eb 78 b2 bd 43 d1 14 3e
       0.0608533 -0.019606274 -0.087144695 0.14532952
0000a0 96 5f 00 bd f8 92 f0 3c 42 a8 1a be 2a f8 3c 3d
       -0.031341158 0.029366955 -0.15103248 0.046135105
0000b0 a5 45 a7 bd 22 c9 36 bd bb 6a dc bd 80 5e 75 bd
       -0.081675805 -0.04462541 -0.10762545 -0.059904575
0000c0 5a b8 2a bd 94 12 c9 bc 79 dd 31 bc 51 3f c6 bd
       -0.041679718 -0.024544992 -0.010856026 -0.096800454
0000d0 6f e8 48 bd 9d 83 e7 3b d7 9c 17 bd 7c ba 4c bd
       -0.04904979 0.00706525 -0.03701481 -0.049982533
0000e0 ac 49 9d 3d f1 bb 03 be b4 4e be 3c 8f 6c 4a 3c
       0.076800674 -0.12864663 0.023230888 0.012354984
0000f0 91 34 38 3d e2 8a be 3d af 09 37 be e1 c5 46 bd
       0.044972006 0.093038335 -0.17874788 -0.048528556
000100 37 af da bc ed 26 98 3c 18 83 15 be 76 66 41 bc
       -0.026694877 0.018573249 -0.1460079 -0.011804214
000110 0a 7e 83 bd 7c c3 19 be 20 ae 15 3d c4 7b 85 be
       -0.064205244 -0.15015978 0.03654301 -0.26070988
000120 08 d1 d0 bb 3f e5 a1 3b 1c 3c df 3d ee e8 38 be
       -0.0063725747 0.0049406583 0.10900137 -0.18057606
000130 a0 00 a8 bc a3 0c a7 bd 8c 34 49 bd 12 54 15 bd
       -0.02050811 -0.08156707 -0.04912238 -0.03645713
000140 3a 0f 7c 3d 29 5c e2 3c 58 3a 05 bd 26 93 8d bd
       0.06153796 0.027631836 -0.032526344 -0.06912832
000150 7d 43 6b 3c a6 6c 7f bd 2d 80 12 3d 0d d9 15 bd
       0.014359352 -0.062359475 0.03576677 -0.03658395
000160 32 4b c4 3d e1 53 10 bd 17 72 32 3e df 81 00 be
       0.09584655 -0.035236243 0.17426334 -0.12549542
000170 8e ba c8 bd 73 60 82 bd 94 18 73 3c 1d 56 a1 bb
       -0.098012075 -0.063660525 0.014837403 -0.0049235956
000180 d8 25 a5 bc af 4b 88 3d 3a 78 7d 3b 45 eb da bc
       -0.020159647 0.066550605 0.0038676397 -0.026723513
000190 6b c5 7c 3d df 2e bc bb 1f 87 a7 3d ce 2f 9d bc
       0.06171171 -0.005742892 0.08180069 -0.019187834
0001a0 4a b5 52 be e7 5f f7 3c 44 33 c3 3c 4a 4b cf 3d
       -0.20576969 0.030197097 0.023828156 0.10121782
0001b0 95 d5 0b 3d e2 e1 83 3d fa 21 cd bd 38 70 a3 3d
       0.034139235 0.06439568 -0.10016246 0.079803884
0001c0 c8 cd 72 3d 0c 50 b5 bd 8e 20 4f 3e b8 af f9 3c
       0.05927828 -0.08853158 0.20227262 0.030479297
0001d0 81 75 87 bc d9 4c ed bd 93 13 5f bd 53 1a bc 3d
       -0.016535522 -0.11586923 -0.054462027 0.091847084
0001e0 55 1f c0 3d 71 32 ca bd 4b c0 2f bd da 31 14 bd
       0.09380976 -0.09872902 -0.042907994 -0.036180355
0001f0 2f 40 84 bc 86 39 b7 3c c0 b6 b9 bd fe b4 ca 3d
       -0.016143886 0.022366296 -0.0906806 0.09897803
000200 b1 50 4a 3b 52 54 32 3d 84 2d 27 3d 48 98 86 bc
       0.003087085 0.043537445 0.04081489 -0.016430035
000210 3a 90 26 bd 8b de ea 3c cb b7 99 3c 8d e3 14 bc
       -0.04066489 0.02867057 0.018764397 -0.009087455
000220 3b 00 c1 3d 6b 9f aa 3b 99 4e 97 3d 26 5b 22 3d
       0.09423872 0.0052069924 0.07388038 0.039637707
000230 4c 61 85 3c 4b 3e d7 bd 36 ae 25 be a6 3b d9 3d
       0.016281746 -0.10509928 -0.16179737 0.1060708
000240 25 1f 09 3d 04 2e bc 3c 80 be ae bd d3 e1 2b 3d
       0.033476967 0.02297116 -0.08532429 0.04196341
000250 37 43 97 3d 4d 9e a1 bd 63 d3 c4 3c 44 17 5b bd
       0.07385867 -0.078915216 0.024026578 -0.053488985
000260 b3 59 93 bd cf 16 96 3d 36 0d 31 3d 03 b0 06 3e
       -0.07194843 0.07328569 0.04322549 0.1315308
000270 9a 2a 27 bc 14 e3 88 bb 07 e6 94 3d 0d 81 35 bd
       -0.010203028 -0.0041774604 0.07270437 -0.044312526
000280 e0 6f 80 3d df c1 39 3e 88 0e a0 bd fc 6f 21 3d
       0.062713385 0.18140362 -0.078152716 0.039413437
000290 47 72 93 bd 5c 33 2f 3b e9 eb 53 3c 25 4f 83 bc
       -0.07199531 0.0026733493 0.012934663 -0.01602895
0002a0 31 01 b4 bd 6e 4d 4c 3e 5d 9c 19 bb 6a ec 02 3e
       -0.0878929 0.19951412 -0.0023439147 0.12785497
0002b0 ab 02 1d 3c b6 a0 9d bc 67 3d 01 3d eb 3b 1c 3d
       0.009583156 -0.019241672 0.0315527 0.03814308
0002c0 70 2c 0f 3d 7a 67 0d be 0e 5d 13 3d 6c 0f b1 3d
       0.03495449 -0.13809004 0.035977416 0.086455196
0002d0 10 cc 15 be 7a e9 59 3d c7 4a 46 3d a7 aa d9 bd
       -0.14628625 0.053201176 0.048411157 -0.106282525
0002e0 6f bb 02 3e c7 d6 db bc a9 6a 4b 3d 3e b2 b5 bd
       0.12766813 -0.026835812 0.049662266 -0.088718876
0002f0 e2 87 3c 3d e3 1c 05 3e 67 0d 2c bd 4a aa 75 3d
       0.046028025 0.129993 -0.04200497 0.059976853
000300 28 9c f6 bb df 36 85 3d 30 89 f9 3d f7 88 69 bd
       -0.0075259395 0.065046065 0.121843696 -0.057015385
000310 0f 6c 73 bd 40 d4 72 bd e1 08 86 bd 32 d0 76 bd
       -0.059429225 -0.05928445 -0.06544662 -0.060257144
000320 c0 e2 8e 3c 19 00 17 be d4 d3 d7 bc b9 c8 92 3a
       0.017442107 -0.14746131 -0.026346125 0.0011198736
000330 83 b6 af 3d c5 6d 09 3d e7 e7 de bd 1f a0 1b 3d
       0.08579733 0.03355195 -0.108840756 0.0379945
000340 b4 af 50 be ec 20 89 bd 8d d5 6f bd c6 ec a9 3d
       -0.20379525 -0.066957325 -0.058553267 0.08297114
000350 3c d9 8b bc ec d4 75 3e ce 7f a7 3c 6c a2 e4 bd
       -0.017071359 0.24007004 0.020446684 -0.11163792
000360 a6 61 f2 bd 7f f2 06 bd 26 db d7 3d 13 99 28 bc
       -0.11835031 -0.032946106 0.10539846 -0.010290402
000370 b2 5e 30 be 9f 21 19 bc 1c 5e f6 ba 5a 20 09 3d
       -0.17223623 -0.009346395 -0.0018796357 0.03347812
000380 7e 30 d5 bb 94 5f ef bd 42 37 42 3e b1 5a 2f 3d
       -0.006506025 -0.11688152 0.18966392 0.0428111
000390 c8 60 55 bd aa 26 3e 3d 37 9a 56 be 55 1c b6 3d
       -0.05209425 0.04642359 -0.20957266 0.08892123
0003a0 3f f6 fa bd c0 14 f2 3c 74 77 63 bd 37 29 0b 3e
       -0.12253999 0.02955091 -0.05553384 0.13589941
0003b0 b3 dd 9c bc 00 e9 0c bd a1 fd 3e 3e a3 3d 09 3d
       -0.019148683 -0.034401894 0.18651439 0.033506047
0003c0 6e bc ae bd ff 1f ae 3c 11 88 ad 3c 04 1e 13 be
       -0.08532034 0.021255491 0.021183046 -0.14366919
0003d0 e7 34 0c 3e 09 4c 2d bd b9 45 44 3c 70 76 62 bc
       0.13692056 -0.04230884 0.011979514 -0.013822183
0003e0 dc 5c f1 3a 3a 81 01 bc 60 ff 60 3d 68 3b ab bd
       0.0018414515 -0.007904345 0.054931045 -0.0836094
0003f0 24 ba 8c 3c e4 5a 66 bd 2c e7 48 3d ee 8e 82 bd
       0.017178603 -0.056239024 0.049048588 -0.06374918

network_body._body_endoder.seq_layers.0.bias f4 [64]
000000 44 42 f6 3b da e8 c0 3b 28 2d 42 3b 96 1c 9b 3b
       0.0075152237 0.005887133 0.0029628966 0.0047336323
000010 55 e5 08 3c 76 9e 93 bc 0d 23 9e 3c 15 9a 95 3c
       0.008355458 -0.018019896 0.019303823 0.018261949
000020 da ae 7d 3c 63 bd dd 3c 4b 79 83 3c 4b 7c 9e 3b
       0.015483582 0.027067846 0.016049048 0.004836594
000030 16 16 f6 3c c0 72 28 3b 24 55 fb 3b 75 58 9c 3c
       0.030039828 0.0025703162 0.0076700617 0.019085148
000040 9d 32 b1 3c 4f ff 5f 3c 2d ae 4e 3b 32 51 89 3c
       0.02163058 0.01367171 0.0031536922 0.01676235
000050 ad c7 84 3c 56 c9 97 3c 1a ab 84 3c 3c d1 a5 3c
       0.016208494 0.018528622 0.016194869 0.020241372
000060 b4 c9 ed 3c e9 68 60 3c e7 54 9b 3b 43 f6 d8 3c
       0.029026844 0.0136968875 0.0047403458 0.026484614
000070 7c 78 60 3c f8 56 05 3c 53 59 89 3c a8 69 96 3c
       0.013700601 0.008138411 0.016766226 0.018360928
000080 7e 25 82 3c bc c0 2d 3c 81 28 f7 3b 99 b5 1d 3c
       0.015887018 0.0106050335 0.0075426702 0.009625816
000090 24 97 fe 3c 90 8d e1 3c 80 ae 4a 3c e8 b1 a4 3c
       0.031077929 0.027533323 0.012370706 0.020104364
0000a0 cc 11 c2 3c 5b 35 52 3b 78 94 fc 3b 7a 3f a1 3c
       0.023690127 0.003207526 0.0077081285 0.019683588
0000b0 e9 14 24 3b a0 14 70 3c 83 d6 9f 3c c4 97 77 3c
       0.0025036877 0.014653355 0.019511467 0.015111867
0000c0 e4 e6 c8 3c 06 1c 6a 3c b5 ee 41 3c 58 f2 f3 3c
       0.02452416 0.014288908 0.011836697 0.029778644
0000d0 bf ec 7d 3c 5d 53 6d 3c 60 cb 51 3c d8 6b 88 3c
       0.015498339 0.014485207 0.012804836 0.016652986
0000e0 17 5e 3b 3c 1b ec 68 3c d1 e1 39 3c b4 cb 3b 3c
       0.011436007 0.014216448 0.011345343 0.011462141
0000f0 eb bc 80 3c 17 28 99 3c 99 bb aa 3c 12 26 88 3c
       0.015715083 0.018695874 0.020841407 0.016619716

action_model._discrete_distribution.branches.0.weight f4 [2, 64]
000000 25 bc 2c bd 63 02 44 bd 1c bd a0 bc e3 c3 5d bc
       -0.042171616 -0.04785384 -0.019621424 -0.013535473
000010 61 35 e0 bc 66 aa f3 bc a4 8e 2f 3d 1f 22 54 3d
       -0.027369203 -0.029744338 0.042860642 0.051790353
000020 2f 4b 65 bd 84 13 83 3d d6 8d 28 3c 38 d5 99 bc
       -0.055979904 0.06400207 0.010287723 -0.018778428
000030 42 f0 e5 3c e7 26 a7 b9 66 4f 23 bd 09 ad 47 bd
       0.028068665 -0.00031881707 -0.039870642 -0.048749004
000040 8f a5 86 3d e5 08 58 b9 74 8b 2a bd cd 63 36 3c
       0.065745465 -0.00020602679 -0.0416369 0.011132193
000050 84 4d 0e 3d f5 86 75 3c 76 5f 9a bc 1e d6 6c 3d
       0.034741893 0.01498579 -0.018844347 0.057821386
000060 f5 4f d3 ba e6 ac ed bb 98 17 5d bb 35 40 0d bc
       -0.0016121852 -0.007253277 -0.0033735987 -0.008621265
000070 1a d5 41 bc d1 4e 81 3c 5c 32 d1 bc 44 84 4c bd
       -0.0118305925 0.015784653 -0.025536709 -0.049930826
000080 23 bf 60 bd ab 68 4c bb 1a 39 6e bd c2 2d d6 3b
       -0.054869782 -0.0031190317 -0.058159925 0.0065362165
000090 c9 8d 64 3d 51 45 a7 3d ef f2 12 bd 18 c1 0a 3d
       0.05579928 0.08167518 -0.03587621 0.033875555
0000a0 f6 b8 17 3c e9 92 41 bc e6 1c a1 bc 4e a5 8c bd
       0.009260407 -0.011814811 -0.0196671 -0.06867467
0000b0 85 db e3 bc 59 3e 79 bc 58 88 98 bd 58 f6 5b bd
       -0.027814636 -0.015212619 -0.074478805 -0.05370173
0000c0 91 df 9f 3d 6c 9f 9d bc 17 cd 21 bd 19 45 ad bd
       0.07806314 -0.019241057 -0.03950223 -0.08460445
0000d0 59 16 3f bd 07 bb f2 3c 3c ea 1d 3d 71 bb 4f bd
       -0.04665217 0.029630197 0.03855346 -0.050715867
0000e0 79 fb b3 b9 40 ab d5 3c b9 45 a8 3c a0 4a c2 bb
       -0.00034328902 0.026082635 0.020541059 -0.005929306
0000f0 5a ef 23 bc e7 ae 5a 3d b4 de a0 3d 2c 72 27 bc
       -0.010005796 0.053389456 0.07854977 -0.010220092
000100 25 1b 1b 3d 99 f1 f3 3c 43 e9 55 3b 2f c9 50 b9
       0.037867684 0.029778289 0.0032640256 -0.00019911373
000110 ad 0d ce 3c a7 91 b5 3c 44 a7 52 bd 0e 49 9d bd
       0.025153005 0.022164179 -0.05142905 -0.0767995
000120 8a c6 41 3d 1a 13 06 bd 0d 89 0a 3d 10 23 01 3d
       0.047308482 -0.03273306 0.033822108 0.03152758
000130 da e2 ce bc ca 45 f7 3a 03 9b 73 3d 36 eb ae 3d
       -0.025254656 0.0018865403 0.059474003 0.08540957
000140 fc da 68 bd 88 3f 8d 3c 4d aa 12 3d cd f2 30 bd
       -0.056849465 0.017242208 0.035806943 -0.043200303
000150 b3 20 ea bc 12 2a 03 bd 2a 02 74 3c 65 0e 7f bd
       -0.028580045 -0.032022543 0.014893094 -0.062269587
000160 59 cf a2 bc 4c 19 d9 bb 2f 97 32 3c 4e e2 17 3b
       -0.019874262 -0.00662533 0.010900303 0.002317566
000170 af 1f b8 3c 4d ee 5e 3b 65 e6 f4 3c 98 89 0d 3d
       0.022476045 0.003401655 0.029895017 0.034555048
000180 f7 71 4b 3d 5c 4f e4 3c f5 38 36 3d fe 89 01 bd
       0.049669232 0.027869873 0.044487912 -0.03162574
000190 39 c5 25 bd 67 4b 52 bd 9f 21 d2 3c 4d 5b 57 bd
       -0.04047129 -0.05134144 0.025650797 -0.052577306
0001a0 f8 9d 4d 3c 02 12 0c 3c d3 8d 1b 3d 1b 15 88 3d
       0.01254987 0.008549215 0.03797705 0.066446505
0001b0 17 19 70 3c a3 bb e7 3c ff 00 87 3d e0 fc 59 3d
       0.014654419 0.028287714 0.06591987 0.053219676
0001c0 09 a5 ae bd 1c 50 5b 3d 06 c0 3f 3d 31 5a 6c 3d
       -0.08527572 0.053543195 0.046813987 0.0577032
0001d0 a9 b6 de 3c c5 21 41 bd 87 54 bb bc 97 92 87 3d
       0.027186709 -0.047151346 -0.022867454 0.06619757
0001e0 64 14 95 bc fe da 56 3b 0a 59 ac bb ca e0 30 3c
       -0.0181982 0.0032784338 -0.0052596377 0.010795781
0001f0 49 32 58 3c 08 61 4d bd a0 85 47 bd d8 7a e4 3c
       0.013195583 -0.050141364 -0.04871142 0.027890608

action_model._discrete_distribution.branches.0.bias f4 [2]
000000 c0 90 b1 3b c8 90 b1 bb
       0.005418867 -0.0054188706

action_model._discrete_distribution.branches.1.weight f4 [2, 64]
000000 56 0d 3b 3c 24 64 79 3c 4d c3 07 bd 9b d2 61 3c
       0.011416754 0.015221629 -0.033145238 0.013783122
000010 1f ec 41 bd 78 f1 0c 3c 1c 80 4b bc ea e0 e0 3c
       -0.047344323 0.0086024925 -0.01242068 0.027450997
000020 28 b2 e5 bb 2d b2 05 3d 4f 4c 86 bd 78 0c 29 3d
       -0.0070097633 0.032640625 -0.065575235 0.041271657
000030 2a 6a a3 3d 91 47 29 bd 31 d6 8a 3c a3 35 3c bd
       0.079792336 -0.041328017 0.016947838 -0.04594959
000040 4f 75 b9 bc 0a f5 b0 bd 5f af 20 bc 86 0a 9e bd
       -0.022638945 -0.086404875 -0.009807437 -0.07716851
000050 26 5d 9a 3c 49 79 30 bd c7 6a 96 bd 9d d2 01 bc
       0.018843245 -0.043084417 -0.07344585 -0.007923749
000060 29 ac 82 3d 44 bb 6b 3d ef 7b 06 bd 30 cd 6b 3d
       0.06380493 0.057551637 -0.032833036 0.05756873
000070 f2 83 69 3d 0b a8 19 bd 68 77 8f 3d 06 2e 62 3d
       0.0570106 -0.037513774 0.07005197 0.055219673
000080 aa ec 28 ba 2c 43 d9 bb d6 5f fc bc f6 ac b0 bc
       -0.0006443957 -0.006630322 -0.030807417 -0.02156685
000090 e0 dc 44 3d a7 5f 42 bc ac 8f 16 3d 9c cb 84 bd
       0.048062205 -0.011863626 0.03675811 -0.06484148
0000a0 33 f3 6e bd 38 a3 3d 3d 74 da 09 3d 83 7f 36 bb
       -0.0583374 0.046298236 0.0336556 -0.0027847
0000b0 eb 80 bf 3b 38 45 45 bd 83 12 ae 3c 3e e6 04 3c
       0.0058442256 -0.048161715 0.021249061 0.008111535
0000c0 c7 94 16 3c 57 47 2e 3d 49 52 9a bc 0f fb c2 3c
       0.009190745 0.042548504 -0.018838065 0.023801355
0000d0 fc f0 7f 3c 6f 2e a0 bc 7b c5 c0 bb 13 ef b1 bc
       0.01562142 -0.019553391 -0.0058829165 -0.021720445
0000e0 a9 ba 3d 3d 41 38 6d 3d 50 64 fa 3c 62 43 28 3d
       0.04632059 0.057914976 0.03056541 0.041079886
0000f0 55 88 71 3d e8 57 fb bc 92 ee a3 ba c2 f0 90 bd
       0.058967907 -0.030681565 -0.0012507013 -0.07077171
000100 75 29 31 3c 44 f6 82 3b c6 87 b5 3c 72 c8 26 bb
       0.010813107 0.0039966423 0.022159468 -0.0025449065
000110 63 13 cb 3c d5 d9 5d 3b 28 ce c7 3c 8a b2 61 bc
       0.024789518 0.0033851762 0.024390295 -0.013775477
000120 97 d4 e3 3c bd 06 ee bc 4d 1e cb 3d 39 cf 85 bc
       0.027811332 -0.029055947 0.09917889 -0.016334163
000130 88 30 3c bd e3 6e 52 3c df 63 a2 bc 97 19 fe 3c
       -0.04594472 0.01284382 -0.019823013 0.031018062
000140 30 9c 9e 3c dd 72 87 3d f1 b0 9d 3c 56 7a 64 3d
       0.019361585 0.06613705 0.019249411 0.05578073
000150 4f 71 14 bd 95 e4 bc 3d b5 80 8e 3d dd eb bb 3c
       -0.036240872 0.09223286 0.06958143 0.022939617
000160 e1 a6 94 bd 0b 56 54 bd 82 b9 f2 3c 40 e6 89 bd
       -0.07258392 -0.05183987 0.029629473 -0.0673337
000170 1e 8d 85 bd c7 28 41 3d eb a0 80 bd cc 80 68 bd
       -0.065210566 0.04715803 -0.06280693 -0.056763455
000180 e7 b4 b9 3c d2 bc 8d 3a ac 20 90 3c 2f c8 1f 3d
       0.022669269 0.0010813719 0.017593704 0.03900927
000190 46 ea 86 bd 2b 3c 28 3d bb ab b1 bc fc f2 6f 3d
       -0.06587653 0.041073006 -0.021688333 0.058581337
0001a0 91 a2 90 3d d1 00 d3 bc d2 83 d4 bb de 01 97 3c
       0.07062257 -0.025757225 -0.006485441 0.018433508
0001b0 7f 4b df bc f3 83 72 3d 2a 3c e1 bc 48 6e 9e bc
       -0.027257679 0.059207868 -0.027494509 -0.019339696
0001c0 71 35 9f bc 14 73 a6 bc bc 37 8e 3b ce 1f 24 bb
       -0.019434663 -0.020318545 0.00434014 -0.002504337
0001d0 8f 13 81 bd ee 6e 36 3c 0a 81 27 3c 4b 6b d9 bc
       -0.06302559 0.011134846 0.010223636 -0.02654042
0001e0 b3 d9 42 bd 3d 85 74 bd ea 95 16 bd ae 60 3e bd
       -0.047570895 -0.05969738 -0.036764063 -0.04647892
0001f0 5f df 99 bd 78 ef df 3c a9 e0 ff bb be 41 73 3d
       -0.07513308 0.027335867 -0.007808764 0.05938887

action_model._discrete_distribution.branches.1.bias f4 [2]
000000 c3 0d b7 3a bd 0d b7 ba
       0.0013965893 -0.0013965886

exp_avg f4 [64, 174]
000000 be 9a 36 3a 00 00 00 00 3d e4 96 b7 30 48 3f b8
       0.00069658074 0.0 -1.7987675e-05 -4.560518e-05
000010 d7 40 a0 38 ba c4 2f 3a 00 00 00 00 b8 f5 b0 36
       7.641472e-05 0.0006705035 0.0 5.273814e-06
000020 4e 76 98 b7 cc 55 0f 39 69 71 2f 3a 00 00 00 00
       -1.8174902e-05 0.00013669505 0.00066926196 0.0
000030 d8 0e d6 b7 d3 50 c7 37 d2 38 31 39 be 9a 36 3a
       -2.55177e-05 2.3760285e-05 0.00016901203 0.00069658074
000040 00 00 00 00 3d e4 96 b7 30 48 3f b8 d7 40 a0 38
       0.0 -1.7987675e-05 -4.560518e-05 7.641472e-05
000050 eb e6 2e 3a 00 00 00 00 bd fa 93 36 7d fc 21 b8
       0.00066719827 0.0 4.410131e-06 -3.862054e-05
000060 61 f7 8c 38 1f 0d 2a 3a 00 00 00 00 ea 46 6b b5
       6.721798e-05 0.00064869405 0.0 -8.7647516e-07
000070 75 cd 78 b7 03 96 d5 38 87 4e 22 3a 00 00 00 00
       -1.4829789e-05 0.00010184573 0.0006191511 0.0
000080 d1 8f 39 36 57 c0 39 37 00 48 3b 39 fd 08 20 3a
       2.765086e-06 1.1071642e-05 0.00017860532 0.0006104855
000090 00 00 00 00 4c 55 cc 37 d1 1c f9 b5 fa 69 97 38
       0.0 2.4358415e-05 -1.8560332e-06 7.219981e-05
0000a0 e5 48 20 3a 00 00 00 00 ec 8a 30 33 54 6e b4 37
       0.0006114378 0.0 4.1104542e-08 2.1509048e-05
0000b0 74 db fa 38 5e 63 23 3a 00 00 00 00 c5 c9 06 37
       0.00011961805 0.00062327634 0.0 8.0340005e-06
0000c0 0c 26 e1 35 de 34 14 39 86 47 ab 39 00 00 00 00
       1.677488e-06 0.00014134074 0.0003266895 0.0
0000d0 01 eb 9f 39 cb a9 ab 35 63 44 29 39 33 b5 c4 39
       0.00030501935 1.2789909e-06 0.00016142572 0.00037519037
0000e0 00 00 00 00 5c 78 86 39 64 a3 b0 35 c0 a1 09 39
       0.0 0.00025648146 1.3160575e-06 0.00013125595
0000f0 ba c4 2f 3a 00 00 00 00 b8 f5 b0 36 4e 76 98 b7
       0.0006705035 0.0 5.273814e-06 -1.8174902e-05
000100 cc 55 0f 39 e5 cd 32 3a 00 00 00 00 ed 47 a0 37
       0.00013669505 0.0006820842 0.0 1.910698e-05
000110 15 d3 36 b8 bd 61 c7 38 01 f7 31 3a 00 00 00 00
       -4.3588767e-05 9.5072646e-05 0.00067888206 0.0
000120 75 21 43 b5 c9 68 ac b7 c5 7b fa 38 3d 52 31 3a
       -7.269185e-07 -2.0552792e-05 0.00011943983 0.00067642686
000130 00 00 00 00 5b 94 5d 36 d6 9b b9 b7 77 15 22 39
       0.0 3.301792e-06 -2.2126285e-05 0.0001545752
000140 f3 d3 35 3a 00 00 00 00 8d 16 14 b8 44 5e 3e b5
       0.0006936185 0.0 -3.530695e-05 -7.091769e-07
000150 7c 95 b6 38 cc 68 2f 3a 00 00 00 00 5f bf 7e b4
       8.70628e-05 0.0006691336 0.0 -2.3725214e-07
000160 a1 7b 3d b7 de c3 07 39 66 99 2a 3a 00 00 00 00
       -1.12940625e-05 0.0001294757 0.00065078435 0.0
000170 5d 73 19 37 8c 40 1c b6 5a 76 99 38 b1 ee 0f 3a
       9.146371e-06 -2.3283383e-06 7.317653e-05 0.0005490585
000180 00 00 00 00 50 e5 f0 38 13 34 d4 b6 62 86 70 39
       0.0 0.000114868046 -6.3241546e-06 0.00022938245
000190 16 54 0c 3a 00 00 00 00 01 9e 04 39 78 51 8c b6
       0.0005353106 0.0 0.00012647362 -4.1818093e-06
0001a0 47 ae 3c 39 69 71 2f 3a 00 00 00 00 d8 0e d6 b7
       0.00017994 0.00066926196 0.0 -2.55177e-05
0001b0 d3 50 c7 37 d2 38 31 39 aa 8b 31 3a 00 00 00 00
       2.3760285e-05 0.00016901203 0.0006772826 0.0
0001c0 43 19 99 36 f0 98 70 b7 0f 92 df 38 d6 2d 23 3a
       4.562696e-06 -1.4340723e-05 0.00010660674 0.00062247866
0001d0 00 00 00 00 78 a6 8c 37 a4 0d ed 37 ea 82 16 39
       0.0 1.6766819e-05 2.8258954e-05 0.00014353884
0001e0 95 6f 36 3a 00 00 00 00 84 22 78 b7 b3 e4 64 b7
       0.0006959376 0.0 -1.4789988e-05 -1.3643107e-05
0001f0 a0 82 17 39 fc a7 35 3a 00 00 00 00 12 df b0 b7
       0.00014449144 0.00069296337 0.0 -2.108471e-05
000200 e9 c6 92 b6 de ef b4 38 f6 df 33 3a 00 00 00 00
       -4.3742953e-06 8.6277476e-05 0.0006861681 0.0
000210 92 b7 e0 36 b4 bd d4 b7 05 5b f7 38 97 74 31 3a
       6.6970906e-06 -2.5360707e-05 0.000117948315 0.00067693874
000220 00 00 00 00 44 4e 06 37 0c 4b 92 b7 0e 42 35 38
       0.0 8.005245e-06 -1.7439503e-05 4.321528e-05
000230 2f 26 0b 3a 00 00 00 00 33 ca 14 39 ef a1 ae b6
       0.0005308119 0.0 0.00014189705 -5.2044556e-06
000240 4e 12 13 39 19 41 0a 3a 00 00 00 00 3f fb 1c 39
       0.00014025831 0.00052739825 0.0 0.00014970916
000250 0b 1c 21 b7 ad 43 fd 38 72 81 5e 38 19 ef a5 39
       -9.602877e-06 0.00012076586 5.304948e-05 0.00031649394
000260 f4 8a 54 39 7d 5b a6 38 60 4c cc 38 00 16 32 39
       0.0002026966 7.932538e-05 9.741704e-05 0.00016983598
000270 7b 22 55 39 5c 6c 5c 39 dc dd 54 38 f1 62 ac 39
       0.00020326108 0.00021021202 5.075136e-05 0.00032880114
000280 0d 52 4a 39 8a 9f 15 39 81 53 d4 38 dd 9e 62 39
       0.00019294787 0.0001426918 0.000101245016 0.00021612221
000290 3d ce fb 38 84 d7 21 38 a5 83 d3 38 77 fb ae 39
       0.000120070275 3.8586106e-05 0.00010085785 0.00033375222
0002a0 aa 81 1a 39 82 fe 16 39 f8 e5 bf 38 37 da 84 39
       0.00014734888 0.00014399926 9.150425e-05 0.00025339585
0002b0 85 9b 8d 37 dc 01 37 38 88 e0 81 3a 00 00 00 00
       1.688093e-05 4.363233e-05 0.0009908834 0.0
0002c0 e5 1d af b7 a1 63 20 b8 68 60 15 39 98 1e 77 3a
       -2.0875546e-05 -3.823976e-05 0.00014245661 0.0009426861
0002d0 00 00 00 00 9b 75 95 37 eb 7a 14 b7 df 62 69 39
       0.0 1.7816948e-05 -8.8501065e-06 0.00022257444
0002e0 e9 de 74 3a 00 00 00 00 94 b0 1b b8 26 48 30 38
       0.00093410775 0.0 -3.711933e-05 4.2028863e-05
0002f0 1b 7e 87 39 88 e0 81 3a 00 00 00 00 e5 1d af b7
       0.00025843162 0.0009908834 0.0 -2.0875546e-05
000300 a1 63 20 b8 68 60 15 39 2c c8 7c 3a 00 00 00 00
       -3.823976e-05 0.00014245661 0.0009642865 0.0
000310 88 69 54 36 1e ab 15 b8 8e bd f1 38 8b b8 75 3a
       3.165189e-06 -3.5683734e-05 0.00011527083 0.00093735073
000320 00 00 00 00 29 f9 13 b6 81 ab 62 b6 1e a4 26 39
       0.0 -2.2049737e-06 -3.3776453e-06 0.00015892132
000330 6b 7a 70 3a 00 00 00 00 bd 55 06 36 08 49 50 37
       0.0009173515 0.0 2.0017462e-06 1.241477e-05
000340 e6 b2 8a 39 4e c9 6c 3a 00 00 00 00 ae 52 29 38
       0.000264547 0.0009032682 0.0 4.036974e-05
000350 87 24 47 b7 d7 ee db 38 b2 0f 6c 3a 00 00 00 00
       -1.1869829e-05 0.00010487221 0.00090050243 0.0
000360 1c 98 01 b3 8f 43 03 38 43 53 37 39 66 7c 71 3a
       -3.0173496e-08 3.1295753e-05 0.00017483257 0.0009211957
000370 00 00 00 00 9d ba da 36 16 05 88 36 41 1d 42 39
       0.0 6.518631e-06 4.053708e-06 0.0001851218
000380 95 2a 0e 3a 00 00 00 00 fc bf cb 39 ae 45 5d 35
       0.00054232153 0.0 0.00038862217 8.2430313e-07
000390 1a 6c 64 39 9d 30 20 3a 00 00 00 00 c9 40 a7 39
       0.00021784045 0.00061107596 0.0 0.0003190099
0003a0 ef c6 e1 35 be a4 34 39 98 1e 77 3a 00 00 00 00
       1.6821704e-06 0.00017227509 0.0009426861 0.0
0003b0 9b 75 95 37 eb 7a 14 b7 df 62 69 39 84 38 81 3a
       1.7816948e-05 -8.8501065e-06 0.00022257444 0.0009858762
0003c0 00 00 00 00 95 b1 a6 37 cb e3 62 b8 3d eb 21 39
       0.0 1.9871435e-05 -5.4094748e-05 0.0001544179
0003d0 a2 77 7c 3a 00 00 00 00 37 2a 71 36 41 1d 7c b7
       0.0009630864 0.0 3.593637e-06 -1.5027182e-05
0003e0 71 2d 44 39 9c 1c 80 3a 00 00 00 00 14 3d 0a 36
       0.00018708945 0.0009774151 0.0 2.0599155e-06
0003f0 11 63 e9 b7 12 ab 6a 39 08 04 83 3a 00 00 00 00
       -2.7821896e-05 0.00022379708 0.0009995708 0.0

exp_avg_sq f4 [64, 174]
000000 66 32 85 35 00 00 00 00 7f 5a c0 32 b9 a4 c5 32
       9.92394e-07 0.0 2.2392895e-08 2.3008726e-08
000010 6c 78 b6 33 11 4c 94 35 00 00 00 00 55 3f be 32
       8.49694e-08 1.1048998e-06 0.0 2.2147711e-08
000020 76 e7 be 32 6c b7 c3 33 3c f2 9d 35 00 00 00 00
       2.2224167e-08 9.113759e-08 1.1767911e-06 0.0
000030 bf 65 0c 33 57 a2 d9 32 f5 da da 33 66 32 85 35
       3.2688828e-08 2.5335948e-08 1.0191244e-07 9.92394e-07
000040 00 00 00 00 7f 5a c0 32 b9 a4 c5 32 6c 78 b6 33
       0.0 2.2392895e-08 2.3008726e-08 8.49694e-08
000050 0d 16 85 35 00 00 00 00 10 81 2a 32 54 8e ce 32
       9.91569e-07 0.0 9.924648e-09 2.404628e-08
000060 1f 16 9e 33 68 02 86 35 00 00 00 00 ac 9d 15 32
       7.361472e-08 9.984478e-07 0.0 8.708792e-09
000070 30 c6 87 32 41 ed 91 33 f2 92 87 35 00 00 00 00
       1.5806194e-08 6.795245e-08 1.010105e-06 0.0
000080 ad 7b 0a 32 e9 0f 38 32 9d b6 b4 33 7a 31 88 35
       8.060778e-09 1.0713827e-08 8.41512e-08 1.0147189e-06
000090 00 00 00 00 c8 dc 7a 32 c6 92 07 31 cd d1 f2 33
       0.0 1.4602115e-08 1.9728517e-09 1.1307166e-07
0000a0 32 0b 86 35 00 00 00 00 ef 68 6a 32 6d 86 14 32
       9.987036e-07 0.0 1.3644452e-08 8.645299e-09
0000b0 29 c5 8d 33 71 1b 87 35 00 00 00 00 f9 20 ab 32
       6.6016874e-08 1.006627e-06 0.0 1.9922014e-08
0000c0 ca 59 7e 31 35 e2 a6 33 6b 0d 81 35 00 00 00 00
       3.7012904e-09 7.771124e-08 9.615154e-07 0.0
0000d0 11 a0 77 33 82 15 59 31 96 a7 b5 33 25 55 81 35
       5.765475e-08 3.1589882e-09 8.458953e-08 9.636029e-07
0000e0 00 00 00 00 f3 a2 75 33 b3 3e 66 31 62 5c 9b 33
       0.0 5.719171e-08 3.3505045e-09 7.234554e-08
0000f0 11 4c 94 35 00 00 00 00 55 3f be 32 76 e7 be 32
       1.1048998e-06 0.0 2.2147711e-08 2.2224167e-08
000100 6c b7 c3 33 eb a3 95 35 00 00 00 00 e1 e9 4b 32
       9.113759e-08 1.1149071e-06 0.0 1.1869333e-08
000110 50 59 a5 32 1f b2 9b 33 2b 0c 95 35 00 00 00 00
       1.9249143e-08 7.25015e-08 1.1104906e-06 0.0
000120 17 6c 1a 32 b6 b4 8c 32 9a eb a3 33 e4 6f 97 35
       8.988557e-09 1.6380323e-08 7.633135e-08 1.1282941e-06
000130 00 00 00 00 f3 8c 30 32 b8 70 52 32 a3 06 c9 33
       0.0 1.02765965e-08 1.2249238e-08 9.360999e-08
000140 a5 7e 97 35 00 00 00 00 59 ff 94 32 b6 5e a8 30
       1.1287235e-06 0.0 1.7345586e-08 1.2250527e-09
000150 6b 53 07 34 19 4e 96 35 00 00 00 00 6b d8 77 32
       1.2603202e-07 1.11986e-06 0.0 1.44265e-08
000160 b3 26 1c 32 da b4 98 33 fc 3a 96 35 00 00 00 00
       9.089194e-09 7.110948e-08 1.1193038e-06 0.0
000170 f4 77 a4 32 bd 31 1f 31 5f 92 b6 33 89 67 90 35
       1.9146661e-08 2.3165818e-09 8.50166e-08 1.0758969e-06
000180 00 00 00 00 6b 14 76 33 b8 2c 2d 31 67 d4 cb 33
       0.0 5.729491e-08 2.5200233e-09 9.49156e-08
000190 1a 5b 90 35 00 00 00 00 2e fb 80 33 79 59 29 31
       1.075535e-06 0.0 6.006154e-08 2.4643596e-09
0001a0 2f ab 9f 33 3c f2 9d 35 00 00 00 00 bf 65 0c 33
       7.4351526e-08 1.1767911e-06 0.0 3.2688828e-08
0001b0 57 a2 d9 32 f5 da da 33 d2 3f a1 35 00 00 00 00
       2.5335948e-08 1.0191244e-07 1.2014009e-06 0.0
0001c0 17 23 85 32 64 70 e4 32 f5 fb b4 33 bf 37 9e 35
       1.5499195e-08 2.6593803e-08 8.427734e-08 1.1788142e-06
0001d0 00 00 00 00 3d 8a 26 32 57 d4 9e 32 4d 2e b5 33
       0.0 9.6939035e-09 1.8490182e-08 8.4368914e-08
0001e0 ad e6 9f 35 00 00 00 00 0b 1e 24 32 56 6d 84 32
       1.1913559e-06 0.0 9.552887e-09 1.5416543e-08
0001f0 10 1d dd 33 50 80 a1 35 00 00 00 00 c2 7b aa 32
       1.0296401e-07 1.2032779e-06 0.0 1.9846883e-08
000200 be 88 4c 31 09 b7 1a 34 2b a1 9d 35 00 00 00 00
       2.9763636e-09 1.4408955e-07 1.1744318e-06 0.0
000210 2c e0 7d 32 1b f5 36 32 26 2e a8 33 d5 ca a0 35
       1.4777509e-08 1.0649525e-08 7.831504e-08 1.1979961e-06
000220 00 00 00 00 c5 97 d2 32 2c 7b b2 31 9e 6e ba 33
       0.0 2.4516234e-08 5.194485e-09 8.681421e-08
000230 fb 03 9a 35 00 00 00 00 46 7d 8e 33 5d a7 a2 31
       1.1475053e-06 0.0 6.6351774e-08 4.7338475e-09
000240 51 72 d6 33 08 62 9b 35 00 00 00 00 73 8a 90 33
       9.9859456e-08 1.1576931e-06 0.0 6.730706e-08
000250 68 38 a3 31 cb 43 ae 33 8a d8 2b 35 bb b9 89 34
       4.750337e-09 8.114838e-08 6.401757e-07 2.5653375e-07
000260 03 7e 29 35 a2 e4 b1 34 27 ad cc 32 0d e0 fb 34
       6.314078e-07 3.313517e-07 2.3827466e-08 4.6915412e-07
000270 a3 58 fb 34 b9 0e ed 34 d7 92 3e 35 61 f0 98 34
       4.6816885e-07 4.4155402e-07 7.0994196e-07 2.8487105e-07
000280 e5 9c 36 35 51 3a d0 34 91 a9 e3 32 e4 5b 09 35
       6.8028595e-07 3.878545e-07 2.6503388e-08 5.1170196e-07
000290 84 f9 0d 35 c4 cc 01 35 9a 07 49 35 43 ed a2 34
       5.2889686e-07 4.835422e-07 7.4889397e-07 3.0347482e-07
0002a0 88 91 47 35 36 d9 e9 34 7f 5a f1 32 3e 66 16 35
       7.434505e-07 4.3557674e-07 2.8097245e-08 5.6028136e-07
0002b0 a4 55 14 35 8b 66 0b 35 71 a1 f2 35 00 00 00 00
       5.525892e-07 5.1930755e-07 1.8077391e-06 0.0
0002c0 19 dd 7a 33 6d 82 bd 32 be 79 26 34 69 8a 02 36
       5.8408748e-08 2.2061807e-08 1.5504244e-07 1.9452075e-06
0002d0 00 00 00 00 40 a4 82 33 f7 2f e2 32 93 76 36 34
       0.0 6.0834736e-08 2.6331675e-08 1.6993208e-07
0002e0 b9 56 08 36 00 00 00 00 63 2c 8b 33 75 54 cf 32
       2.0316058e-06 0.0 6.480766e-08 2.4136378e-08
0002f0 0b 4f 3a 34 71 a1 f2 35 00 00 00 00 19 dd 7a 33
       1.7351356e-07 1.8077391e-06 0.0 5.8408748e-08
000300 6d 82 bd 32 be 79 26 34 1d 62 f4 35 00 00 00 00
       2.2061807e-08 1.5504244e-07 1.8207971e-06 0.0
000310 1d 3d b0 32 37 5e a6 32 e0 e9 fa 33 1f 23 f3 35
       2.0516888e-08 1.9367787e-08 1.1684074e-07 1.8115132e-06
000320 00 00 00 00 4c 14 8e 32 40 5c c6 32 02 13 03 34
       0.0 1.6540206e-08 2.3092184e-08 1.2207241e-07
000330 94 8f f5 35 00 00 00 00 25 5a bb 32 81 7b 21 32
       1.8295709e-06 0.0 2.1810658e-08 9.399515e-09
000340 4c ab 1a 34 44 a7 f5 35 00 00 00 00 72 27 f7 32
       1.4404685e-07 1.8302603e-06 0.0 2.8772522e-08
000350 a7 05 65 32 de 35 4e 34 d1 5c f2 35 00 00 00 00
       1.33308395e-08 1.9204842e-07 1.8057418e-06 0.0
000360 35 b7 ec 32 a0 f5 43 32 ac d1 03 34 6b 7a f2 35
       2.7557329e-08 1.14063425e-08 1.2276604e-07 1.8066033e-06
000370 00 00 00 00 13 0c 35 33 9e 0a 95 32 9d 61 1a 34
       0.0 4.2153328e-08 1.7350711e-08 1.4377879e-07
000380 c6 6e ea 35 00 00 00 00 0a 78 d4 33 04 a6 1c 32
       1.7466598e-06 0.0 9.893854e-08 9.118143e-09
000390 98 e0 1f 34 59 48 eb 35 00 00 00 00 a3 b7 cc 33
       1.4889736e-07 1.752992e-06 0.0 9.5328936e-08
0003a0 6a 2c 2a 32 a6 11 14 34 69 8a 02 36 00 00 00 00
       9.905401e-09 1.3789995e-07 1.9452075e-06 0.0
0003b0 40 a4 82 33 f7 2f e2 32 93 76 36 34 56 c8 04 36
       6.0834736e-08 2.6331675e-08 1.6993208e-07 1.9786144e-06
0003c0 00 00 00 00 bf cf d7 32 22 70 b9 32 f4 7e 03 34
       0.0 2.5123766e-08 2.1587827e-08 1.2246511e-07
0003d0 a4 0b 03 36 00 00 00 00 3d 19 9c 32 2d f7 cd 32
       1.9527297e-06 0.0 1.8172267e-08 2.3977544e-08
0003e0 7f ca 0f 34 b2 90 05 36 00 00 00 00 92 84 de 32
       1.339158e-07 1.9902768e-06 0.0 2.5904487e-08
0003f0 76 36 5c 32 23 4d 28 34 e4 e5 04 36 00 00 00 00
       1.2818068e-08 1.5674281e-07 1.9803347e-06 0.0

exp_avg f4 [64]
000000 78 fb 2e 3a 60 28 76 3a 76 57 73 3a dd 2f 7d b7
       0.0006675045 0.00093901716 0.0009282747 -1.5091119e-05
000010 87 4e a3 3a 56 d0 67 b8 c9 45 2d ba c6 51 fd ba
       0.0012459316 -5.526872e-05 -0.0006609825 -0.0019326739
000020 95 04 86 3a 21 a2 d9 ba c2 70 02 3b 8f 0d 79 b8
       0.0010224754 -0.0016604104 0.0019903635 -5.9378854e-05
000030 a2 3c 0c bb 92 c3 07 3a 46 76 cd 39 96 7c 22 3b
       -0.0021398445 0.00051789836 0.00039188768 0.0024793497
000040 bf e8 52 ba b2 a3 c4 3a 7a ad af 3a a7 06 55 3a
       -0.0008045546 0.0015002398 0.001340314 0.00081262965
000050 8f 3d 90 ba 5a 48 83 3a 1b 3e db 3a e4 b0 4f ba
       -0.0011004674 0.0010016069 0.0016726883 -0.0007922782
000060 04 a7 c4 ba f6 b8 a3 ba d1 0b 11 3a 6c 5c bb ba
       -0.0015003388 -0.0012491036 0.0005533072 -0.0014294512
000070 b6 36 7e ba 45 66 5e 3a 00 06 6a ba a5 34 d0 b9
       -0.00096974836 0.0008483867 -0.00089272857 -0.00039712075
000080 95 9c 5c 3a 28 3d 37 39 a6 16 ca 3a 2c 53 9b 39
       0.00084156665 0.00017475022 0.0015418127 0.00029625872
000090 bf 98 1e bb d4 9f 57 ba 4b 00 95 38 52 1b c2 39
       -0.002419993 -0.00082254154 7.104928e-05 0.0003702292
0000a0 2c cb a1 3a 02 c7 03 ba ae 89 5c 39 e8 f3 b9 3a
       0.0012343875 -0.0005026908 0.00021032125 0.001418707
0000b0 5e e1 90 37 a0 25 db 3a bf 4b 75 3a 8d eb 3b 3a
       1.7271082e-05 0.0016719587 0.00093572953 0.00071685837
0000c0 1a 64 0c bb 65 b1 fd 37 d3 0b 9e 3a 9a d8 9e 3a
       -0.002142197 3.0242556e-05 0.0012057967 0.0012118996
0000d0 fa db 9c b8 b5 e3 26 ba 5f 56 18 ba d8 f9 b7 3a
       -7.4796335e-05 -0.00063663285 -0.000581121 0.0014036251
0000e0 f2 88 bc ba 70 8b bc ba 43 e2 9f ba 77 48 16 ba
       -0.0014384075 -0.0014384817 -0.0012198169 -0.0005732844
0000f0 6a ca b9 ba 42 a6 14 ba 99 68 c8 ba e8 34 d7 3a
       -0.0014174704 -0.00056705263 -0.0015289962 0.0016418966

exp_avg_sq f4 [64]
000000 43 ed a2 35 c9 94 0b 36 1e 29 ab 35 7b 0d 22 32
       1.2138993e-06 2.0799218e-06 1.275246e-06 9.432706e-09
000010 f6 be f9 35 8d 40 36 32 ab 28 39 36 81 91 a9 36
       1.8607523e-06 1.0608471e-08 2.759082e-06 5.0535314e-06
000020 10 d7 b1 35 46 da 4c 36 54 76 ec 36 d1 15 a6 35
       1.3250119e-06 3.052542e-06 7.0471233e-06 1.2374313e-06
000030 84 00 b9 36 8b 06 44 35 e2 0c 03 36 04 c9 fa 36
       5.5134897e-06 7.302521e-07 1.952802e-06 7.473982e-06
000040 24 60 51 36 4a ed a4 36 09 33 16 36 e7 05 b5 36
       3.1199388e-06 4.915205e-06 2.2381448e-06 5.3949075e-06
000050 db dc 9c 35 bf 16 a8 36 0b 95 a6 36 76 c5 54 36
       1.1687183e-06 5.009438e-06 4.9645364e-06 3.17054e-06
000060 73 9a 8d 36 dd 02 58 36 60 cf 47 35 bc 0a ae 36
       4.2201077e-06 3.2188175e-06 7.443505e-07 5.1868537e-06
000070 83 6c 6d 36 f5 af cc 35 bf dd cf 36 fe d8 bc 36
       3.5378914e-06 1.5250395e-06 6.1948954e-06 5.628098e-06
000080 fe dd e5 35 cf 6c 50 33 f3 4f 42 36 d2 bb 07 36
       1.7126438e-06 4.8527735e-08 2.895479e-06 2.0225893e-06
000090 8d 95 e7 36 0f 0b b6 36 85 a6 f0 35 43 0c dd 36
       6.9017465e-06 5.42531e-06 1.7929857e-06 6.5877407e-06
0000a0 2c 4a 53 36 d4 05 7a 35 4f ad c7 35 ff 57 6c 36
       3.1484624e-06 9.314074e-07 1.4877095e-06 3.521796e-06
0000b0 d1 78 36 34 eb 90 97 36 0b 9d b7 36 c9 c4 0f 36
       1.6994024e-07 4.5170214e-06 5.472107e-06 2.1423205e-06
0000c0 a6 23 da 36 9f cb 9f 35 ff 4a 03 36 78 80 98 36
       6.5010563e-06 1.1905685e-06 1.9564175e-06 4.5449087e-06
0000d0 c9 d2 21 36 41 5a 28 36 43 9e 94 35 64 56 88 36
       2.4113563e-06 2.5086485e-06 1.107292e-06 4.063173e-06
0000e0 03 41 4b 36 02 5d 43 36 7b 53 e5 35 b6 34 96 35
       3.02872e-06 2.9111402e-06 1.7086126e-06 1.1191212e-06
0000f0 3c fd 9b 36 16 43 82 36 44 eb 6e 36 f4 aa 94 36
       4.6488403e-06 3.8821117e-06 3.5601706e-06 4.4306453e-06

exp_avg f4 [2, 64]
000000 03 15 db ba fd b1 2d bc 80 34 02 bc c9 c6 63 3b
       -0.0016714636 -0.010601518 -0.007947087 0.0034755936
000010 54 4b 8a bb a0 54 70 3b 9a a1 ed bb 80 43 af bb
       -0.0042204056 0.0036671534 -0.0072519304 -0.005348623
000020 a6 15 b8 b9 7c a4 5d bb 27 12 d8 bb 91 13 62 bb
       -0.00035111344 -0.0033819964 -0.006593961 -0.0034496526
000030 9e b1 ee bb 6b 07 01 bb 12 20 b7 b9 96 b4 02 bc
       -0.007284357 -0.001968826 -0.00034928374 -0.007977625
000040 eb 8c 93 bb 03 00 8b bb d8 20 08 bc fe a9 a1 bb
       -0.0045028827 -0.0042419448 -0.008308612 -0.0049335947
000050 bf f5 78 ba 04 94 d5 bb f2 d0 9a bb 35 30 2d bb
       -0.0009497068 -0.006517889 -0.0047246153 -0.0026426439
000060 d3 7a 15 bb 16 b4 99 bb 35 d7 b1 ba f3 9a da bb
       -0.0022808805 -0.0046906574 -0.0013568165 -0.0066713034
000070 ff c8 01 bb 99 63 ad bb 1a a2 80 bb 84 2a b3 bb
       -0.001980364 -0.005291414 -0.003925574 -0.0054677147
000080 19 f3 b0 39 9b 3e 18 3b 53 75 92 bb 00 6d 80 bc
       0.00033750458 0.0023230675 -0.0044695525 -0.015676975
000090 b2 c4 bb bb fa 00 b2 bb e8 6b 54 bb b4 d0 12 bc
       -0.005730235 -0.0054322453 -0.003241295 -0.0089608915
0000a0 d3 85 64 bb 26 32 e3 ba b7 42 ca bb ea 0e 38 bb
       -0.0034869805 -0.0017333671 -0.006172504 -0.0028085061
0000b0 36 82 24 3b 62 63 1d bc c9 47 78 bb 80 60 f7 ba
       0.0025102026 -0.009606214 -0.0037884584 -0.0018873364
0000c0 0b 7d a7 bb 5c 50 a8 b8 e3 b0 b8 bb d4 8b 9d bb
       -0.005111342 -8.025832e-05 -0.005636321 -0.0048079286
0000d0 06 eb 2d bb a2 27 62 bc d8 28 1b bc c9 0c 05 bc
       -0.002653779 -0.0138033945 -0.009470187 -0.008120724
0000e0 f8 72 f3 bb ac 4e e8 ba 7b e8 10 bc b0 42 92 38
       -0.007429477 -0.0017723641 -0.00884449 6.974244e-05
0000f0 47 b3 46 bb 2d 45 00 bc 7b 46 c5 bb b1 80 c7 bb
       -0.003031926 -0.007828993 -0.006020365 -0.0060883393
000100 05 15 db 3a fe b1 2d 3c 7f 34 02 3c c7 c6 63 bb
       0.0016714638 0.010601519 0.007947086 -0.0034755932
000110 54 4b 8a 3b 9d 54 70 bb 99 a1 ed 3b 80 43 af 3b
       0.0042204056 -0.0036671527 0.00725193 0.005348623
000120 aa 15 b8 39 7d a4 5d 3b 27 12 d8 3b 91 13 62 3b
       0.00035111356 0.0033819966 0.006593961 0.0034496526
000130 9e b1 ee 3b 6c 07 01 3b 11 20 b7 39 95 b4 02 3c
       0.007284357 0.0019688262 0.0003492837 0.007977624
000140 e9 8c 93 3b 03 00 8b 3b d8 20 08 3c fd a9 a1 3b
       0.004502882 0.0042419448 0.008308612 0.0049335943
000150 be f5 78 3a 03 94 d5 3b f2 d0 9a 3b 33 30 2d 3b
       0.00094970677 0.0065178885 0.0047246153 0.0026426434
000160 d3 7a 15 3b 16 b4 99 3b 34 d7 b1 3a f4 9a da 3b
       0.0022808805 0.0046906574 0.0013568164 0.006671304
000170 00 c9 01 3b 98 63 ad 3b 1a a2 80 3b 84 2a b3 3b
       0.0019803643 0.0052914135 0.003925574 0.0054677147
000180 18 f3 b0 b9 9c 3e 18 bb 53 75 92 3b 00 6d 80 3c
       -0.00033750455 -0.0023230677 0.0044695525 0.015676975
000190 b1 c4 bb 3b f8 00 b2 3b e4 6b 54 3b b4 d0 12 3c
       0.0057302346 0.0054322444 0.003241294 0.0089608915
0001a0 d3 85 64 3b 23 32 e3 3a b6 42 ca 3b ea 0e 38 3b
       0.0034869805 0.0017333667 0.0061725033 0.0028085061
0001b0 35 82 24 bb 62 63 1d 3c c9 47 78 3b 81 60 f7 3a
       -0.0025102024 0.009606214 0.0037884584 0.0018873365
0001c0 0a 7d a7 3b 6a 50 a8 38 e4 b0 b8 3b d3 8b 9d 3b
       0.0051113414 8.0258425e-05 0.0056363214 0.004807928
0001d0 05 eb 2d 3b a1 27 62 3c d8 28 1b 3c c9 0c 05 3c
       0.0026537788 0.013803394 0.009470187 0.008120724
0001e0 f6 72 f3 3b ac 4e e8 3a 7a e8 10 3c aa 42 92 b8
       0.007429476 0.0017723641 0.008844489 -6.97424e-05
0001f0 46 b3 46 3b 2b 45 00 3c 7a 46 c5 3b b2 80 c7 3b
       0.0030319258 0.007828991 0.0060203644 0.0060883397

exp_avg_sq f4 [2, 64]
000000 01 85 21 38 b2 3a 6d 39 4c 75 14 39 43 ae d1 37
       3.850926e-05 0.00022623947 0.00014158076 2.4995888e-05
000010 05 26 35 38 15 99 ea 37 1c 98 fb 38 7d 62 eb 38
       4.318917e-05 2.7966258e-05 0.00011996945 0.00011224018
000020 ae e7 e0 36 51 5e a7 38 a2 a1 6f 38 95 ea 12 38
       6.7026913e-06 7.980748e-05 5.7132573e-05 3.5027584e-05
000030 a9 c5 22 39 ca 65 1e 38 bf a7 bd 37 ef 36 16 39
       0.00015523158 3.7764934e-05 2.2608669e-05 0.00014325579
000040 43 78 27 38 8c b1 e6 37 c6 7e 12 39 a3 05 a0 38
       3.9927905e-05 2.7500813e-05 0.00013970872 7.6304445e-05
000050 bd d1 e1 37 a5 af 7b 38 5a 61 40 38 1b 1c 3d 38
       2.6919757e-05 6.0006645e-05 4.5867033e-05 4.5087287e-05
000060 2b 67 4a 38 55 07 ae 38 e5 3d b2 37 06 1c 4c 39
       4.8256636e-05 8.298332e-05 2.1248075e-05 0.00019465396
000070 0c 50 25 38 be ac 23 38 49 93 ec 38 a0 1a ed 38
       3.9413615e-05 3.9023107e-05 0.00011280791 0.00011306
000080 ea 29 e8 37 36 29 4e 37 30 f9 27 38 32 4e bd 39
       2.7676073e-05 1.2288152e-05 4.0047977e-05 0.0003610715
000090 a7 4c 19 39 d9 d7 06 39 d0 03 9b 38 55 bf 14 39
       0.00014619772 0.00012859645 7.391686e-05 0.00014185657
0000a0 da 0d dc 37 a0 bf 98 37 df 1b 0c 39 5d 55 4b 38
       2.6232494e-05 1.8209044e-05 0.00013361823 4.8478472e-05
0000b0 96 32 1f 37 36 85 19 39 93 e4 c6 38 48 34 38 38
       9.4889165e-06 0.00014640842 9.483951e-05 4.391771e-05
0000c0 3f 71 89 38 5d 51 2f 37 13 a4 95 38 ba 14 a1 38
       6.553763e-05 1.0449757e-05 7.135435e-05 7.680939e-05
0000d0 0f bb 3d 38 7a a3 ba 39 f2 f6 fa 38 bf 39 21 39
       4.5235323e-05 0.00035598484 0.00011966926 0.00015375669
0000e0 ca 79 31 39 76 18 22 38 03 42 42 39 60 c8 8c 37
       0.00016925405 3.864659e-05 0.00018525873 1.6782607e-05
0000f0 78 48 9a 38 7d fd ee 38 67 92 81 38 91 4f 6d 38
       7.3567906e-05 0.0001139594 6.178469e-05 5.6579305e-05
000100 00 85 21 38 b2 3a 6d 39 4c 75 14 39 43 ae d1 37
       3.8509257e-05 0.00022623947 0.00014158076 2.4995888e-05
000110 04 26 35 38 18 99 ea 37 1c 98 fb 38 7a 62 eb 38
       4.3189168e-05 2.7966264e-05 0.00011996945 0.00011224016
000120 af e7 e0 36 51 5e a7 38 a4 a1 6f 38 95 ea 12 38
       6.7026917e-06 7.980748e-05 5.713258e-05 3.5027584e-05
000130 a8 c5 22 39 ca 65 1e 38 bd a7 bd 37 ef 36 16 39
       0.00015523157 3.7764934e-05 2.2608665e-05 0.00014325579
000140 43 78 27 38 8d b1 e6 37 c7 7e 12 39 a4 05 a0 38
       3.9927905e-05 2.7500815e-05 0.00013970873 7.630445e-05
000150 bd d1 e1 37 a6 af 7b 38 5a 61 40 38 1c 1c 3d 38
       2.6919757e-05 6.000665e-05 4.5867033e-05 4.508729e-05
000160 2d 67 4a 38 56 07 ae 38 e6 3d b2 37 07 1c 4c 39
       4.8256643e-05 8.298333e-05 2.1248077e-05 0.00019465397
000170 0c 50 25 38 be ac 23 38 4c 93 ec 38 9f 1a ed 38
       3.9413615e-05 3.9023107e-05 0.00011280793 0.00011305999
000180 ea 29 e8 37 37 29 4e 37 30 f9 27 38 31 4e bd 39
       2.7676073e-05 1.2288153e-05 4.0047977e-05 0.00036107146
000190 a7 4c 19 39 d9 d7 06 39 ce 03 9b 38 55 bf 14 39
       0.00014619772 0.00012859645 7.3916846e-05 0.00014185657
0001a0 d8 0d dc 37 9d bf 98 37 e0 1b 0c 39 5c 55 4b 38
       2.623249e-05 1.8209039e-05 0.00013361825 4.847847e-05
0001b0 97 32 1f 37 36 85 19 39 96 e4 c6 38 47 34 38 38
       9.488917e-06 0.00014640842 9.483953e-05 4.3917706e-05
0001c0 3d 71 89 38 5c 51 2f 37 15 a4 95 38 b8 14 a1 38
       6.553761e-05 1.0449756e-05 7.135436e-05 7.6809374e-05
0001d0 0f bb 3d 38 7a a3 ba 39 f3 f6 fa 38 bf 39 21 39
       4.5235323e-05 0.00035598484 0.00011966927 0.00015375669
0001e0 ca 79 31 39 75 18 22 38 02 42 42 39 60 c8 8c 37
       0.00016925405 3.8646587e-05 0.00018525872 1.6782607e-05
0001f0 79 48 9a 38 7e fd ee 38 67 92 81 38 91 4f 6d 38
       7.356791e-05 0.00011395941 6.178469e-05 5.6579305e-05

exp_avg f4 [2]
000000 f5 ff 73 bc f5 ff 73 3c
       -0.014892568 0.014892568

exp_avg_sq f4 [2]
000000 c0 0d fa 39 c0 0d fa 39
       0.0004769396 0.0004769396

exp_avg f4 [2, 64]
000000 c7 8b ce b9 10 4c bd bb e0 9f b0 bb b4 09 58 3b
       -0.00039395524 -0.0057768896 -0.0053901523 0.0032964768
000010 33 86 11 bb fc 01 72 3b 65 5a f4 bb 50 75 19 bc
       -0.0022205233 0.0036927452 -0.007457065 -0.009366348
000020 8a 83 6b 3a 04 19 8c bb 5f a2 73 bb 88 1f 38 bb
       0.00089841394 -0.004275443 -0.0037175638 -0.0028094966
000030 61 80 23 bc 38 7d f5 ba bd 27 e6 ba 02 69 6d bb
       -0.009979338 -0.0018729335 -0.001755945 -0.003622592
000040 35 14 b4 bb bd 0d a7 ba 17 e7 c7 bb be af 85 bb
       -0.005495573 -0.0012745183 -0.006100546 -0.004079788
000050 5b 9f 94 bb 91 dc a2 bb db 0b fb ba 3e 68 a4 bb
       -0.004535598 -0.004970141 -0.0019153313 -0.0050173094
000060 34 a3 61 bb 84 a3 bb bb f7 58 84 3a 6a 42 17 bc
       -0.0034429552 -0.0057262797 0.0010097314 -0.009232143
000070 63 02 85 bb 49 44 a1 bb 42 fb 9f bb 66 73 cd bb
       -0.0040591224 -0.0049214703 -0.004882247 -0.00626986
000080 ad 10 cd 39 f6 02 1d 3b be e4 d5 ba 40 b1 31 bc
       0.0003911307 0.0023958064 -0.0016318781 -0.010845482
000090 d6 f7 1a bc ed 5f 07 bc 50 93 0b bb f5 9a d2 bb
       -0.009458503 -0.008262617 -0.0021297522 -0.0064271637
0000a0 31 d4 df ba e0 5c 12 bb c7 be a5 bb ab ad 05 ba
       -0.0017076788 -0.002233319 -0.005058143 -0.0005099426
0000b0 bf 9e 17 3b a4 8e 8d bb bd f4 19 bb 33 d3 3f ba
       0.0023135392 -0.0043199826 -0.0023491823 -0.0007317543
0000c0 f0 8e f2 bb 2b 46 da b9 8d 2e ae ba ef 9c 0c bb
       -0.0074022934 -0.0004163248 -0.001328902 -0.0021455844
0000d0 ee c7 2d bb b0 9d 6f bc 64 5e 17 bc d1 ac b2 bb
       -0.0026516872 -0.014624998 -0.009238813 -0.00545273
0000e0 fd 50 11 bc de 09 7c bb 58 87 2f bc b7 4a f2 b9
       -0.008869407 -0.003845803 -0.010713421 -0.00046213504
0000f0 c9 d1 d3 bb 90 fb ef bb 27 a4 e5 bb ac 3e f2 ba
       -0.0064642173 -0.0073236898 -0.007008094 -0.0018481812
000100 be 8b ce 39 0f 4c bd 3b e1 9f b0 3b b4 09 58 bb
       0.00039395498 0.005776889 0.005390153 -0.0032964768
000110 30 86 11 3b fc 01 72 bb 63 5a f4 3b 4e 75 19 3c
       0.0022205226 -0.0036927452 0.007457064 0.0093663465
000120 8a 83 6b ba 03 19 8c 3b 5c a2 73 3b 86 1f 38 3b
       -0.00089841394 0.0042754426 0.003717563 0.0028094961
000130 62 80 23 3c 39 7d f5 3a bc 27 e6 3a 01 69 6d 3b
       0.009979339 0.0018729336 0.0017559449 0.0036225917
000140 35 14 b4 3b bc 0d a7 3a 17 e7 c7 3b be af 85 3b
       0.005495573 0.0012745182 0.006100546 0.004079788
000150 5a 9f 94 3b 91 dc a2 3b dc 0b fb 3a 3e 68 a4 3b
       0.0045355977 0.004970141 0.0019153315 0.0050173094
000160 36 a3 61 3b 83 a3 bb 3b f6 58 84 ba 6b 42 17 3c
       0.0034429557 0.005726279 -0.0010097313 0.009232144
000170 62 02 85 3b 49 44 a1 3b 41 fb 9f 3b 66 73 cd 3b
       0.004059122 0.0049214703 0.0048822467 0.00626986
000180 aa 10 cd b9 f7 02 1d bb c1 e4 d5 3a 41 b1 31 3c
       -0.00039113063 -0.0023958066 0.0016318784 0.010845483
000190 d6 f7 1a 3c ec 5f 07 3c 4f 93 0b 3b f5 9a d2 3b
       0.009458503 0.008262616 0.002129752 0.0064271637
0001a0 30 d4 df 3a df 5c 12 3b c6 be a5 3b aa ad 05 3a
       0.0017076787 0.0022333188 0.0050581424 0.00050994253
0001b0 bf 9e 17 bb a3 8e 8d 3b bd f4 19 3b 34 d3 3f 3a
       -0.0023135392 0.004319982 0.0023491823 0.00073175435
0001c0 f0 8e f2 3b 30 46 da 39 8c 2e ae 3a f0 9c 0c 3b
       0.0074022934 0.00041632494 0.0013289019 0.0021455847
0001d0 ee c7 2d 3b ae 9d 6f 3c 64 5e 17 3c ce ac b2 3b
       0.0026516872 0.014624996 0.009238813 0.005452729
0001e0 fd 50 11 3c dc 09 7c 3b 57 87 2f 3c b8 4a f2 39
       0.008869407 0.0038458025 0.01071342 0.00046213507
0001f0 c9 d1 d3 3b 94 fb ef 3b 27 a4 e5 3b ae 3e f2 3a
       0.0064642173 0.0073236916 0.007008094 0.0018481815

exp_avg_sq f4 [2, 64]
000000 39 b7 31 38 1c 25 78 39 58 4a 18 39 47 df e7 37
       4.2370728e-05 0.00023664947 0.00014523545 2.7641318e-05
000010 cc 46 3d 38 81 fd ff 37 19 e8 01 39 89 45 06 39
       4.5127046e-05 3.0516416e-05 0.00012388862 0.0001280514
000020 8d f8 e4 36 98 70 bb 38 ae 8d 67 38 3d c5 13 38
       6.8238646e-06 8.937827e-05 5.520664e-05 3.5231224e-05
000030 ab bf 2e 39 14 bd 19 38 a5 74 d0 37 ff 15 20 39
       0.00016665335 3.6654135e-05 2.4849849e-05 0.00015266983
000040 3c f1 18 38 45 50 e6 37 5c 98 1d 39 f7 e7 a6 38
       3.646429e-05 2.7455515e-05 0.00015029445 7.958704e-05
000050 36 4c 00 38 b5 15 81 38 e7 ec 4a 38 84 88 57 38
       3.0588555e-05 6.1552426e-05 4.8381185e-05 5.1387135e-05
000060 23 d6 52 38 64 9f b6 38 f5 8e bf 37 38 79 6b 39
       5.0267332e-05 8.708125e-05 2.2835544e-05 0.00022456504
000070 bf cc 34 38 c6 8e 19 38 f9 89 07 39 9c 29 05 39
       4.310603e-05 3.661101e-05 0.00012926002 0.00012699369
000080 2d e1 f3 37 6f 10 59 37 92 e3 31 38 bb 36 c5 39
       2.9072713e-05 1.2938034e-05 4.241203e-05 0.00037615545
000090 37 e3 25 39 dd 83 0e 39 b9 f3 a9 38 db ee 0c 39
       0.0001582027 0.00013591298 8.103945e-05 0.00013440421
0000a0 0e d5 db 37 ee 8e a2 37 00 e5 09 39 62 4c 52 38
       2.6206046e-05 1.9378462e-05 0.00013150647 5.013904e-05
0000b0 5a f3 22 37 45 08 17 39 cc c7 ea 38 ce 31 5d 38
       9.712612e-06 0.00014403563 0.000111952046 5.273689e-05
0000c0 6c ef 93 38 c8 90 2a 37 42 65 9b 38 df 62 b4 38
       7.054102e-05 1.0166499e-05 7.409837e-05 8.601485e-05
0000d0 b0 93 47 38 db bb bd 39 bf 87 02 39 aa 13 2f 39
       4.7582842e-05 0.00036188852 0.00012448335 0.00016696626
0000e0 00 e2 4e 39 be 87 22 38 60 a8 4b 39 80 76 8e 37
       0.00019729882 3.875023e-05 0.00019422313 1.69829e-05
0000f0 79 4a a6 38 ee 3d f6 38 be da 89 38 56 54 73 38
       7.9293684e-05 0.000117417294 6.573413e-05 5.801426e-05
000100 3a b7 31 38 1d 25 78 39 58 4a 18 39 49 df e7 37
       4.237073e-05 0.00023664949 0.00014523545 2.7641321e-05
000110 cd 46 3d 38 81 fd ff 37 19 e8 01 39 8a 45 06 39
       4.512705e-05 3.0516416e-05 0.00012388862 0.00012805141
000120 8f f8 e4 36 9a 70 bb 38 ad 8d 67 38 3e c5 13 38
       6.8238655e-06 8.9378285e-05 5.5206638e-05 3.5231227e-05
000130 ae bf 2e 39 14 bd 19 38 a7 74 d0 37 00 16 20 39
       0.0001666534 3.6654135e-05 2.4849853e-05 0.00015266985
000140 3d f1 18 38 44 50 e6 37 5d 98 1d 39 f6 e7 a6 38
       3.6464295e-05 2.7455513e-05 0.00015029447 7.958703e-05
000150 38 4c 00 38 b5 15 81 38 e7 ec 4a 38 85 88 57 38
       3.0588562e-05 6.1552426e-05 4.8381185e-05 5.138714e-05
000160 23 d6 52 38 64 9f b6 38 f6 8e bf 37 37 79 6b 39
       5.0267332e-05 8.708125e-05 2.2835546e-05 0.00022456502
000170 bd cc 34 38 c6 8e 19 38 f9 89 07 39 9c 29 05 39
       4.310602e-05 3.661101e-05 0.00012926002 0.00012699369
000180 2d e1 f3 37 6e 10 59 37 91 e3 31 38 ba 36 c5 39
       2.9072713e-05 1.2938033e-05 4.2412026e-05 0.00037615543
000190 3a e3 25 39 dd 83 0e 39 b9 f3 a9 38 db ee 0c 39
       0.00015820275 0.00013591298 8.103945e-05 0.00013440421
0001a0 0e d5 db 37 ee 8e a2 37 ff e4 09 39 64 4c 52 38
       2.6206046e-05 1.9378462e-05 0.00013150646 5.0139046e-05
0001b0 5b f3 22 37 44 08 17 39 cc c7 ea 38 ce 31 5d 38
       9.712613e-06 0.00014403561 0.000111952046 5.273689e-05
0001c0 6c ef 93 38 c6 90 2a 37 41 65 9b 38 de 62 b4 38
       7.054102e-05 1.0166497e-05 7.409836e-05 8.601484e-05
0001d0 b0 93 47 38 db bb bd 39 be 87 02 39 aa 13 2f 39
       4.7582842e-05 0.00036188852 0.00012448334 0.00016696626
0001e0 fe e1 4e 39 be 87 22 38 5e a8 4b 39 81 76 8e 37
       0.0001972988 3.875023e-05 0.0001942231 1.6982902e-05
0001f0 79 4a a6 38 ee 3d f6 38 c0 da 89 38 56 54 73 38
       7.9293684e-05 0.000117417294 6.5734144e-05 5.801426e-05

exp_avg f4 [2]
000000 71 10 81 bc 70 10 81 3c
       -0.01575491 0.015754908

exp_avg_sq f4 [2]
000000 ec e9 07 3a eb e9 07 3a
       0.00051846984 0.0005184698
