results/proba_02/EscapeFromMaze/EscapeFromMaze-999885.onnx (onnx, 52159 bytes, 7 tensors)

discrete_act_size_vector f4 [1, 2]
00000000: 0000 0040 0000 0040
2.0 2.0

network_body._body_endoder.seq_layers.0.weight f4 [64, 174]
00000000: 542d e33d fc10 513e f42f cd3d f7bb 7ebb
00000010: 934e 1a3d 18d2 c43d 85dc bb3b 6633 563c
00000020: 08ff 16ba 77b3 a83c fb9a d9bd 8b21 47bd
00000030: 6024 c7b8 0e5b b1bd a0ca 37bd 0a0d 803c
00000040: 9b60 923b 4824 bdbb fb4e 423d c760 b4bb
00000050: df00 18bd 24f7 28bd 3e02 7abd b268 9c3d
00000060: fb08 d03d e9ac 40bd 68b6 f8bd 174b 943d
00000070: 1285 10bd 44ac bdbd 13e6 823d 59fb b73b
00000080: 85da c5bd 9144 023d 474d 953d 1229 833c
00000090: 4f41 793d fad2 a4bc 8308 b1bd 4bcc 143e
000000a0: 81f7 fcbc f892 f03c 63ec 1abe e520 403d
000000b0: 0060 a6bd ef75 34bd bb6a dcbd 39fa 77bd
000000c0: abfe 28bd 3625 c1bc a523 2dbc 513f c6bd
000000d0: 67ef 44bd dc8d e63b f960 14bd a16f 4bbd
000000e0: ac49 9d3d d3e1 02be cdca be3c 0381 573c
000000f0: 2af9 393d e28a be3d f0c8 36be 0c1f 44bd
00000100: e19a d4bc c4ce 9c3c 1883 15be cf73 43bc
00000110: 1f74 83bd 5e70 19be ff9e 173d c47b 85be
00000120: 18dd bfbb 5de2 aa3b 907e e03d 8c67 38be
00000130: a000 a8bc 3154 a6bd db56 48bd 7d40 13bd
00000140: 7fc2 7e3d 295c e23c 29ce 08bd 697c 8dbd
00000150: 4489 693c 8902 7dbd 2d80 123d be44 17bd
00000160: 4b60 c43d 4a7b 0ebd 690b 333e df81 00be
00000170: 7860 c9bd 82e8 81bd a653 7a3c 0ad4 90bb
00000180: d825 a5bc 0df7 883d 824f 693b 4204 d3bc
00000190: 88e2 7e3d df2e bcbb 17fe a73d 218f 9ebc
000001a0: 728e 51be 60eb f93c 4433 c33c 9730 d03d
000001b0: 1b53 0f3d 6a69 853d 0730 ccbd 3870 a33d
000001c0: 99ee 723d fdcf b4bd 3f34 4f3e 6202 fd3c
000001d0: 8175 87bc 4680 ecbd 3828 5dbd 9ed2 bc3d
000001e0: 032d c13d 7132 cabd 76fc 2fbd 9796 14bd
000001f0: 3c86 82bc 1375 bc3c c0b6 b9bd cce0 c83d
00000200: 46f6 293b adc8 303d 3e94 293d 4898 86bc
00000210: c509 28bd 904f e73c ce8e 9b3c 8443 0abc
00000220: 3b00 c13d 43cc 943b 4eb7 953d 2ed7 223d
00000230: 29a4 883c 4b3e d7bd 0b30 25be f21c d93d
00000240: 2c00 0c3d 2d2e c03c 80be aebd 3c37 2c3d
00000250: d30c 973d d917 a0bd 7d4e cb3c 370f 59bd
00000260: 3842 90bd 7abb 963d 03e7 323d e9c0 063e
00000270: 2de0 22bc c661 71bb 6366 963d 8d42 33bd
00000280: 578a 833d 3a47 3a3e 58f4 9ebd 573a 223d
00000290: 18a9 92bd 4bb9 253b 9c70 613c 4686 7ebc
000002a0: 91ea b0bd 9cf1 4c3e e081 00bb ab39 033e
000002b0: 1c85 1d3c a2cb 9dbc e21d 043d eb3b 1c3d
000002c0: b256 0d3d 711d 0dbe 468a 143d 6f3f b23d
000002d0: 10cc 15be def4 5a3d 586b 483d 2e66 d8bd
000002e0: 053b 033e c7d6 dbbc 68df 4c3d d1f3 b3bd
000002f0: a8f2 3e3d 06d5 053e 670d 2cbd 8cd4 733d
00000300: aa5a edbb 7dcd 853d 93e3 fa3d f788 69bd
00000310: 867f 74bd d73c 72bd 8eb8 85bd d249 74bd
00000320: c0e2 8e3c 9cbb 16be 9b4a d7bc 912a ad3a
00000330: 480e b13d c56d 093d 69ab dfbd 866a 1d3d
00000340: dcf5 4fbe 81c9 87bd 8dd5 6fbd b602 a93d
00000350: 4831 87bc e6f1 753e e6b1 ac3c 6ca2 e4bd
00000360: 5610 f3bd 6df7 03bd 7dc8 d83d 0bdd 1cbc
00000370: b25e 30be 26cb 25bc 454c aaba 6964 0d3d
00000380: 09b4 c6bb 945f efbd 9d27 433e f0e7 2f3d
00000390: c9ac 51bd fc1b 403d 379a 56be b398 b73d
000003a0: 4e74 fabd eb3b f93c 7317 61bd 3729 0b3e
000003b0: ecc6 9abc 6fc8 0abd d69f 3f3e 2128 0c3d
000003c0: 6ebc aebd eaf2 ac3c 8777 ac3c 17be 12be
000003d0: ced0 0c3e 094c 2dbd 9b98 4c3c 9e02 5dbc
000003e0: 0261 283b 9ab9 eebb 60ff 603d ad8b aabd
000003f0: e173 8e3c 4fc7 63bd 7111 4c3d ee8e 82bd
0.1109263 0.20416635 0.10018912 -0.003886936 0.03767259 0.09610385 0.005733075 0.013073778
-0.00057600485 0.020593388 -0.10625263 -0.048615973 -9.495835e-05 -0.086599454 -0.044870973 0.015631218
0.0044670827 -0.0057721473 0.047438603 -0.005504701 -0.037110206 -0.041251317 -0.061037295 0.076371565
0.10157963 -0.0470399 -0.12144166 0.07240885 -0.035283156 -0.09261373 0.063915394 0.00561468
-0.0966082 0.03180367 0.0729013 0.016010795 0.0608533 -0.020120133 -0.086442016 0.14531057
-0.030879738 0.029366955 -0.15129237 0.04690637 -0.08123779 -0.044057783 -0.10762545 -0.060541365
-0.041258495 -0.023577314 -0.01056758 -0.096800454 -0.048079874 0.007035954 -0.036225293 -0.049667004
0.076800674 -0.12781458 0.023290062 0.013153317 0.045403637 0.093038335 -0.17850089 -0.04788117
-0.025952758 0.019141562 -0.1460079 -0.011929466 -0.06418633 -0.14984271 0.037016865 -0.26070988
-0.005855214 0.005214973 0.1096164 -0.1800825 -0.02050811 -0.08121527 -0.048910957 -0.035950173
0.062197205 0.027631836 -0.033399735 -0.06908495 0.014253918 -0.061769996 0.03576677 -0.036930792
0.09588679 -0.034785546 0.17484821 -0.12549542 -0.09832853 -0.063431755 0.015278732 -0.0044198083
-0.020159647 0.06687746 0.003560037 -0.025758866 0.062227756 -0.005742892 0.08202761 -0.019355359
-0.20464495 0.030507743 0.023828156 0.10165518 0.034991365 0.06514247 -0.09970098 0.079803884
0.059309576 -0.08828733 0.20234774 0.030884925 -0.016535522 -0.11547904 -0.053993434 0.092198595
0.094324134 -0.09872902 -0.042965375 -0.036276426 -0.015933149 0.023005044 -0.0906806 0.098085016
0.0025934144 0.04316013 0.04140114 -0.016430035 -0.041024942 0.02823618 0.018988993 -0.008438949
0.09423872 0.0045409515 0.07310353 0.039755993 0.01667984 -0.10509928 -0.16131608 0.10601224
0.03417985 0.023459518 -0.08532429 0.042044863 0.07375493 -0.078170486 0.0248177 -0.052993026
-0.0704388 0.07359977 0.04367734 0.13159527 -0.009941143 -0.003683196 0.073437475 -0.04376464
0.064228706 0.18191233 -0.077614486 0.03960642 -0.07161158 0.0025287445 0.013759758 -0.015534943
-0.0863849 0.20014042 -0.0019608662 0.12814967 0.009614255 -0.019262139 0.03225506 0.03814308
0.034506507 -0.13780762 0.03626468 0.08703505 -0.14628625 0.05345618 0.048930496 -0.10566364
0.12815483 -0.026835812 0.050017744 -0.08786739 0.046618134 0.13069543 -0.04200497 0.059528872
-0.007243474 0.065333344 0.122504376 -0.057015385 -0.05969193 -0.059140053 -0.06529342 -0.059640713
0.017442107 -0.14720005 -0.026280692 0.0013211538 0.08645302 0.03355195 -0.10921366 0.038431667
-0.20308632 -0.06630231 -0.058553267 0.0825247 -0.016502991 0.24018058 0.021080922 -0.11163792
-0.1186835 -0.032218385 0.10585115 -0.009574185 -0.17223623 -0.010119235 -0.0012992701 0.034519587
-0.0060639423 -0.11688152 0.1905808 0.042945802 -0.05119017 0.046901688 -0.20957266 0.08964672
-0.122292146 0.030424079 -0.054954004 0.13589941 -0.018893681 -0.033882555 0.18713316 0.034217957
-0.08532034 0.021111924 0.021053089 -0.14330326 0.13751528 -0.04230884 0.012487556 -0.0134893935
0.0025692587 -0.007285309 0.054931045 -0.08327422 0.01738924 -0.055609997 0.04982132 -0.06374918

network_body._body_endoder.seq_layers.0.bias f4 [64]
00000000: 2b39 033c 9f87 d53b bbd8 503b 36e9 af3b
00000010: 6460 0f3c 1b08 98bc f90b 9a3c 3599 913c
00000020: a459 833c 93da d93c 5099 843c e261 aa3b
00000030: 00c0 f23c 5903 323b 6bd0 063c f73f a13c
00000040: 7989 ac3c 9d79 603c b0f9 753b 5b5a 883c
00000050: a1de 813c b20d 963c 5834 853c acba a33c
00000060: 5b78 ec3c 307a 5f3c d83c 9b3b 61d0 d73c
00000070: bf4d 613c 35fa 033c 7749 8a3c f85c 973c
00000080: f77a 833c ca44 343c 26e1 043c 7f66 1a3c
00000090: 03f0 fa3c a757 df3c 6433 523c e455 a23c
000000a0: daff c03c c318 4e3b dbcf 073c 8eff a53c
000000b0: bbab 443b 2441 743c 2350 a33c c364 7d3c
000000c0: 51e6 c33c 36fc 703c 8537 4e3c 31a2 f73c
000000d0: 4de0 813c b53e 653c 6779 483c 92de 8d3c
000000e0: 511d 373c f990 653c a96a 323c b805 3c3c
000000f0: 0239 803c 52fa 953c 03ec a53c 34f6 8a3c
0.008009235 0.0065164114 0.0031867463 0.005368377 0.008751009 -0.018558552 0.018804537 0.01777325
0.016033955 0.026593482 0.016186386 0.005199657 0.029632568 0.002716264 0.008228402 0.019683821
0.021061646 0.01370087 0.0037532859 0.016644647 0.015853228 0.018317077 0.016260311 0.019986473
0.028865984 0.013639972 0.0047374777 0.02634448 0.013751446 0.0080552595 0.016880734 0.018476948
0.016049845 0.011002729 0.00811032 0.009423851 0.030632025 0.027263476 0.012829635 0.019816346
0.0235595 0.0031447865 0.008289303 0.02026346 0.0030009586 0.014908109 0.019935673 0.015465918
0.023913534 0.014708569 0.012586479 0.030228706 0.015854025 0.013992001 0.012235976 0.017318044
0.011176423 0.014011615 0.010889688 0.011475973 0.015652183 0.018307839 0.02025414 0.016963102

action_model._discrete_distribution.branches.0.weight f4 [2, 64]
00000000: d28f 2dbd 1ed9 46bd 5f72 a3bc db30 56bc
00000010: e52e e6bc 10b9 efbc 58e7 2c3d 52b8 533d
00000020: e91f 66bd 03d5 823d 5561 1c3c ecbc a0bc
00000030: a635 e23c fc71 ba38 2f67 26bd e891 4bbd
00000040: 31c4 843d 4ee3 85ba a881 2dbd 819c 313c
00000050: be1d 113d 4bac 643c f33c 9fbc d772 6e3d
00000060: 063a d7ba aef6 00bc 6bf4 6ebb 6c9a 11bc
00000070: 7fe2 42bc 7bb0 6f3c 76db d3bc c2f7 4dbd
00000080: 1b87 5dbd 40f5 27bb eef2 71bd c309 c03b
00000090: 2133 633d 9269 a73d e497 14bd bc23 073d
000000a0: aa59 043c c252 48bc 2c43 a9bc 5394 8dbd
000000b0: 9d96 debc e9b4 81bc c6d1 98bd 4b8b 5abd
000000c0: d38c 9e3d 0359 9ebc 616b 26bd c0c7 adbd
000000d0: f27d 41bd b100 ed3c d9a1 1a3d a82c 53bd
000000e0: 9cca d2b9 4e52 d43c 1635 a23c 1867 adbb
000000f0: 8f82 24bc f50b 593d eace 9f3d bf4d 35bc
00000100: d2ee 1b3d 089f f93c 7c93 6b3b ce62 2dba
00000110: 3107 d43c 51a0 b13c f8ff 4fbd 2714 9dbd
00000120: 449b 423d 0f96 05bd 2f94 0d3d e796 043d
00000130: 3e28 cbbc fad4 c13a ccb2 763d 9edd b03d
00000140: 3918 65bd a9ed 933c 81a0 153d fcc0 2fbd
00000150: 27c1 efbc d1e6 fdbc 17bd 7d3c 9155 80bd
00000160: bb90 a2bc d6d8 c4bb 620e 373c 334b 293b
00000170: 63a6 b83c 6b51 953b 808f f73c 16fd 0e3d
00000180: ef39 483d efc0 df3c c9f2 393d fe8a fdbc
00000190: 916a 24bd ef93 52bd 826b d53c f1bd 53bd
000001a0: 44fd 603c dbd1 123c f5a0 1f3d 2004 893d
000001b0: 488f 653c 60d1 ec3c 6d4a 873d d391 583d
000001c0: 4b52 adbd e9ac 5b3d 505e 443d 755f 6d3d
000001d0: e785 e33c 9444 3ebd c0c3 b4bc 384b 893d
000001e0: 2b99 94bc a1a2 613b 8616 94bb 066f 263c
000001f0: 7fc5 583c 16be 4bbd 0566 45bd 9e68 eb3c
-0.042373486 -0.048546903 -0.019951997 -0.0130731715 -0.028098533 -0.02926305 0.042212814 0.051689453
-0.056182776 0.06388285 0.00954469 -0.019621335 0.027613472 8.8904024e-05 -0.040625747 -0.049699694
0.06482733 -0.0010214837 -0.042359978 0.010840536 0.035428755 0.0139570935 -0.019438243 0.05821499
-0.001642049 -0.007871313 -0.0036461602 -0.008886915 -0.011894821 0.014629479 -0.025861483 -0.05028511
-0.054083925 -0.0025628358 -0.059069566 0.0058605387 0.055468682 0.08174433 -0.036277667 0.032993063
0.008078018 -0.012226762 -0.020661913 -0.06913056 -0.027171427 -0.015833335 -0.07461886 -0.053355496
0.07741704 -0.019329553 -0.04062975 -0.08485365 -0.04723925 0.028930994 0.037752006 -0.05155626
-0.00040205277 0.025918152 0.019800704 -0.0052918307 -0.010040893 0.05298992 0.078031376 -0.011065899
0.038069554 0.03047134 0.0035946062 -0.00066141493 0.025882335 0.02168289 -0.05078122 -0.076698594
0.047511354 -0.03261381 0.034565147 0.032370474 -0.024799462 0.0014788203 0.060229108 0.0863602
-0.055931304 0.018057661 0.03653002 -0.042908654 -0.029266907 -0.03099385 0.015486977 -0.062663205
-0.019844403 -0.006007294 0.011172863 0.0025832176 0.022540277 0.004556825 0.030219793 0.03490933
0.048883375 0.027313678 0.045397554 -0.030950066 -0.040140692 -0.05141061 0.02605224 -0.051694814
0.013732258 0.008961166 0.03897186 0.0669024 0.014011212 0.028908432 0.066059925 0.052873444
-0.08462962 0.053631697 0.047941506 0.057952363 0.02777381 -0.04645212 -0.022065997 0.067038
-0.018139442 0.003442921 -0.0045192866 0.010158306 0.0132306805 -0.049741827 -0.048192997 0.028736409

action_model._discrete_distribution.branches.0.bias f4 [2]
00000000: fb29 a03b 032a a0bb
0.004887817 -0.0048878207

action_model._discrete_distribution.branches.1.weight f4 [2, 64]
00000000: cd9a 473c e9c7 793c a07b 07bd ffd5 643c
00000010: f0c2 41bd 61d9 0d3c 9d0d 53bc 32d0 db3c
00000020: b8b2 cebb fee4 033d 0d63 86bd 3ad1 283d
00000030: 22fd a13d 9c38 2abd 18bf 893c 24c9 3abd
00000040: aeb7 bebc 3b37 b0bd 433d 20bc e555 9ebd
00000050: 08a5 943c c128 30bd b3c1 95bd a7b9 09bc
00000060: 2e16 823d 2278 6b3d e0cb 03bd 5170 693d
00000070: 8e03 693d 2c49 19bd f452 8f3d 2834 603d
00000080: e490 06ba 4203 c0bb 6768 f7bc 8ffd b1bc
00000090: dc42 423d 34f5 48bc c9ab 183d cb29 85bd
000000a0: 8df2 6bbd 1d57 3b3d 681e 0a3d 7119 31bb
000000b0: ff04 d63b 7439 45bd 83b4 af3c 45c1 073c
000000c0: 4e9b 153c 260d 303d 2146 96bc 6164 c63c
000000d0: 5c10 7f3c 9b1d a3bc 8651 cdbb 1f14 b2bc
000000e0: 47d2 3b3d b30f 6c3d 5601 f43c 1198 283d
000000f0: 3f90 703d 2324 febc f27d ccba e522 91bd
00000100: fe9b 243c b32e 823b 6ef8 b43c 01d6 32bb
00000110: ffc0 ca3c 3b3a 5a3b e894 cb3c 2891 57bc
00000120: bc14 de3c 726c eabc 0b35 cb3d c058 85bc
00000130: 8356 39bd 0e33 563c c64c a1bc 9740 fb3c
00000140: 8fde a33c 0eb5 863d df77 9d3c 1511 653d
00000150: 4695 11bd 4ebc bc3d a1d7 8d3d 63df bf3c
00000160: e610 94bd e912 54bd 6b59 ed3c cbb7 88bd
00000170: ee4c 85bd e8c9 403d 7f7c 80bd ee86 66bd
00000180: 09a2 b83c acf4 a239 3c29 8b3c 7770 203d
00000190: 439d 85bd 8fe1 293d 06e4 b5bc 51af 703d
000001a0: 4322 8f3d 9c68 cebc 87a3 d6bb 1855 963c
000001b0: 81ec e4bc 2f78 723d 2ade e2bc ccdb 9fbc
000001c0: b2b8 9ebc b5fe a9bc 540e 7c3b 4f6a 3fbb
000001d0: 7ef7 80bd 464d 3c3c 13c7 2d3c 3f46 d9bc
000001e0: 51f1 40bd af5c 73bd 6e64 13bd 5db5 3ebd
000001f0: 5863 99bd b9bb e23c d1bc f5bb f7a5 733d
0.0121829035 0.015245416 -0.033076882 0.013967036 -0.047305048 0.008657784 -0.012881664 0.026832674
-0.006307926 0.032200806 -0.06561861 0.04121516 0.079096094 -0.041557893 0.016814753 -0.04560198
-0.023280945 -0.086042844 -0.009780231 -0.07731227 0.0181451 -0.043007616 -0.07312336 -0.008406079
0.06351887 0.057487614 -0.032176852 0.05699188 0.056888156 -0.037423298 0.06998244 0.05473724
-0.0005133285 -0.0058597634 -0.03020115 -0.021727351 0.047427043 -0.012265492 0.037273202 -0.06502112
-0.05760436 0.045737375 0.033720404 -0.002702322 0.0065313573 -0.048150495 0.02144838 0.008285825
0.009131266 0.04298129 -0.018343987 0.024217786 0.015567865 -0.019911578 -0.006265822 -0.02173811
0.045854833 0.05763216 0.029785793 0.041160647 0.058731314 -0.03102309 -0.00156015 -0.07086734
0.010046957 0.003972852 0.022091117 -0.00272882 0.02475023 0.0033298868 0.024851277 -0.013157167
0.027109496 -0.028616164 0.099222265 -0.01627767 -0.04524852 0.013073696 -0.019689929 0.030670447
0.020003585 0.06577502 0.019222198 0.055924494 -0.03554275 0.09215604 0.069258936 0.023421949
-0.072297856 -0.051775847 0.028973302 -0.06675681 -0.06508814 0.047067553 -0.06273746 -0.056281023
0.022538202 0.00031081343 0.016987436 0.039169755 -0.06524136 0.041474875 -0.022203457 0.058760945
0.06988957 -0.025196366 -0.0065502557 0.018351123 -0.027944805 0.059196647 -0.027693827 -0.019513987
-0.019375179 -0.020751337 0.0038460689 -0.0029207652 -0.062972054 0.011493033 0.010606545 -0.026522754
-0.047105137 -0.05941456 -0.03598445 -0.04655968 -0.074896514 0.027677404 -0.0074993153 0.05948445

action_model._discrete_distribution.branches.1.bias f4 [2]
00000000: 36d1 ad3a 2fd1 adba
0.0013261202 -0.0013261194
