results/proba_02/EscapeFromMaze/EscapeFromMaze-499999.pt (torch, 466594 bytes, 43 tensors)

discrete_act_size_vector f4 [1, 2]
00000000: 0000 0040 0000 0040
2.0 2.0

network_body._body_endoder.seq_layers.0.weight f4 [64, 174]
00000000: 1c26 ce3d fc10 513e f0f4 ec3d e9a7 0bbb
00000010: 2112 253d 7dfa b13d 85dc bb3b 131b d23c
00000020: d8f8 cf3b 99f3 f13c 319c f0bd 8b21 47bd
00000030: c138 633c 83c9 9bbd 9ba4 0ebd 94bf af3b
00000040: 9b60 923b 6495 1f3c 3180 493d b98b 3cbb
00000050: d585 3dbd 24f7 28bd 8c14 41bd 2b58 963d
00000060: 86e6 de3d 5cc7 60bd 68b6 f8bd c2eb 733d
00000070: 147d e4bc ee84 cdbd bd31 5e3d 59fb b73b
00000080: 1e39 8cbd 2f91 be3c 9285 b73d 4db3 1d3c
00000090: 4f41 793d c889 2ebd f0bd 9fbd bcfc e53d
000000a0: 9104 1dbd f892 f03c a092 0ebe 3ed0 0b3d
000000b0: 512e a2bd 04e5 4ebd bb6a dcbd 62b3 9dbd
000000c0: f65b 2bbd 0890 23bd 5c8c 8ebc 513f c6bd
000000d0: 09e3 5cbd 946d 8f3a 8439 14bd cac9 62bd
000000e0: ac49 9d3d 39e8 10be 92a8 873c c387 353c
000000f0: f549 143d e28a be3d b1e8 29be b9c3 27bd
00000100: c35a 8bbc fe6d 1e3c 1883 15be b0e7 1bba
00000110: 33d8 5fbd a69a 07be 4c12 fe3c c47b 85be
00000120: b2b8 92bc 9068 493c b9b6 cc3d e7fd 41be
00000130: a000 a8bc 5259 51bd ccf2 50bd d7b4 3abc
00000140: 577b 6c3d 295c e23c d1b9 64bd 3f50 7bbd
00000150: 8d6e c5bc a62e 8bbd 2d80 123d 6309 a6bc
00000160: 82e5 af3d b232 10bd 1fd5 2d3e df81 00be
00000170: 0d9d e8bd ec13 87bd 8833 cbba 8deb 19bc
00000180: d825 a5bc 0f87 723d de40 a83a bb43 ddbc
00000190: d15a 6f3d df2e bcbb c330 843d 6e65 9cbc
000001a0: 80f5 53be 35e6 9d3c 4433 c33c 5dc9 ec3d
000001b0: 1f76 3a3d 88fc 993d db55 dfbd 3870 a33d
000001c0: eb63 8b3d 24d4 a8bd c55e 5f3e 9084 c33c
000001d0: 8175 87bc 57a9 04be 40b9 39bd 3d66 a43d
000001e0: 3e3a ae3d 7132 cabd dccc 5cbc 7a95 32bd
000001f0: c90f ad3b 8783 9e3c c0b6 b9bd 76bc 873d
00000200: 2e9d 9c3b 8d6f 63bb f1f8 0a3d 4898 86bc
00000210: ad5e a5bc 044e 903c ab24 d73c c446 58bc
00000220: 3b00 c13d 20d9 b2bc c48b 993d 73d4 b73c
00000230: 1fad 183c 4b3e d7bd 897b 26be e406 de3d
00000240: 27c2 1c3d 7f3d 933c 80be aebd 07e0 cf3c
00000250: 4496 a33d 2ecb a5bd afb6 b03c 1c6a 7abd
00000260: bc7a 94bd ba65 0b3d 06be 103d 34f5 083e
00000270: 72dd 7abc cefe c83a dff0 8f3d 5adc 4dbd
00000280: 7c31 7b3d e6a6 0e3e 11ee aabd 586b 213d
00000290: 0f33 a1bd 6253 de3b c536 173c c3db bbbc
000002a0: 6b73 b2bd 7fe9 1f3e 0c35 24bc 151b 023e
000002b0: ba47 e43b 3694 75bc da0a c23c eb3b 1c3d
000002c0: 74ce 2b3d db0d 09be ebc1 043d 54a4 a33d
000002d0: 10cc 15be f354 6e3d 3f6b 623d 70f2 d3bd
000002e0: 25e0 f63d c7d6 dbbc 4d7e 613d 2d3d a6bd
000002f0: cb0b 3d3d cd1d fa3d 670d 2cbd 3f26 893d
00000300: 47ce 56bb 0dd2 7b3d 0c86 ea3d f788 69bd
00000310: cc5b 56bd 76fa 73bd be41 62bd b3b2 87bd
00000320: c0e2 8e3c 7fed 28be 6b39 91bc 56f6 11bc
00000330: ba5f 9d3d c56d 093d f03e a6bd b82b fc3c
00000340: 054f 3bbe d54c 92bd 8dd5 6fbd 3edb 6e3d
00000350: 6631 40bc 1a9a 543e 443d 5e3c 6ca2 e4bd
00000360: 4301 cfbd 6fba 38bd 954a e33d 514c 81bc
00000370: b25e 30be 2427 9fbc 0eda 05ba f7ab ab3c
00000380: de9a 58bc 945f efbd 6d91 473e cd4c 1a3d
00000390: 85b6 3fbd 0164 263d 379a 56be b51c b13d
000003a0: 2e61 01be 5670 0e3d a44d 7ebd 3729 0b3e
000003b0: e70c 68bc 0491 e1bc a2d9 413e 45e2 de3c
000003c0: 6ebc aebd e8ca c93c de3b f53c 5bc8 02be
000003d0: 09aa 073e 094c 2dbd 8ce2 b0bb 7859 2fbb
000003e0: 40b0 11bc 05b4 82bc 60ff 603d db06 5fbd
000003f0: 7d62 7e3c e7a3 e6bc 2bb4 3f3d ee8e 82bd
0.100658625 0.20416635 0.115701556 -0.00213098 0.040300492 0.08690355 0.005733075 0.025647676
0.006346803 0.029535102 -0.11748541 -0.048615973 0.013868512 -0.07606795 -0.03482495 0.005363414
0.0044670827 0.009740207 0.04919452 -0.0028769805 -0.04627021 -0.041251317 -0.047138736 0.073410355
0.108838126 -0.054877624 -0.12144166 0.059551008 -0.027891673 -0.1003512 0.054246653 0.00561468
-0.06846832 0.023262588 0.089610234 0.009625268 0.0608533 -0.042611867 -0.077998996 0.11229846
-0.038334433 0.029366955 -0.1392312 0.034134142 -0.079189904 -0.050511375 -0.10762545 -0.0770023
-0.041835748 -0.03993228 -0.017400913 -0.096800454 -0.053927455 0.0010942691 -0.036187664 -0.055368222
0.076800674 -0.14151086 0.016559873 0.011079731 0.036203343 0.093038335 -0.16592671 -0.04095814
-0.017011052 0.009669779 -0.1460079 -0.0005947305 -0.054649543 -0.13242587 0.031014584 -0.26070988
-0.017910335 0.012292996 0.09995789 -0.18944512 -0.02050811 -0.051110573 -0.0510128 -0.011395655
0.057734814 0.027631836 -0.05584127 -0.061355826 -0.024100566 -0.06796007 0.03576677 -0.020268148
0.08588697 -0.035204597 0.1697583 -0.12549542 -0.1135808 -0.06595597 -0.0015503028 -0.009394539
-0.020159647 0.059210833 0.0012836715 -0.027009835 0.05843622 -0.005742892 0.06454613 -0.019091334
-0.2069912 0.01927481 0.023828156 0.115618445 0.045522805 0.0751887 -0.109050475 0.079803884
0.06806167 -0.082435876 0.21813495 0.023866922 -0.016535522 -0.12955223 -0.045342684 0.08027313
0.085072026 -0.09872902 -0.013476577 -0.043599583 0.0052814228 0.019349826 -0.0906806 0.06627743
0.0047794795 -0.003470394 0.033928815 -0.016430035 -0.020186746 0.017615326 0.026262602 -0.013200466
0.09423872 -0.021832049 0.07497361 0.02244017 0.009318619 -0.10509928 -0.16258062 0.10841158
0.038271096 0.01797366 -0.08532429 0.02537538 0.07987645 -0.08095394 0.021571485 -0.06113635
-0.07249972 0.03403256 0.03533747 0.13374788 -0.015311586 0.0015334727 0.070283644 -0.05025897
0.06132649 0.13930854 -0.08346189 0.03940901 -0.07871067 0.0067848423 0.009229367 -0.022931939
-0.087134205 0.15616415 -0.010022413 0.12705643 0.0069665583 -0.0149889495 0.023686815 0.03814308
0.041944936 -0.13384192 0.032411497 0.079903275 -0.14628625 0.058186483 0.05527806 -0.10348976
0.12054471 -0.026835812 0.05505209 -0.08117137 0.046153825 0.12212715 -0.04200497 0.06696748
-0.003277676 0.061479617 0.11451349 -0.057015385 -0.052333638 -0.05956503 -0.055238478 -0.06625881
0.017442107 -0.16496848 -0.017727574 -0.008908829 0.07684274 0.03355195 -0.08117473 0.030782565
-0.18291862 -0.07143561 -0.058553267 0.058314554 -0.0117305275 0.2076191 0.013564412 -0.11163792
-0.101076625 -0.045099672 0.1109821 -0.01578346 -0.17223623 -0.019427843 -0.000510604 0.020956023
-0.013220517 -0.11688152 0.1948907 0.0376709 -0.046804924 0.040622715 -0.20957266 0.086480536
-0.12634727 0.0347751 -0.062085763 0.13589941 -0.014163232 -0.02753497 0.18930677 0.027207503
-0.08532034 0.024632886 0.029935773 -0.12771742 0.13248457 -0.04230884 -0.0053981002 -0.0026756208
-0.008892119 -0.01595498 0.054931045 -0.054449897 0.015526411 -0.028154327 0.04680268 -0.06374918

network_body._body_endoder.seq_layers.0.bias f4 [64]
00000000: e171 203a 5bb1 e839 a5c5 4c3a de81 31ba
00000010: 3882 ae3b b620 1bbc 5143 473c f1cc 1e3c
00000020: 2eb4 ad3b f42e 613c 68dc 113c 4e49 78ba
00000030: 3795 a33c 06f8 0f3a 72df ab38 b97a 283c
00000040: f422 273c c2c6 ec3b 2e3d 04ba 3be8 493c
00000050: cac8 553b 5586 513c 852e ea3b 5841 253c
00000060: cd4e 853c 1628 6c3b e923 4c3b cf64 8e3c
00000070: 4226 be3b 4987 043b dd15 eb3b 3ac8 e13b
00000080: ae09 963b 1a70 793b 22b0 a73a ddfa d53b
00000090: a3eb a73c 9fa1 7f3c ade9 2a3b c97a 633c
000000a0: 34d4 5e3c a524 1fbb 6b8b 823a 45ff 353c
000000b0: bb99 ceba 5a45 133c 663c fd3b 93c7 a33b
000000c0: 773a 583c 7967 a63b 38ef 453b ea31 823c
000000d0: 2243 023c ac01 273c d8a0 053c 2c8f c03b
000000e0: 493c 8f3b af26 cb3b c7db 553b 2915 b03b
000000f0: bc92 bc3b c2aa 3f3c dd44 273c f413 2a3c
0.0006120485 0.00044382628 0.0007811434 -0.0006771366 0.005325582 -0.009468248 0.012162046 0.0096924165
0.00530102 0.013744105 0.008902647 -0.00094713725 0.019968612 0.00054919755 8.195535e-05 0.010283166
0.010201205 0.007225842 -0.0005044517 0.012323434 0.00326209 0.012788375 0.007146659 0.01008638
0.016272927 0.0036034635 0.0031149334 0.017382054 0.0058029005 0.0020222238 0.007174237 0.006890324
0.0045787906 0.0038061203 0.001279358 0.0065301494 0.020498103 0.015602498 0.0026079223 0.013884255
0.013600398 -0.0024283316 0.0009959763 0.011108224 -0.0015762368 0.008988703 0.0077281473 0.0049981563
0.013197533 0.005078253 0.00302024 0.015892942 0.007950576 0.01019327 0.008156024 0.0058764424
0.0043712 0.00619968 0.0032632218 0.0053736162 0.005754797 0.011698427 0.010209289 0.010380734

action_model._discrete_distribution.branches.0.weight f4 [2, 64]
00000000: 5e74 80bc e865 e6bc 9d00 57bc e56a 36bc
00000010: 0045 66bc 315b d2bc 57b0 b13c e1f6 ed3c
00000020: 3615 e9bc 5e62 0c3d 41a7 4f3c c1e5 15bb
00000030: 8d0c 8e3c 8e84 5a3a 5760 98bc 0f76 acbc
00000040: e7c9 f93c 3fb0 9b3a ba55 cfbc 08dd 7c3b
00000050: 683a d03b bf05 923b 8045 87bc 63d3 d03c
00000060: 6304 00bc f8bd aebb fe61 a83b 3513 0abb
00000070: 98db 9fbb 73f9 503c 4742 75bc c3fc e6bc
00000080: d95a b8bc 2534 a63b 6094 02bd ffc1 81bb
00000090: 50c6 243d 3d09 4a3d 9fa3 8cbc ba01 bb3c
000000a0: e09e 273c b96b afbb 2982 55bb b79b 2ebd
000000b0: 9557 cebc 01bd 82bb f497 25bd 330f c0bc
000000c0: 2635 293d c737 8b39 e42d 60bc 7690 45bd
000000d0: 8081 fbbc 21a8 783c c81c cd3c 144e acbc
000000e0: b918 c4bb 5622 cd3c 88ab 673c b51e b4bb
000000f0: c06f dfbb 027d f63c c34a 3c3d f81a 60bb
00000100: f864 3a3c 5da5 243c d4fb 53bb 0571 2abb
00000110: b9f5 413c 7142 943c 06e2 f7bc 486b 5dbd
00000120: 520c a23c 1fe3 44bb afc2 003d d95a 763c
00000130: 4ffe 6dbc 6874 403a cd7b 1c3d 1264 6c3d
00000140: d0e9 b0bc 83d4 813c 7e93 9f3c c427 13bd
00000150: 8e12 4ab9 0b12 b0bc 01ce 4d3c 1344 f5bc
00000160: 6c04 60bc 1d04 0cbc 3281 1c3b ae85 89bb
00000170: e757 7e3c aebf d23b 2c55 9e3c 840e 523c
00000180: a2c0 8d3c 3e35 a13c 7328 953c 1818 adbc
00000190: 45fb cbbc 4894 9bbc 797d e33b fa1a 2abd
000001a0: 0bb8 3d3c 7ed4 083b d1ae b03c 757b 253d
000001b0: 3e11 453c 93cb 8b3c 4b89 023d 401c bc3c
000001c0: 1bc0 46bd d669 0b3d e4fc ab3c 4ec0 ae3c
000001d0: 7417 383c 3cee 05bd 7839 19bc f590 153d
000001e0: 26bc 4dbc c191 8d3b eb98 953a 91ca 293c
000001f0: eafa 233c 44e1 dbbc 0d25 84bc 28c5 ac3c
-0.015680488 -0.028124765 -0.013122705 -0.011133884 -0.014054537 -0.02567825 0.02169053 0.029048385
-0.028452497 0.034273498 0.012674154 -0.002287254 0.017339969 0.0008335792 -0.018600626 -0.021052388
0.030491782 0.0011878087 -0.025309432 0.0038583893 0.006354619 0.0044562514 -0.016512632 0.025491422
-0.007813546 -0.0053327046 0.0051386347 -0.0021068577 -0.0048784725 0.012754786 -0.014969415 -0.028196698
-0.022504257 0.005072134 -0.031879783 -0.0039598937 0.040228188 0.049325217 -0.017167864 0.022827972
0.01023075 -0.0053534177 -0.0032578802 -0.04262897 -0.025188247 -0.003989816 -0.040428117 -0.023444748
0.041310452 0.00026553703 -0.013682816 -0.04823347 -0.030701399 0.015176804 0.025038138 -0.021033324
-0.0059843925 0.025040787 0.014140017 -0.0054968246 -0.0068187416 0.030088905 0.045969736 -0.0034195762
0.011376612 0.010049191 -0.0032346146 -0.0026007306 0.01183837 0.018098088 -0.030259144 -0.05405739
0.019781265 -0.0030042601 0.031435665 0.015036308 -0.014525964 0.00073415646 0.038204003 0.057712622
-0.021595865 0.015848404 0.01947951 -0.035926595 -0.00019271133 -0.021492979 0.012561322 -0.029939687
-0.013672929 -0.008545903 0.0023880717 -0.004196844 0.015523887 0.0064315414 0.019327722 0.012820844
0.017303769 0.019678708 0.018207764 -0.021129653 -0.024900088 -0.018991604 0.0069424477 -0.041529633
0.011579524 0.0020878608 0.021567734 0.04040094 0.012028037 0.017064845 0.031869214 0.02296269
-0.04852305 0.03403648 0.020994611 0.021331932 0.01123606 -0.0326979 -0.0093520805 0.036515195
-0.012557065 0.0043203537 0.0011413371 0.010363237 0.010008553 -0.026840813 -0.016130948 0.021090105

action_model._discrete_distribution.branches.0.bias f4 [2]
00000000: bf13 8b3b c113 8bbb
0.0042442973 -0.004244298

action_model._discrete_distribution.branches.1.weight f4 [2, 64]
00000000: 353c dc3b 849b 223c 66aa b4bc 28ba 813c
00000010: 22ca 12bd 6a21 263c dfc7 e1bb bd5a ab3c
00000020: 0c13 083b 6666 663c 9236 08bd f75a ca3c
00000030: b160 653d daeb e2bc 5c61 8f3b b1aa 10bd
00000040: 0e57 28bc e696 4dbd 265c 03bc 38a4 74bd
00000050: f6a3 d8b9 5930 9bbc 4972 18bd df7b 913a
00000060: 2ff8 e53c 4a4c dd3c a877 aabc 3556 0f3d
00000070: 5130 043d 790d 11bc 6710 323d 839f ed3c
00000080: 2503 8e3b 167e 8fbb e69d c3bc 2fce 26bc
00000090: 7d98 f43c 74d5 76bb 7d1f a73c 7c9e 43bd
000000a0: 56e6 7fbc d767 e03c f49c b13c bc38 053b
000000b0: aff8 213b 35af f1bc b7bb 613c 7f3d 04bb
000000c0: d24a 2dba 098d cd3c 6971 6abc c2da 923c
000000d0: 6ce3 c1ba 3801 6ebc 65e2 42bb f894 b5bc
000000e0: b333 ef3c 9aeb 063d e8d7 473c 82cb bd3c
000000f0: 73ee 003d 5ad5 b5bc 9644 eabb d9a1 38bd
00000100: ca18 7e3c 8d43 183c b357 353c 60a8 96bb
00000110: e79e 593c ac34 f23a 2980 9a3c 844c edbb
00000120: b065 993c 5bab 2bbc 2bed 883d 3a40 7739
00000130: f57a b5bc 2279 4dba ee97 edbb ad03 a73c
00000140: 7a49 e53b af24 f53c fb06 8f3c 9109 1d3d
00000150: e622 8bbc 2d74 8b3d 409e 083d 83d5 633c
00000160: bdf1 16bd ed81 aebc 7539 903c 5655 37bd
00000170: 8cc6 25bd 4688 973c 5363 14bd 0d45 fabc
00000180: 7aec 903c 6056 99ba 3bbd 2e3c 4d4a e23c
00000190: c643 43bd 9111 073d b3af aebb 2cfa 293d
000001a0: f396 e43c a886 e0bb f2db b33b 7615 5f3c
000001b0: 44aa c3bc 4e16 263d 8607 a4bc 33e7 16bc
000001c0: 1501 1dbc 218c 3bbb 1cc7 45b9 46e1 5c3b
000001d0: c61b 3cbd 5a26 c83b dcad ef3b 6bc5 d5bc
000001e0: d171 f9bc 9738 0ebd 55b3 96bc 0906 eabc
000001f0: 0625 43bd d96c 9a3c ed5e faba c101 0a3d
0.0067210444 0.009924773 -0.022053909 0.015835837 -0.0358373 0.0101398025 -0.0068902816 0.02091729
0.0020763306 0.0140625 -0.033255167 0.024701579 0.056000415 -0.027700353 0.00437562 -0.035319034
-0.010274662 -0.050192736 -0.008017575 -0.059726924 -0.0004132089 -0.018943952 -0.037218366 0.0011099539
0.028072445 0.027013917 -0.02080901 0.034994323 0.03227264 -0.00885331 0.043472674 0.029006725
0.004333871 -0.0043790443 -0.023879003 -0.010180994 0.029857868 -0.003766385 0.020400757 -0.047758564
-0.015618881 0.027393265 0.021681286 0.0020328006 0.0024714877 -0.02950249 0.013777665 -0.0020178256
-0.00066105754 0.025091665 -0.014309266 0.017926577 -0.0014792508 -0.014526658 -0.0029736992 -0.02216576
0.029199457 0.03293953 0.012197472 0.02316833 0.031477403 -0.02219646 -0.0071492894 -0.045076225
0.01550884 0.009293449 0.011068272 -0.0045977086 0.013282514 0.0018478832 0.01885994 -0.0072417874
0.018725246 -0.010477866 0.06685861 0.00023579682 -0.022153357 -0.00078381796 -0.0072507774 0.020387495
0.0069972845 0.029924719 0.017459383 0.0383392 -0.016984414 0.06809268 0.033354044 0.013905886
-0.036851633 -0.021302188 0.017605523 -0.044759117 -0.040472552 0.018497597 -0.036227535 -0.030550504
0.017690886 -0.0011698715 0.010665233 0.02762332 -0.047672056 0.032975737 -0.0053310036 0.041498348
0.02790401 -0.00685199 0.005488866 0.0136159565 -0.0238849 0.040548615 -0.020023119 -0.009210396
-0.0095827775 -0.002861746 -0.00018861558 0.003370361 -0.045924924 0.0061080875 0.007314427 -0.026095113
-0.03044978 -0.034721937 -0.018396059 -0.02856733 -0.04764273 0.01885073 -0.0019101776 0.03369308

action_model._discrete_distribution.branches.1.bias f4 [2]
00000000: c392 9fb9 ff92 9f39
-0.0003043619 0.00030436364

exp_avg f4 [64, 174]
00000000: d605 abb8 0000 0000 f130 16b7 374d 0e37
00000010: 2457 bbb7 bec1 c9b8 0000 0000 750d 28b7
00000020: 59bb 7335 926f c3b6 993f 09b9 0000 0000
00000030: 841e 9bb6 d991 5636 c67a a636 d605 abb8
00000040: 0000 0000 f130 16b7 374d 0e37 2457 bbb7
00000050: 81ab c5b8 0000 0000 d2fe 78b6 a9c4 8537
00000060: df27 2b36 dae0 b9b8 0000 0000 6746 bfb6
00000070: 9f97 4e37 75ab fcb7 fd82 59b8 0000 0000
00000080: c033 a9b5 0070 f2b7 c7b7 1bb8 3a43 a7b8
00000090: 0000 0000 08c4 afb6 5da5 4736 98ed 3637
000000a0: f117 fab7 0000 0000 fc34 d0b6 09f2 40b8
000000b0: 0acb 55b8 ccf3 7cb8 0000 0000 e9c4 05b4
000000c0: 1416 b5b7 4190 4ab8 ecc9 3fb8 0000 0000
000000d0: beee 60b5 f4b6 14b8 6d93 78b8 18b0 44b8
000000e0: 0000 0000 f055 bb34 2ccb 14b8 046d 90b8
000000f0: bec1 c9b8 0000 0000 750d 28b7 59bb 7335
00000100: 926f c3b6 3dd5 d2b8 0000 0000 4c40 1036
00000110: d28b e8b6 411b bfb7 69a6 f1b8 0000 0000
00000120: 5432 0837 2909 f135 e5ae 20b8 c693 6fb8
00000130: 0000 0000 190b 3236 d844 55b8 db46 7fb8
00000140: da8b c4b8 0000 0000 7f6c e0b6 3195 a4b6
00000150: 6f50 19b8 ed2e 90b8 0000 0000 a245 a2b5
00000160: e847 14b8 2f36 1bb8 389c cdb8 0000 0000
00000170: 2cf8 15b6 cfff a8b6 a702 bbb7 7733 ddb8
00000180: 0000 0000 9701 1e35 df83 e4b4 0166 b8b7
00000190: e942 deb8 0000 0000 fa53 23b5 6966 ab35
000001a0: fe9f b8b7 993f 09b9 0000 0000 841e 9bb6
000001b0: d991 5636 c67a a636 af65 f3b8 0000 0000
000001c0: cd4e 05b3 ba18 88b7 b32a 1eb8 1645 0cb9
000001d0: 0000 0000 a619 fb35 a0c5 deb4 2e36 06b8
000001e0: c479 a4b8 0000 0000 da37 94b6 8f7e 4fb8
000001f0: 3d6d 94b8 c8a1 eeb8 0000 0000 b568 8cb7
00000200: c025 f0b5 a9ad b2b8 b7b9 d5b8 0000 0000
00000210: 2bfd 3937 ea04 2eb8 91fe 6ab8 8ca0 1ab9
00000220: 0000 0000 8280 9935 74f4 6a37 b4da 5836
00000230: b970 10b9 0000 0000 aaab ae36 5763 7434
00000240: 10fb c2b7 e44e 0db9 0000 0000 8aed 8f35
00000250: f862 b835 613c bcb7 7812 feb7 5102 2cb8
00000260: 604d 2638 9af8 15b7 566d 5fb7 74ab 4c37
00000270: b217 a6b7 652a 5f38 c766 85b6 f6db 5cb8
00000280: a436 1038 6657 42b8 fe47 67b7 ea01 9438
00000290: 4871 05b8 4d6c 8e38 aac4 35b6 45be 8ab8
000002a0: 4d79 3938 be6b 8db8 9c20 a2b7 310e cf38
000002b0: 42e0 7837 6d7a 1c37 36b6 78b9 0000 0000
000002c0: 6b5f 00b8 9c07 9437 a1c4 a5b8 7b22 88b9
000002d0: 0000 0000 ba0e 16b8 7b64 5a36 eff5 1eb8
000002e0: ea8e a5b9 0000 0000 bca9 62b7 23d8 1336
000002f0: 87ab 84b7 36b6 78b9 0000 0000 6b5f 00b8
00000300: 9c07 9437 a1c4 a5b8 9dc1 94b9 0000 0000
00000310: ab3d e5b6 1d80 2938 0cd4 0cb6 30f7 84b9
00000320: 0000 0000 e549 deb7 b853 fb37 a690 57b8
00000330: 88fa 76b9 0000 0000 9c20 07b7 f211 dcb6
00000340: f638 3eb8 0369 82b9 0000 0000 456b 25b7
00000350: cbb9 0d37 b8ca e537 3ac1 39b9 0000 0000
00000360: f9a8 03b8 ae86 2eb8 4d01 9cb8 1524 65b9
00000370: 0000 0000 61ae 7036 0daf 13b8 44da e4b8
00000380: 4d89 47b9 0000 0000 e77d ad35 9b3d 80b8
00000390: 17b4 06b9 a8eb 4bb9 0000 0000 d394 9d36
000003a0: 7f38 7db8 066a 17b9 7b22 88b9 0000 0000
000003b0: ba0e 16b8 7b64 5a36 eff5 1eb8 8077 9db9
000003c0: 0000 0000 6188 1737 3196 68b5 ec71 27b8
000003d0: 239c 9db9 0000 0000 768d 0237 4661 3035
000003e0: 1fec 8fb8 b832 85b9 0000 0000 25f8 eb36
000003f0: 7c65 3db8 32c4 ccb8 4186 84b9 0000 0000
-8.1550024e-05 0.0 -8.952092e-06 8.4818375e-06 -2.2332715e-05 -9.620514e-05 0.0 -1.00167135e-05
9.079718e-07 -5.8244414e-06 -0.0001308903 0.0 -4.6229125e-06 3.197338e-06 4.961478e-06 -8.1550024e-05
0.0 -8.952092e-06 8.4818375e-06 -2.2332715e-05 -9.425637e-05 0.0 -3.7103205e-06 1.5946413e-05
2.5504194e-06 -8.863369e-05 0.0 -5.7004395e-06 1.2313859e-05 -3.0120582e-05 -5.1858824e-05 0.0
-1.2606542e-06 -2.8900802e-05 -3.7126036e-05 -7.9757025e-05 0.0 -5.2382275e-06 2.9749565e-06 1.09033645e-05
-2.9813471e-05 0.0 -6.2050512e-06 -4.600178e-05 -5.0972252e-05 -6.0308535e-05 0.0 -1.2458226e-07
-2.1587162e-05 -4.82949e-05 -4.5726003e-05 0.0 -8.379392e-07 -3.5456338e-05 -5.926511e-05 -4.689404e-05
0.0 3.4893992e-07 -3.547517e-05 -6.886761e-05 -9.620514e-05 0.0 -1.00167135e-05 9.079718e-07
-5.8244414e-06 -0.00010053299 0.0 2.1495098e-06 -6.930416e-06 -2.2781665e-05 -0.00011522772 0.0
8.11795e-06 1.7958565e-06 -3.8309856e-05 -5.7119665e-05 0.0 2.6530527e-06 -5.0847273e-05 -6.0862727e-05
-9.372058e-05 0.0 -6.688351e-06 -4.904949e-06 -3.6552952e-05 -6.875196e-05 0.0 -1.2090206e-06
-3.5352918e-05 -3.7005342e-05 -9.80426e-05 0.0 -2.2347185e-06 -5.03657e-06 -2.2293372e-05 -0.00010547687
0.0 5.88619e-07 -4.2564258e-07 -2.1982009e-05 -0.00010598248 0.0 -6.0844434e-07 1.2770298e-06
-2.2009011e-05 -0.0001308903 0.0 -4.6229125e-06 3.197338e-06 4.961478e-06 -0.00011606083 0.0
-3.1038144e-08 -1.6223978e-05 -3.7709902e-05 -0.00013377177 0.0 1.8708422e-06 -4.1494513e-07 -3.199855e-05
-7.84281e-05 0.0 -4.4172457e-06 -4.9470513e-05 -7.077537e-05 -0.000113788585 0.0 -1.6738059e-05
-1.789238e-06 -8.520048e-05 -0.000101912236 0.0 1.10858045e-05 -4.148941e-05 -5.602703e-05 -0.00014746393
0.0 1.1436789e-06 1.4004403e-05 3.231381e-06 -0.00013774903 0.0 5.2055884e-06 2.276041e-07
-2.3243512e-05 -0.00013476197 0.0 1.0723463e-06 1.3737872e-06 -2.2439463e-05 -3.028776e-05 -4.1010153e-05
3.9649545e-05 -8.938974e-06 -1.33172925e-05 1.2199267e-05 -1.9799776e-05 5.3206826e-05 -3.9756737e-06 -5.2656942e-05
3.4383163e-05 -4.63346e-05 -1.3785435e-05 7.0575465e-05 -3.1815172e-05 6.79126e-05 -2.7085575e-06 -6.615793e-05
4.4220407e-05 -6.7434725e-05 -1.932709e-05 9.8731725e-05 1.4834166e-05 9.326829e-06 -0.00023719002 0.0
-3.0606443e-05 1.7646518e-05 -7.904438e-05 -0.0002596563 0.0 -3.5776502e-05 3.2543019e-06 -3.789918e-05
-0.00031577732 0.0 -1.3510169e-05 2.2030515e-06 -1.58155e-05 -0.00023719002 0.0 -3.0606443e-05
1.7646518e-05 -7.904438e-05 -0.00028373013 0.0 -6.831911e-06 4.0412055e-05 -2.0985053e-06 -0.0002536117
0.0 -2.6498872e-05 2.9960516e-05 -5.139471e-05 -0.00023553718 0.0 -8.0542195e-06 -6.5586e-06
-4.535258e-05 -0.00024873772 0.0 -9.859742e-06 8.447513e-06 2.7393326e-05 -0.00017714957 0.0
-3.1390202e-05 -4.1610263e-05 -7.438902e-05 -0.00021852583 0.0 3.5864289e-06 -3.521056e-05 -0.00010912542
-0.00019029267 0.0 1.2926147e-06 -6.1149905e-05 -0.00012846325 -0.00019447377 0.0 4.69629e-06
-6.0372517e-05 -0.00014439979 -0.0002596563 0.0 -3.5776502e-05 3.2543019e-06 -3.789918e-05 -0.00030034408
0.0 9.032055e-06 -8.664529e-07 -3.9922e-05 -0.00030061704 0.0 7.78154e-06 6.570666e-07
-6.862752e-05 -0.00025405525 0.0 7.0324336e-06 -4.5155626e-05 -9.764022e-05 -0.0002527703 0.0

exp_avg_sq f4 [64, 174]
00000000: 0bf7 7333 0000 0000 3481 6730 cff9 6331
00000010: fdeb f631 e5cc 8a33 0000 0000 838c 7630
00000020: 843c 4d31 06dd 0532 956a 9c33 0000 0000
00000030: 45ae b530 ccbc 9d31 876f 2832 0bf7 7333
00000040: 0000 0000 3481 6730 cff9 6331 fdeb f631
00000050: 6521 7433 0000 0000 4592 2830 9844 8d31
00000060: 3f06 d731 2b3d 7833 0000 0000 d2a9 0630
00000070: 2292 1831 b571 b431 4e0e 7533 0000 0000
00000080: 20dd 3f30 76fe 8b31 7c59 1132 bd29 8033
00000090: 0000 0000 570d 4830 e4c2 0430 1cd4 fc31
000000a0: eef1 7833 0000 0000 593f c72f 4662 7f31
000000b0: 2405 d831 667d 8333 0000 0000 ac23 9f2f
000000c0: 3d4b 3f30 c329 9731 d421 7f33 0000 0000
000000d0: 3a9b 5730 aede 5b30 336c e531 fa19 8033
000000e0: 0000 0000 6822 6130 ca85 5530 2b7c 0b32
000000f0: e5cc 8a33 0000 0000 838c 7630 843c 4d31
00000100: 06dd 0532 7a81 8b33 0000 0000 ba6b 5530
00000110: 9c32 6e31 50a1 ca31 883e 8d33 0000 0000
00000120: 6387 f62f 1e41 2231 83f1 d331 0fda 8a33
00000130: 0000 0000 c932 7230 9b05 9731 50df 1e32
00000140: f381 9333 0000 0000 62d5 6930 1128 de2f
00000150: 4909 0b32 1415 8f33 0000 0000 de85 cb2f
00000160: 1952 8731 6660 e831 3365 9633 0000 0000
00000170: c06a 762f fc2d eb2f fa31 9b31 e4c5 9433
00000180: 0000 0000 44e4 8a30 2fdb 1430 efcf f331
00000190: b06b 9433 0000 0000 a6f7 8c30 0309 0830
000001a0: dc6b 1232 956a 9c33 0000 0000 45ae b530
000001b0: ccbc 9d31 876f 2832 4637 9833 0000 0000
000001c0: 46ab 7c30 acb8 a131 5cb5 0132 b009 9d33
000001d0: 0000 0000 f56a e42f 549a 5c31 4fa6 ec31
000001e0: b0a0 9d33 0000 0000 c925 8c30 b781 9031
000001f0: 265a 2632 85cb a133 0000 0000 9f6f 8930
00000200: ba1d 5230 8df7 2632 5ae8 a133 0000 0000
00000210: c82d f12f c5b3 8131 cee0 f331 0abf a333
00000220: 0000 0000 8fc0 c12f 4172 9f30 0764 ca31
00000230: e3ed a233 0000 0000 971c 8e30 5992 a030
00000240: b31d 1032 ebc4 a133 0000 0000 7cbd a430
00000250: c7fa 9830 ce67 2c32 e783 0c33 6f54 8432
00000260: 0646 1133 d8e9 2033 3351 c330 db16 4133
00000270: 0a8c ff32 abb4 e332 b68b 1f33 86a7 9732
00000280: 4cb4 2133 11f9 2f33 c26a df30 a8ae 5933
00000290: 5908 1233 a2b4 0633 0c08 3033 37f9 a732
000002a0: c58b 3133 9fad 4233 314c fd30 684f 7333
000002b0: 376d f732 9a1c fc32 8516 f534 0000 0000
000002c0: 429e 1132 06a7 4232 b099 6033 6e62 0435
000002d0: 0000 0000 6c35 2232 acea 6132 4b21 7e33
000002e0: af63 0d35 0000 0000 8702 2732 d1c0 7b32
000002f0: 4667 8333 8516 f534 0000 0000 429e 1132
00000300: 06a7 4232 b099 6033 6627 f934 0000 0000
00000310: 38a4 aa31 3381 3e32 dc43 0333 71f1 f334
00000320: 0000 0000 5a2f 6c31 e85f 8632 8499 2633
00000330: 9561 f534 0000 0000 6960 0a32 7ecf 5c32
00000340: 09bd 5133 9822 f434 0000 0000 82c3 b531
00000350: b4c5 6d32 4dcd 8033 b256 f534 0000 0000
00000360: 9431 8231 e60e 8432 1ec8 2233 1600 f834
00000370: 0000 0000 cd3a 5131 6c9b 8132 64ea 2633
00000380: ca5a f434 0000 0000 500f d231 c82d 1c32
00000390: 39d9 5333 7fa9 f534 0000 0000 6ba4 d331
000003a0: d312 1b32 6e81 6f33 6e62 0435 0000 0000
000003b0: 6c35 2232 acea 6132 4b21 7e33 41dd 0535
000003c0: 0000 0000 dcbf d731 c093 7432 047e 1733
000003d0: ee42 0435 0000 0000 d4c8 6d31 1616 8832
000003e0: d17d 3a33 7ac4 0435 0000 0000 9f97 1932
000003f0: 94d0 8932 d491 6633 1f94 0535 0000 0000
5.680253e-08 0.0 8.422092e-10 3.3174847e-09 7.186371e-09 6.463396e-08 0.0 8.969396e-10
2.9865825e-09 7.791874e-09 7.283703e-08 0.0 1.3219014e-09 4.590765e-09 9.804245e-09 5.680253e-08
0.0 8.422092e-10 3.3174847e-09 7.186371e-09 5.684105e-08 0.0 6.1325905e-10 4.1114383e-09
6.2580336e-09 5.779763e-08 0.0 4.8990245e-10 2.2201978e-09 5.2516165e-09 5.7056518e-08 0.0
6.979963e-10 4.0743613e-09 8.460457e-09 5.9680566e-08 0.0 7.2778533e-10 4.8298276e-10 7.3582793e-09
5.7962033e-08 0.0 3.62429e-10 3.7163246e-09 6.287012e-09 6.122973e-08 0.0 2.8947278e-10
6.9592315e-10 4.399426e-09 5.940258e-08 0.0 7.8437135e-10 7.998818e-10 6.677078e-09 5.9651896e-08
0.0 8.190342e-10 7.7679074e-10 8.119097e-09 6.463396e-08 0.0 8.969396e-10 2.9865825e-09
7.791874e-09 6.4962435e-08 0.0 7.764204e-10 3.4662326e-09 5.897313e-09 6.5771985e-08 0.0
4.4843337e-10 2.3611118e-09 6.168365e-09 6.4657904e-08 0.0 8.8111257e-10 4.3953157e-09 9.247586e-09
6.8688585e-08 0.0 8.506814e-10 4.0410034e-10 8.092976e-09 6.6627905e-08 0.0 3.7020603e-10
3.9383505e-09 6.763048e-09 7.003327e-08 0.0 2.2411495e-10 4.2778925e-10 4.5167754e-09 6.927783e-08
0.0 1.0105699e-09 5.4153565e-10 7.09587e-09 6.911375e-08 0.0 1.0256727e-09 4.948932e-10
8.522843e-09 7.283703e-08 0.0 1.3219014e-09 4.590765e-09 9.804245e-09 7.088106e-08 0.0
9.192046e-10 4.7067115e-09 7.550025e-09 7.3126444e-08 0.0 4.1548956e-10 3.2101939e-09 6.887411e-09
7.340111e-08 0.0 1.019708e-09 4.2056985e-09 9.682969e-09 7.534167e-08 0.0 9.999787e-10
7.64398e-10 9.718758e-09 7.539411e-08 0.0 4.3870174e-10 3.7748316e-09 7.097788e-09 7.625029e-08
0.0 3.5243317e-10 1.1601246e-09 5.8903455e-09 7.586984e-08 0.0 1.0339986e-09 1.1683127e-09
8.388656e-09 7.532966e-08 0.0 1.1986425e-09 1.1130731e-09 1.003532e-08 3.2716255e-08 1.5405218e-08
3.382413e-08 3.7465583e-08 1.4211196e-09 4.49571e-08 2.974959e-08 2.6508436e-08 3.714714e-08 1.7654894e-08
3.7649713e-08 4.0971887e-08 1.6255728e-09 5.06831e-08 3.4000866e-08 3.136359e-08 4.0985512e-08 1.9554689e-08
4.1338144e-08 4.5327052e-08 1.8429828e-09 5.6650066e-08 2.880425e-08 2.9349668e-08 4.565119e-07 0.0
8.4760945e-09 1.1330263e-08 5.2293842e-08 4.9317066e-07 0.0 9.441788e-09 1.3150082e-08 5.9169263e-08
5.267165e-07 0.0 9.721254e-09 1.4653964e-08 6.118948e-08 4.565119e-07 0.0 8.4760945e-09
1.1330263e-08 5.2293842e-08 4.640853e-07 0.0 4.9663207e-09 1.1088832e-08 3.0562532e-08 4.543795e-07
0.0 3.4369436e-09 1.5643266e-08 3.878951e-08 4.5705806e-07 0.0 8.054578e-09 1.2852864e-08
4.883353e-08 4.5473712e-07 0.0 5.29002e-09 1.3840168e-08 5.9978085e-08 4.5697885e-07 0.0
3.7891343e-09 1.5373598e-08 3.790057e-08 4.6193662e-07 0.0 3.0446927e-09 1.5088254e-08 3.8863064e-08
4.55146e-07 0.0 6.1135452e-09 9.0908046e-09 4.932483e-08 4.575813e-07 0.0 6.1596004e-09
9.026468e-09 5.576424e-08 4.9317066e-07 0.0 9.441788e-09 1.3150082e-08 5.9169263e-08 4.986833e-07
0.0 6.2791354e-09 1.4236264e-08 3.5272038e-08 4.927123e-07 0.0 3.4602197e-09 1.5842527e-08
4.342093e-08 4.9459743e-07 0.0 8.940247e-09 1.604375e-08 5.3683678e-08 4.9761906e-07 0.0

exp_avg f4 [64]
00000000: 45be 0ab9 877c abb9 c431 58b6 1bf2 c136
00000010: 4be5 74b8 8a4d 5637 344e 0b3a bdf2 183a
00000020: 4d6b 13b9 afe5 0339 d043 7638 468c 23b9
00000030: e08b 8fb8 89d4 9c38 f01a 6cb9 33f1 feb9
00000040: 9c15 b239 359e d538 cac3 8eb9 1b43 083a
00000050: d6e6 f137 c506 5b39 86da 95b8 3d28 bf39
00000060: d7f8 2bb9 d68f 11b9 b971 7638 e8fb b8b9
00000070: 1379 82b9 9d26 5e38 554b fab9 1868 eeb9
00000080: eb34 7eb9 81ab 1db8 f23d 5ab9 bd08 9439
00000090: ab1a 2d38 9694 143a 5710 d4b8 e749 233a
000000a0: a2a4 65b8 d2fa 02b9 b225 56b9 d6e2 eab9
000000b0: 0514 b7b8 8e03 a637 ab2b f8b9 0370 87b9
000000c0: 6f38 123a fa20 38b9 bde1 20b9 5e53 c0b9
000000d0: 29fa bcb9 270c 003a c4f7 ab39 7e30 d9b9
000000e0: b1a1 5fb9 d875 16b8 45e8 65b8 5e3c 2eb9
000000f0: f384 bcb9 cc51 1a3a 1195 e239 34e9 4438
-0.00013231586 -0.00032708442 -3.2215476e-06 5.780033e-06 -5.838768e-05 1.2773447e-05 0.00053140824 0.00058345107
-0.00014058985 0.00012578697 5.8714126e-05 -0.00015597147 -6.844825e-05 7.4782474e-05 -0.00022516749 -0.00048626363
0.00033966906 0.000101861 -0.00027230225 0.0005197988 2.883693e-05 0.0002088799 -7.145577e-05 0.0003646034
-0.00016400531 -0.0001388186 5.8756883e-05 -0.000352829 -0.0002488574 5.2964886e-05 -0.00047739843 -0.00045472453
-0.00024243041 -3.7591442e-05 -0.00020813177 0.0002823527 4.127125e-05 0.0005667893 -0.00010111991 0.0006228969
-5.475118e-05 -0.00012491204 -0.00020422673 -0.00044800964 -8.729849e-05 1.9790397e-05 -0.0004733478 -0.00025832662
0.0005577867 -0.00017559892 -0.00015342883 -0.00036683207 -0.00036044538 0.00048846233 0.0003280026 -0.00041425595
-0.00021327172 -3.5872537e-05 -5.4814172e-05 -0.00016616422 -0.0003595721 0.00058868225 0.00043217142 4.694723e-05

exp_avg_sq f4 [64]
00000000: 36f9 a733 2ace 1335 48e3 8b34 2b0e a331
00000010: 2108 c534 6b31 de31 e007 4235 48b2 f335
00000020: 6664 fb33 d8b0 8034 660c a835 07ca 5134
00000030: 63e3 ad35 1b58 fb33 cf33 ea34 8225 d835
00000040: 375d a134 11d5 2e35 f7ca 4b35 1f23 0936
00000050: 683f e832 8fc2 a335 b8bb 2335 b94f f434
00000060: 8cb3 cc34 458f cb34 415c 3c34 a5b8 cd35
00000070: 2860 8035 68ea eb33 f241 fd35 7921 9335
00000080: b994 cf33 cfc7 cb31 9cd8 1c35 2936 0b35
00000090: c42b f535 eec4 8f35 874d 8934 548d 2f36
000000a0: 5c84 0b34 0868 2934 7608 9334 d43c 5135
000000b0: 049d ed33 3b4c 7935 5944 8835 b7dc 7c34
000000c0: d806 9135 7d8f 4b34 35c4 4634 5459 1b35
000000d0: c502 1635 9c21 8135 53da 9834 8991 4835
000000e0: 9f5e 8035 33c1 2135 821c 7d34 44ab b534
000000f0: ef34 9735 fd9b 8b35 e855 0935 314b 6b35
7.821875e-08 5.5061776e-07 2.6056136e-07 4.745535e-09 3.6700024e-07 6.4666685e-09 7.228209e-07 1.8156798e-06
1.1706361e-07 2.397053e-07 1.2520584e-06 1.9538139e-07 1.2955683e-06 1.17041246e-07 4.3623592e-07 1.610417e-06
3.005641e-07 6.5130104e-07 7.5918746e-07 2.0435034e-06 2.7037188e-08 1.220107e-06 6.09954e-07 4.5506548e-07
3.81286e-07 3.791594e-07 1.7542426e-07 1.5327429e-06 9.564728e-07 1.09856785e-07 1.8869162e-06 1.0962095e-06
9.666241e-08 5.930793e-09 5.8429737e-07 5.186035e-07 1.826666e-06 1.0711644e-06 2.5574647e-07 2.6159296e-06
1.2993536e-07 1.5777198e-07 2.738704e-07 7.7947084e-07 1.10647335e-07 9.287066e-07 1.0152681e-06 2.3549624e-07
1.0805334e-06 1.8958049e-07 1.8511567e-07 5.787199e-07 5.5883385e-07 9.621031e-07 2.8471058e-07 7.471759e-07
9.564282e-07 6.0258316e-07 2.3572832e-07 3.383849e-07 1.1265782e-06 1.0401706e-06 5.1161487e-07 8.765374e-07

exp_avg f4 [2, 64]
00000000: a638 69ba 91b3 903b e0b1 7e3b 3408 22bb
00000010: c799 b938 ca69 31bb 4897 803b a236 993b
00000020: 0547 f6ba 9ebe 7a3a d80f 953a d88a bd3a
00000030: 177b 5b3b 5aa1 983a 99c6 9dba ac61 c03a
00000040: ce32 ba39 8e78 0dba ffa9 233b 203e f23a
00000050: 5ff6 aa3a 969b d839 bae5 283a 8f1c 723a
00000060: 36c0 d439 0543 3d3b ba2c 0cba b701 9d3b
00000070: 4405 073b 59c9 383a 0e89 423b ae13 0f3b
00000080: dc9c 823a a0ba 0cbb 7fbf 8839 b100 8c3b
00000090: 7426 7c3b 3e27 043b 629c 9db7 5507 a63a
000000a0: ce59 a1ba 3a2a 943a 2e70 dd3a 7699 4739
000000b0: 3510 15bb 0d58 dd3a 6622 993a 6fcb c5b9
000000c0: 0395 ad3a 94dc 09ba 7518 ddb8 79de 8d39
000000d0: 9e1c 983a 0dd1 953b d791 8e3b 1aa8 393b
000000e0: e623 a73b 919e c13a 3776 833b 58ff d43a
000000f0: efb7 363b a85a e03a a152 e33a 5ff7 aeba
00000100: a638 693a 91b3 90bb deb1 7ebb 3408 223b
00000110: cd99 b9b8 c869 313b 4997 80bb a236 99bb
00000120: 0447 f63a 9ebe 7aba d90f 95ba d98a bdba
00000130: 187b 5bbb 58a1 98ba 98c6 9d3a ac61 c0ba
00000140: d532 bab9 8f78 0d3a 00aa 23bb 233e f2ba
00000150: 5ff6 aaba 969b d8b9 bde5 28ba 921c 72ba
00000160: 33c0 d4b9 0743 3dbb bb2c 0c3a b601 9dbb
00000170: 4005 07bb 5bc9 38ba 0d89 42bb ac13 0fbb
00000180: d99c 82ba 9fba 0c3b 80bf 88b9 b000 8cbb
00000190: 7626 7cbb 3e27 04bb be9c 9d37 5407 a6ba
000001a0: cf59 a13a 3a2a 94ba 2a70 ddba 7599 47b9
000001b0: 3710 153b 1058 ddba 6822 99ba 6fcb c539
000001c0: 0395 adba 94dc 093a 8a18 dd38 7dde 8db9
000001d0: 9c1c 98ba 0dd1 95bb d791 8ebb 1aa8 39bb
000001e0: e523 a7bb 939e c1ba 3776 83bb 55ff d4ba
000001f0: ebb7 36bb a75a e0ba a452 e3ba 63f7 ae3a
-0.0008896686 0.0044159372 0.0038863346 -0.0024724128 8.850131e-05 -0.0027071112 0.003924284 0.004675702
-0.0018789476 0.00095651473 0.001137252 0.0014460934 0.0033490115 0.0011644766 -0.0012037336 0.0014677546
0.00035514537 -0.0005396687 0.0024973152 0.001848165 0.0013043395 0.0004131465 0.00064429233 0.0009235823
0.00040579 0.0028879058 -0.0005347241 0.004791464 0.0020602504 0.0007049046 0.0029683742 0.0021831798
0.0009964961 -0.0021473542 0.00026082617 0.0042725434 0.0038475068 0.0020164992 -1.878868e-05 0.001266698
-0.0012310089 0.0011304088 0.0016894394 0.00019035288 -0.0022745256 0.0016887203 0.0011683225 -0.00037726338
0.0013243261 -0.0005259004 -0.00010542657 0.0002705937 0.0011605208 0.00457204 0.0043508816 0.0028328956
0.005100715 0.0014771988 0.004011895 0.0016250415 0.002788063 0.0017116861 0.0017343351 -0.0013348869
0.0008896686 -0.0044159372 -0.0038863341 0.0024724128 -8.850135e-05 0.0027071107 -0.0039242846 -0.004675702
0.0018789475 -0.00095651473 -0.0011372521 -0.0014460935 -0.0033490118 -0.0011644764 0.0012037335 -0.0014677546
-0.00035514557 0.0005396688 -0.0024973154 -0.0018481653 -0.0013043395 -0.0004131465 -0.0006442925 -0.00092358247
-0.0004057899 -0.0028879063 0.00053472415 -0.0047914637 -0.0020602494 -0.0007049047 -0.002968374 -0.0021831794
-0.0009964957 0.002147354 -0.0002608262 -0.004272543 -0.0038475073 -0.0020164992 1.8788847e-05 -0.0012666979
0.001231009 -0.0011304088 -0.0016894389 -0.00019035286 0.002274526 -0.0016887207 -0.0011683227 0.00037726338
-0.0013243261 0.0005259004 0.00010542672 -0.00027059382 -0.0011605206 -0.00457204 -0.0043508816 -0.0028328956
-0.0051007145 -0.001477199 -0.004011895 -0.0016250411 -0.002788062 -0.001711686 -0.0017343354 0.0013348873

exp_avg_sq f4 [2, 64]
00000000: d093 9137 0ef7 2239 8ec6 be38 cb3c 1638
00000010: 7af3 9a37 0680 2638 2527 5c38 9412 6838
00000020: 1c8e 7c37 9a8e d437 e66d 5037 3250 7437
00000030: 4d05 8a38 fcd5 bd37 79b7 2e37 887e 4138
00000040: 587b 3537 24c8 c136 4900 cd38 54c0 f537
00000050: 1cf9 2837 880f 9537 f329 6b37 a1a3 8437
00000060: 8e3d 3d37 1d33 e337 c47a 9037 f6b8 0339
00000070: 1a7d 8b37 1e54 6937 84d7 6338 13ec 2638
00000080: ac89 7b37 9c29 cb37 041a 6e37 84bc 8c39
00000090: 010d 8138 4cbd 2f38 16a2 2238 e16e 6d38
000000a0: ce32 2c37 4446 2137 69ba a138 ca20 a637
000000b0: f795 7f37 324d 7038 d7f7 cb37 782d 6a37
000000c0: ebf0 4037 8a2d 2637 7dee a237 a79d 9f37
000000d0: e231 9b37 e428 8739 d62f a238 7d04 7a38
000000e0: 12b4 d938 d534 5e37 bbc5 de38 c515 3a37
000000f0: 09af ff37 8858 3938 93f7 9137 df52 a637
00000100: d293 9137 0ef7 2239 8ec6 be38 cb3c 1638
00000110: 7af3 9a37 0680 2638 2727 5c38 9612 6838
00000120: 1c8e 7c37 9a8e d437 e66d 5037 3150 7437
00000130: 4c05 8a38 fad5 bd37 79b7 2e37 897e 4138
00000140: 587b 3537 23c8 c136 4900 cd38 53c0 f537
00000150: 1cf9 2837 870f 9537 f429 6b37 a1a3 8437
00000160: 903d 3d37 1b33 e337 c37a 9037 f7b8 0339
00000170: 1c7d 8b37 1f54 6937 83d7 6338 13ec 2638
00000180: ac89 7b37 9c29 cb37 031a 6e37 84bc 8c39
00000190: 020d 8138 4dbd 2f38 15a2 2238 e26e 6d38
000001a0: ce32 2c37 4446 2137 68ba a138 ca20 a637
000001b0: f795 7f37 314d 7038 d7f7 cb37 792d 6a37
000001c0: e8f0 4037 8a2d 2637 7eee a237 a89d 9f37
000001d0: e231 9b37 e528 8739 d62f a238 8004 7a38
000001e0: 12b4 d938 d334 5e37 bcc5 de38 c415 3a37
000001f0: 0baf ff37 8858 3938 94f7 9137 df52 a637
1.7354178e-05 0.00015541559 9.09689e-05 3.5819405e-05 1.8471608e-05 3.9696715e-05 5.2488544e-05 5.5330413e-05
1.5053458e-05 2.5338773e-05 1.2423354e-05 1.4562205e-05 6.58134e-05 2.26302e-05 1.0413926e-05 4.6132627e-05
1.0817159e-05 5.7751477e-06 9.775215e-05 2.9295836e-05 1.0071581e-05 1.7769416e-05 1.4016859e-05 1.5811822e-05
1.127961e-05 2.708431e-05 1.7223305e-05 0.00012562037 1.6628346e-05 1.3907467e-05 5.4321732e-05 3.9797345e-05
1.499282e-05 2.4218862e-05 1.4191963e-05 0.00026843336 6.1536215e-05 4.1899548e-05 3.8774764e-05 5.6608467e-05
1.0263828e-05 9.612708e-06 7.7118e-05 1.980401e-05 1.5234101e-05 5.7292353e-05 2.4314895e-05 1.3958073e-05
1.1500185e-05 9.904974e-06 1.942296e-05 1.902769e-05 1.8500668e-05 0.00025779672 7.733672e-05 5.9608825e-05
0.00010380907 1.3244532e-05 0.00010622615 1.10915325e-05 3.0479876e-05 4.418989e-05 1.7400633e-05 1.9827332e-05
1.7354181e-05 0.00015541559 9.09689e-05 3.5819405e-05 1.8471608e-05 3.9696715e-05 5.248855e-05 5.533042e-05
1.5053458e-05 2.5338773e-05 1.2423354e-05 1.4562204e-05 6.5813394e-05 2.2630196e-05 1.0413926e-05 4.613263e-05
1.0817159e-05 5.775147e-06 9.775215e-05 2.9295834e-05 1.0071581e-05 1.7769415e-05 1.40168595e-05 1.5811822e-05
1.12796115e-05 2.7084307e-05 1.7223303e-05 0.00012562038 1.662835e-05 1.3907468e-05 5.432173e-05 3.9797345e-05
1.499282e-05 2.4218862e-05 1.4191962e-05 0.00026843336 6.153622e-05 4.189955e-05 3.877476e-05 5.660847e-05
1.0263828e-05 9.612708e-06 7.711799e-05 1.980401e-05 1.5234101e-05 5.729235e-05 2.4314895e-05 1.3958074e-05
1.1500182e-05 9.904974e-06 1.9422961e-05 1.9027691e-05 1.8500668e-05 0.00025779675 7.733672e-05 5.9608836e-05
0.00010380907 1.324453e-05 0.00010622616 1.1091532e-05 3.047988e-05 4.418989e-05 1.7400635e-05 1.9827332e-05

exp_avg f4 [2]
00000000: 39b0 303c 3ab0 30bc
0.010784202 -0.010784203

exp_avg_sq f4 [2]
00000000: 6ca5 143a 6ea5 143a
0.0005670402 0.0005670403

exp_avg f4 [2, 64]
00000000: 8784 453b aefc 3fbb 856c 37ba bd0e 9e3a
00000010: a19b b939 9d6a 4e3a 26aa 7cbb b08b 5fbb
00000020: 6f1a 933a c439 3cbb 4b70 4437 1fa5 08b9
00000030: f3b3 88bb e103 92ba 5c6f 9e3a 02de d83a
00000040: 925c 92ba 1bdf 01ba b77e e6b9 e294 6dba
00000050: 6499 f739 addb 833a 9279 b938 e4cc deb9
00000060: 2c9a d1ba 1b33 20bb 01db 123a c706 cbbb
00000070: 8334 073a 0976 d83a 823d 9fba 9fdb c8ba
00000080: d37d f43a c2e8 ce3a 543a 7bb9 86fb 45bb
00000090: 8c0f edbb 5cf3 30bb 0769 5f3b d878 e6b9
000000a0: e38d 283b 60af 46ba cc51 51ba 46c5 e93a
000000b0: 478d 903a e4a6 1eba bf6c b83a 489c d8b9
000000c0: b2ea afba 4896 613a 1a24 c839 2f94 7d3b
000000d0: 09a4 98b9 d89b 3abb d4a4 52bb 93cc f13a
000000e0: 03ea c3bb 3b72 83ba 6588 d4bb 373b 083a
000000f0: 7cbe fbba fed0 4ebb a4bd 08bb 6b95 1eb9
00000100: 8884 45bb affc 3f3b 846c 373a be0e 9eba
00000110: 9e9b b9b9 956a 4eba 27aa 7c3b ae8b 5f3b
00000120: 701a 93ba c439 3c3b 9870 44b7 20a5 0839
00000130: f3b3 883b df03 923a 5c6f 9eba 00de d8ba
00000140: 925c 923a 19df 013a b47e e639 e294 6d3a
00000150: 5c99 f7b9 addb 83ba 9c79 b9b8 e6cc de39
00000160: 2a9a d13a 1d33 203b 02db 12ba c606 cb3b
00000170: 8334 07ba 0b76 d8ba 843d 9f3a 9fdb c83a
00000180: d57d f4ba c4e8 ceba 603a 7b39 86fb 453b
00000190: 8e0f ed3b 5cf3 303b 0569 5fbb dc78 e639
000001a0: e38d 28bb 60af 463a cb51 513a 46c5 e9ba
000001b0: 468d 90ba e3a6 1e3a c06c b8ba 4e9c d839
000001c0: b3ea af3a 4b96 61ba 1a24 c8b9 2d94 7dbb
000001d0: f9a3 9839 d79b 3a3b d6a4 523b 95cc f1ba
000001e0: 02ea c33b 3d72 833a 6588 d43b 363b 08ba
000001f0: 7cbe fb3a fed0 4e3b a4bd 083b 5d95 1e39
0.0030138807 -0.0029294896 -0.00069970667 0.0012058836 0.00035401902 0.0007874163 -0.0038553565 -0.003411036
0.0011223088 -0.0028720954 1.1708656e-05 -0.00013031483 -0.0041718422 -0.0011140072 0.0012087631 0.0016545656
-0.0011166504 -0.0004954205 -0.00043963428 -0.0009063018 0.00047225796 0.0010059975 8.844132e-05 -0.00042495795
-0.0015991381 -0.0024444524 0.0005602092 -0.0061958763 0.0005157666 0.0016514669 -0.0012149068 -0.0015324241
0.0018653221 0.001578592 -0.00023958954 -0.0030209734 -0.0072345193 -0.0027000522 0.00340897 -0.00043959054
0.0025719337 -0.00075792335 -0.0007984906 0.0017835281 0.0011028432 -0.00060520903 0.0014070495 -0.0004131517
-0.0013421385 0.00086054625 0.0003817387 0.003869306 -0.00029113915 -0.0028474238 -0.0032141702 0.0018447809
-0.005978824 -0.001002855 -0.006485986 0.0005196812 -0.0019206549 -0.0031557675 -0.0020864988 -0.00015123717
-0.003013881 0.0029294898 0.0006997066 -0.0012058837 -0.00035401894 -0.00078741583 0.0038553567 0.0034110355
-0.0011223089 0.0028720954 -1.1708726e-05 0.00013031485 0.0041718422 0.001114007 -0.0012087631 -0.0016545653
0.0011166504 0.00049542036 0.0004396342 0.0009063018 -0.00047225773 -0.0010059975 -8.844139e-05 0.000424958
0.0015991379 0.0024444528 -0.0005602093 0.006195876 -0.0005157666 -0.0016514672 0.001214907 0.0015324241
-0.0018653224 -0.0015785922 0.00023958972 0.0030209734 0.0072345203 0.0027000522 -0.0034089696 0.00043959066
-0.0025719337 0.00075792335 0.00079849054 -0.0017835281 -0.0011028431 0.000605209 -0.0014070496 0.00041315187
0.0013421386 -0.0008605464 -0.0003817387 -0.0038693056 0.00029113868 0.0028474235 0.0032141707 -0.0018447811
0.0059788236 0.0010028552 0.006485986 -0.00051968114 0.0019206549 0.0031557675 0.0020864988 0.00015123696

exp_avg_sq f4 [2, 64]
00000000: 9b8e 8437 fe97 1c39 059a be38 b533 0d38
00000010: 4d84 9e37 aa03 1a38 63ee 5738 6f7b 6038
00000020: aaae 6237 b6dc d437 26db 4e37 da1d 7b37
00000030: 2376 8638 a8b2 bd37 9cad 3137 174d 4b38
00000040: c3f8 2d37 e235 c536 b272 cc38 2e44 0038
00000050: f0ed 2a37 bc17 9737 a3b0 7137 adf5 8137
00000060: 37f2 3937 3960 de37 8213 8837 6b81 0239
00000070: 264c 8a37 81e4 7937 9009 5d38 cde0 2038
00000080: 59bf 7137 df40 bc37 b6b2 8237 da74 8939
00000090: 19d2 6838 0c9d 3338 47ce 1d38 7511 6738
000000a0: 66d5 2637 4413 1237 a0da a038 52a1 9637
000000b0: e320 6b37 0503 6938 85d2 dd37 5ee6 7337
000000c0: ee64 3037 b9d7 2b37 1662 aa37 4bad aa37
000000d0: 85cb a037 2370 8039 b273 9638 d988 8538
000000e0: 4cd1 d738 7f81 5637 c342 d538 bb00 3137
000000f0: dc2f ec37 05f1 3238 2671 8437 465c ae37
00000100: 9b8e 8437 fe97 1c39 039a be38 b533 0d38
00000110: 4c84 9e37 aa03 1a38 66ee 5738 6f7b 6038
00000120: aaae 6237 b5dc d437 24db 4e37 d81d 7b37
00000130: 2376 8638 a6b2 bd37 9cad 3137 174d 4b38
00000140: c5f8 2d37 e235 c536 b472 cc38 2f44 0038
00000150: f1ed 2a37 bb17 9737 a3b0 7137 adf5 8137
00000160: 38f2 3937 3960 de37 8213 8837 6b81 0239
00000170: 264c 8a37 81e4 7937 9009 5d38 cfe0 2038
00000180: 58bf 7137 df40 bc37 b6b2 8237 dc74 8939
00000190: 19d2 6838 0c9d 3338 47ce 1d38 7511 6738
000001a0: 65d5 2637 4213 1237 a2da a038 52a1 9637
000001b0: e520 6b37 0303 6938 86d2 dd37 5de6 7337
000001c0: ee64 3037 b8d7 2b37 1662 aa37 4aad aa37
000001d0: 85cb a037 2470 8039 b273 9638 d988 8538
000001e0: 4ad1 d738 8181 5637 c442 d538 bc00 3137
000001f0: dc2f ec37 06f1 3238 2671 8437 475c ae37
1.5802032e-05 0.00014933941 9.0885944e-05 3.3665176e-05 1.8896675e-05 3.6719874e-05 5.148201e-05 5.352072e-05
1.3511317e-05 2.5375146e-05 1.2329581e-05 1.4967716e-05 6.4116226e-05 2.2613749e-05 1.0590444e-05 4.8470767e-05
1.0369523e-05 5.8773303e-06 9.748842e-05 3.0581075e-05 1.0188189e-05 1.8011655e-05 1.4405846e-05 1.54924e-05
1.1083254e-05 2.650927e-05 1.6221547e-05 0.00012445978 1.6486341e-05 1.4894759e-05 5.269941e-05 3.8356335e-05
1.4409271e-05 2.2441554e-05 1.5580426e-05 0.00026217737 5.550878e-05 4.2823187e-05 3.7623828e-05 5.509095e-05
9.944057e-06 8.706764e-06 7.6701166e-05 1.7956514e-05 1.4014749e-05 5.555434e-05 2.6443284e-05 1.4537565e-05
1.0513917e-05 1.0242621e-05 2.0311254e-05 2.0346275e-05 1.9168257e-05 0.0002449761 7.174107e-05 6.367424e-05
0.000102909835 1.2785545e-05 0.00010169067 1.0550192e-05 2.8155679e-05 4.2662974e-05 1.5788315e-05 2.0785385e-05
1.5802032e-05 0.00014933941 9.088593e-05 3.3665176e-05 1.8896673e-05 3.6719874e-05 5.148202e-05 5.352072e-05
1.3511317e-05 2.5375144e-05 1.23295795e-05 1.4967714e-05 6.4116226e-05 2.2613745e-05 1.0590444e-05 4.8470767e-05
1.0369525e-05 5.8773303e-06 9.748843e-05 3.058108e-05 1.018819e-05 1.8011653e-05 1.4405846e-05 1.54924e-05
1.1083255e-05 2.650927e-05 1.6221547e-05 0.00012445978 1.6486341e-05 1.4894759e-05 5.269941e-05 3.8356342e-05
1.440927e-05 2.2441554e-05 1.5580426e-05 0.00026217743 5.550878e-05 4.2823187e-05 3.7623828e-05 5.509095e-05
9.944056e-06 8.706762e-06 7.670118e-05 1.7956514e-05 1.401475e-05 5.5554334e-05 2.6443286e-05 1.4537564e-05
1.0513917e-05 1.024262e-05 2.0311254e-05 2.0346273e-05 1.9168257e-05 0.00024497614 7.174107e-05 6.367424e-05
0.00010290982 1.27855465e-05 0.000101690675 1.0550193e-05 2.8155679e-05 4.2662978e-05 1.5788315e-05 2.0785386e-05

exp_avg f4 [2]
00000000: d6e6 52bb d8e6 523b
-0.0032181046 0.003218105

exp_avg_sq f4 [2]
00000000: 57bf 083a 57bf 083a
0.00052165 0.00052165
