results/proba_02/EscapeFromMaze/EscapeFromMaze-499999.onnx (onnx, 52159 bytes, 7 tensors)

discrete_act_size_vector f4 [1, 2]
00000000: 0000 0040 0000 0040
2.0 2.0

network_body._body_endoder.seq_layers.0.weight f4 [64, 174]
00000000: 1c26 ce3d fc10 513e f0f4 ec3d e9a7 0bbb
00000010: 2112 253d 7dfa b13d 85dc bb3b 131b d23c
00000020: d8f8 cf3b 99f3 f13c 319c f0bd 8b21 47bd
00000030: c138 633c 83c9 9bbd 9ba4 0ebd 94bf af3b
00000040: 9b60 923b 6495 1f3c 3180 493d b98b 3cbb
00000050: d585 3dbd 24f7 28bd 8c14 41bd 2b58 963d
00000060: 86e6 de3d 5cc7 60bd 68b6 f8bd c2eb 733d
00000070: 147d e4bc ee84 cdbd bd31 5e3d 59fb b73b
00000080: 1e39 8cbd 2f91 be3c 9285 b73d 4db3 1d3c
00000090: 4f41 793d c889 2ebd f0bd 9fbd bcfc e53d
000000a0: 9104 1dbd f892 f03c a092 0ebe 3ed0 0b3d
000000b0: 512e a2bd 04e5 4ebd bb6a dcbd 62b3 9dbd
000000c0: f65b 2bbd 0890 23bd 5c8c 8ebc 513f c6bd
000000d0: 09e3 5cbd 946d 8f3a 8439 14bd cac9 62bd
000000e0: ac49 9d3d 39e8 10be 92a8 873c c387 353c
000000f0: f549 143d e28a be3d b1e8 29be b9c3 27bd
00000100: c35a 8bbc fe6d 1e3c 1883 15be b0e7 1bba
00000110: 33d8 5fbd a69a 07be 4c12 fe3c c47b 85be
00000120: b2b8 92bc 9068 493c b9b6 cc3d e7fd 41be
00000130: a000 a8bc 5259 51bd ccf2 50bd d7b4 3abc
00000140: 577b 6c3d 295c e23c d1b9 64bd 3f50 7bbd
00000150: 8d6e c5bc a62e 8bbd 2d80 123d 6309 a6bc
00000160: 82e5 af3d b232 10bd 1fd5 2d3e df81 00be
00000170: 0d9d e8bd ec13 87bd 8833 cbba 8deb 19bc
00000180: d825 a5bc 0f87 723d de40 a83a bb43 ddbc
00000190: d15a 6f3d df2e bcbb c330 843d 6e65 9cbc
000001a0: 80f5 53be 35e6 9d3c 4433 c33c 5dc9 ec3d
000001b0: 1f76 3a3d 88fc 993d db55 dfbd 3870 a33d
000001c0: eb63 8b3d 24d4 a8bd c55e 5f3e 9084 c33c
000001d0: 8175 87bc 57a9 04be 40b9 39bd 3d66 a43d
000001e0: 3e3a ae3d 7132 cabd dccc 5cbc 7a95 32bd
000001f0: c90f ad3b 8783 9e3c c0b6 b9bd 76bc 873d
00000200: 2e9d 9c3b 8d6f 63bb f1f8 0a3d 4898 86bc
00000210: ad5e a5bc 044e 903c ab24 d73c c446 58bc
00000220: 3b00 c13d 20d9 b2bc c48b 993d 73d4 b73c
00000230: 1fad 183c 4b3e d7bd 897b 26be e406 de3d
00000240: 27c2 1c3d 7f3d 933c 80be aebd 07e0 cf3c
00000250: 4496 a33d 2ecb a5bd afb6 b03c 1c6a 7abd
00000260: bc7a 94bd ba65 0b3d 06be 103d 34f5 083e
00000270: 72dd 7abc cefe c83a dff0 8f3d 5adc 4dbd
00000280: 7c31 7b3d e6a6 0e3e 11ee aabd 586b 213d
00000290: 0f33 a1bd 6253 de3b c536 173c c3db bbbc
000002a0: 6b73 b2bd 7fe9 1f3e 0c35 24bc 151b 023e
000002b0: ba47 e43b 3694 75bc da0a c23c eb3b 1c3d
000002c0: 74ce 2b3d db0d 09be ebc1 043d 54a4 a33d
000002d0: 10cc 15be f354 6e3d 3f6b 623d 70f2 d3bd
000002e0: 25e0 f63d c7d6 dbbc 4d7e 613d 2d3d a6bd
000002f0: cb0b 3d3d cd1d fa3d 670d 2cbd 3f26 893d
00000300: 47ce 56bb 0dd2 7b3d 0c86 ea3d f788 69bd
00000310: cc5b 56bd 76fa 73bd be41 62bd b3b2 87bd
00000320: c0e2 8e3c 7fed 28be 6b39 91bc 56f6 11bc
00000330: ba5f 9d3d c56d 093d f03e a6bd b82b fc3c
00000340: 054f 3bbe d54c 92bd 8dd5 6fbd 3edb 6e3d
00000350: 6631 40bc 1a9a 543e 443d 5e3c 6ca2 e4bd
00000360: 4301 cfbd 6fba 38bd 954a e33d 514c 81bc
00000370: b25e 30be 2427 9fbc 0eda 05ba f7ab ab3c
00000380: de9a 58bc 945f efbd 6d91 473e cd4c 1a3d
00000390: 85b6 3fbd 0164 263d 379a 56be b51c b13d
000003a0: 2e61 01be 5670 0e3d a44d 7ebd 3729 0b3e
000003b0: e70c 68bc 0491 e1bc a2d9 413e 45e2 de3c
000003c0: 6ebc aebd e8ca c93c de3b f53c 5bc8 02be
000003d0: 09aa 073e 094c 2dbd 8ce2 b0bb 7859 2fbb
000003e0: 40b0 11bc 05b4 82bc 60ff 603d db06 5fbd
000003f0: 7d62 7e3c e7a3 e6bc 2bb4 3f3d ee8e 82bd
0.100658625 0.20416635 0.115701556 -0.00213098 0.040300492 0.08690355 0.005733075 0.025647676
0.006346803 0.029535102 -0.11748541 -0.048615973 0.013868512 -0.07606795 -0.03482495 0.005363414
0.0044670827 0.009740207 0.04919452 -0.0028769805 -0.04627021 -0.041251317 -0.047138736 0.073410355
0.108838126 -0.054877624 -0.12144166 0.059551008 -0.027891673 -0.1003512 0.054246653 0.00561468
-0.06846832 0.023262588 0.089610234 0.009625268 0.0608533 -0.042611867 -0.077998996 0.11229846
-0.038334433 0.029366955 -0.1392312 0.034134142 -0.079189904 -0.050511375 -0.10762545 -0.0770023
-0.041835748 -0.03993228 -0.017400913 -0.096800454 -0.053927455 0.0010942691 -0.036187664 -0.055368222
0.076800674 -0.14151086 0.016559873 0.011079731 0.036203343 0.093038335 -0.16592671 -0.04095814
-0.017011052 0.009669779 -0.1460079 -0.0005947305 -0.054649543 -0.13242587 0.031014584 -0.26070988
-0.017910335 0.012292996 0.09995789 -0.18944512 -0.02050811 -0.051110573 -0.0510128 -0.011395655
0.057734814 0.027631836 -0.05584127 -0.061355826 -0.024100566 -0.06796007 0.03576677 -0.020268148
0.08588697 -0.035204597 0.1697583 -0.12549542 -0.1135808 -0.06595597 -0.0015503028 -0.009394539
-0.020159647 0.059210833 0.0012836715 -0.027009835 0.05843622 -0.005742892 0.06454613 -0.019091334
-0.2069912 0.01927481 0.023828156 0.115618445 0.045522805 0.0751887 -0.109050475 0.079803884
0.06806167 -0.082435876 0.21813495 0.023866922 -0.016535522 -0.12955223 -0.045342684 0.08027313
0.085072026 -0.09872902 -0.013476577 -0.043599583 0.0052814228 0.019349826 -0.0906806 0.06627743
0.0047794795 -0.003470394 0.033928815 -0.016430035 -0.020186746 0.017615326 0.026262602 -0.013200466
0.09423872 -0.021832049 0.07497361 0.02244017 0.009318619 -0.10509928 -0.16258062 0.10841158
0.038271096 0.01797366 -0.08532429 0.02537538 0.07987645 -0.08095394 0.021571485 -0.06113635
-0.07249972 0.03403256 0.03533747 0.13374788 -0.015311586 0.0015334727 0.070283644 -0.05025897
0.06132649 0.13930854 -0.08346189 0.03940901 -0.07871067 0.0067848423 0.009229367 -0.022931939
-0.087134205 0.15616415 -0.010022413 0.12705643 0.0069665583 -0.0149889495 0.023686815 0.03814308
0.041944936 -0.13384192 0.032411497 0.079903275 -0.14628625 0.058186483 0.05527806 -0.10348976
0.12054471 -0.026835812 0.05505209 -0.08117137 0.046153825 0.12212715 -0.04200497 0.06696748
-0.003277676 0.061479617 0.11451349 -0.057015385 -0.052333638 -0.05956503 -0.055238478 -0.06625881
0.017442107 -0.16496848 -0.017727574 -0.008908829 0.07684274 0.03355195 -0.08117473 0.030782565
-0.18291862 -0.07143561 -0.058553267 0.058314554 -0.0117305275 0.2076191 0.013564412 -0.11163792
-0.101076625 -0.045099672 0.1109821 -0.01578346 -0.17223623 -0.019427843 -0.000510604 0.020956023
-0.013220517 -0.11688152 0.1948907 0.0376709 -0.046804924 0.040622715 -0.20957266 0.086480536
-0.12634727 0.0347751 -0.062085763 0.13589941 -0.014163232 -0.02753497 0.18930677 0.027207503
-0.08532034 0.024632886 0.029935773 -0.12771742 0.13248457 -0.04230884 -0.0053981002 -0.0026756208
-0.008892119 -0.01595498 0.054931045 -0.054449897 0.015526411 -0.028154327 0.04680268 -0.06374918

network_body._body_endoder.seq_layers.0.bias f4 [64]
00000000: e171 203a 5bb1 e839 a5c5 4c3a de81 31ba
00000010: 3882 ae3b b620 1bbc 5143 473c f1cc 1e3c
00000020: 2eb4 ad3b f42e 613c 68dc 113c 4e49 78ba
00000030: 3795 a33c 06f8 0f3a 72df ab38 b97a 283c
00000040: f422 273c c2c6 ec3b 2e3d 04ba 3be8 493c
00000050: cac8 553b 5586 513c 852e ea3b 5841 253c
00000060: cd4e 853c 1628 6c3b e923 4c3b cf64 8e3c
00000070: 4226 be3b 4987 043b dd15 eb3b 3ac8 e13b
00000080: ae09 963b 1a70 793b 22b0 a73a ddfa d53b
00000090: a3eb a73c 9fa1 7f3c ade9 2a3b c97a 633c
000000a0: 34d4 5e3c a524 1fbb 6b8b 823a 45ff 353c
000000b0: bb99 ceba 5a45 133c 663c fd3b 93c7 a33b
000000c0: 773a 583c 7967 a63b 38ef 453b ea31 823c
000000d0: 2243 023c ac01 273c d8a0 053c 2c8f c03b
000000e0: 493c 8f3b af26 cb3b c7db 553b 2915 b03b
000000f0: bc92 bc3b c2aa 3f3c dd44 273c f413 2a3c
0.0006120485 0.00044382628 0.0007811434 -0.0006771366 0.005325582 -0.009468248 0.012162046 0.0096924165
0.00530102 0.013744105 0.008902647 -0.00094713725 0.019968612 0.00054919755 8.195535e-05 0.010283166
0.010201205 0.007225842 -0.0005044517 0.012323434 0.00326209 0.012788375 0.007146659 0.01008638
0.016272927 0.0036034635 0.0031149334 0.017382054 0.0058029005 0.0020222238 0.007174237 0.006890324
0.0045787906 0.0038061203 0.001279358 0.0065301494 0.020498103 0.015602498 0.0026079223 0.013884255
0.013600398 -0.0024283316 0.0009959763 0.011108224 -0.0015762368 0.008988703 0.0077281473 0.0049981563
0.013197533 0.005078253 0.00302024 0.015892942 0.007950576 0.01019327 0.008156024 0.0058764424
0.0043712 0.00619968 0.0032632218 0.0053736162 0.005754797 0.011698427 0.010209289 0.010380734

action_model._discrete_distribution.branches.0.weight f4 [2, 64]
00000000: 5e74 80bc e865 e6bc 9d00 57bc e56a 36bc
00000010: 0045 66bc 315b d2bc 57b0 b13c e1f6 ed3c
00000020: 3615 e9bc 5e62 0c3d 41a7 4f3c c1e5 15bb
00000030: 8d0c 8e3c 8e84 5a3a 5760 98bc 0f76 acbc
00000040: e7c9 f93c 3fb0 9b3a ba55 cfbc 08dd 7c3b
00000050: 683a d03b bf05 923b 8045 87bc 63d3 d03c
00000060: 6304 00bc f8bd aebb fe61 a83b 3513 0abb
00000070: 98db 9fbb 73f9 503c 4742 75bc c3fc e6bc
00000080: d95a b8bc 2534 a63b 6094 02bd ffc1 81bb
00000090: 50c6 243d 3d09 4a3d 9fa3 8cbc ba01 bb3c
000000a0: e09e 273c b96b afbb 2982 55bb b79b 2ebd
000000b0: 9557 cebc 01bd 82bb f497 25bd 330f c0bc
000000c0: 2635 293d c737 8b39 e42d 60bc 7690 45bd
000000d0: 8081 fbbc 21a8 783c c81c cd3c 144e acbc
000000e0: b918 c4bb 5622 cd3c 88ab 673c b51e b4bb
000000f0: c06f dfbb 027d f63c c34a 3c3d f81a 60bb
00000100: f864 3a3c 5da5 243c d4fb 53bb 0571 2abb
00000110: b9f5 413c 7142 943c 06e2 f7bc 486b 5dbd
00000120: 520c a23c 1fe3 44bb afc2 003d d95a 763c
00000130: 4ffe 6dbc 6874 403a cd7b 1c3d 1264 6c3d
00000140: d0e9 b0bc 83d4 813c 7e93 9f3c c427 13bd
00000150: 8e12 4ab9 0b12 b0bc 01ce 4d3c 1344 f5bc
00000160: 6c04 60bc 1d04 0cbc 3281 1c3b ae85 89bb
00000170: e757 7e3c aebf d23b 2c55 9e3c 840e 523c
00000180: a2c0 8d3c 3e35 a13c 7328 953c 1818 adbc
00000190: 45fb cbbc 4894 9bbc 797d e33b fa1a 2abd
000001a0: 0bb8 3d3c 7ed4 083b d1ae b03c 757b 253d
000001b0: 3e11 453c 93cb 8b3c 4b89 023d 401c bc3c
000001c0: 1bc0 46bd d669 0b3d e4fc ab3c 4ec0 ae3c
000001d0: 7417 383c 3cee 05bd 7839 19bc f590 153d
000001e0: 26bc 4dbc c191 8d3b eb98 953a 91ca 293c
000001f0: eafa 233c 44e1 dbbc 0d25 84bc 28c5 ac3c
-0.015680488 -0.028124765 -0.013122705 -0.011133884 -0.014054537 -0.02567825 0.02169053 0.029048385
-0.028452497 0.034273498 0.012674154 -0.002287254 0.017339969 0.0008335792 -0.018600626 -0.021052388
0.030491782 0.0011878087 -0.025309432 0.0038583893 0.006354619 0.0044562514 -0.016512632 0.025491422
-0.007813546 -0.0053327046 0.0051386347 -0.0021068577 -0.0048784725 0.012754786 -0.014969415 -0.028196698
-0.022504257 0.005072134 -0.031879783 -0.0039598937 0.040228188 0.049325217 -0.017167864 0.022827972
0.01023075 -0.0053534177 -0.0032578802 -0.04262897 -0.025188247 -0.003989816 -0.040428117 -0.023444748
0.041310452 0.00026553703 -0.013682816 -0.04823347 -0.030701399 0.015176804 0.025038138 -0.021033324
-0.0059843925 0.025040787 0.014140017 -0.0054968246 -0.0068187416 0.030088905 0.045969736 -0.0034195762
0.011376612 0.010049191 -0.0032346146 -0.0026007306 0.01183837 0.018098088 -0.030259144 -0.05405739
0.019781265 -0.0030042601 0.031435665 0.015036308 -0.014525964 0.00073415646 0.038204003 0.057712622
-0.021595865 0.015848404 0.01947951 -0.035926595 -0.00019271133 -0.021492979 0.012561322 -0.029939687
-0.013672929 -0.008545903 0.0023880717 -0.004196844 0.015523887 0.0064315414 0.019327722 0.012820844
0.017303769 0.019678708 0.018207764 -0.021129653 -0.024900088 -0.018991604 0.0069424477 -0.041529633
0.011579524 0.0020878608 0.021567734 0.04040094 0.012028037 0.017064845 0.031869214 0.02296269
-0.04852305 0.03403648 0.020994611 0.021331932 0.01123606 -0.0326979 -0.0093520805 0.036515195
-0.012557065 0.0043203537 0.0011413371 0.010363237 0.010008553 -0.026840813 -0.016130948 0.021090105

action_model._discrete_distribution.branches.0.bias f4 [2]
00000000: bf13 8b3b c113 8bbb
0.0042442973 -0.004244298

action_model._discrete_distribution.branches.1.weight f4 [2, 64]
00000000: 353c dc3b 849b 223c 66aa b4bc 28ba 813c
00000010: 22ca 12bd 6a21 263c dfc7 e1bb bd5a ab3c
00000020: 0c13 083b 6666 663c 9236 08bd f75a ca3c
00000030: b160 653d daeb e2bc 5c61 8f3b b1aa 10bd
00000040: 0e57 28bc e696 4dbd 265c 03bc 38a4 74bd
00000050: f6a3 d8b9 5930 9bbc 4972 18bd df7b 913a
00000060: 2ff8 e53c 4a4c dd3c a877 aabc 3556 0f3d
00000070: 5130 043d 790d 11bc 6710 323d 839f ed3c
00000080: 2503 8e3b 167e 8fbb e69d c3bc 2fce 26bc
00000090: 7d98 f43c 74d5 76bb 7d1f a73c 7c9e 43bd
000000a0: 56e6 7fbc d767 e03c f49c b13c bc38 053b
000000b0: aff8 213b 35af f1bc b7bb 613c 7f3d 04bb
000000c0: d24a 2dba 098d cd3c 6971 6abc c2da 923c
000000d0: 6ce3 c1ba 3801 6ebc 65e2 42bb f894 b5bc
000000e0: b333 ef3c 9aeb 063d e8d7 473c 82cb bd3c
000000f0: 73ee 003d 5ad5 b5bc 9644 eabb d9a1 38bd
00000100: ca18 7e3c 8d43 183c b357 353c 60a8 96bb
00000110: e79e 593c ac34 f23a 2980 9a3c 844c edbb
00000120: b065 993c 5bab 2bbc 2bed 883d 3a40 7739
00000130: f57a b5bc 2279 4dba ee97 edbb ad03 a73c
00000140: 7a49 e53b af24 f53c fb06 8f3c 9109 1d3d
00000150: e622 8bbc 2d74 8b3d 409e 083d 83d5 633c
00000160: bdf1 16bd ed81 aebc 7539 903c 5655 37bd
00000170: 8cc6 25bd 4688 973c 5363 14bd 0d45 fabc
00000180: 7aec 903c 6056 99ba 3bbd 2e3c 4d4a e23c
00000190: c643 43bd 9111 073d b3af aebb 2cfa 293d
000001a0: f396 e43c a886 e0bb f2db b33b 7615 5f3c
000001b0: 44aa c3bc 4e16 263d 8607 a4bc 33e7 16bc
000001c0: 1501 1dbc 218c 3bbb 1cc7 45b9 46e1 5c3b
000001d0: c61b 3cbd 5a26 c83b dcad ef3b 6bc5 d5bc
000001e0: d171 f9bc 9738 0ebd 55b3 96bc 0906 eabc
000001f0: 0625 43bd d96c 9a3c ed5e faba c101 0a3d
0.0067210444 0.009924773 -0.022053909 0.015835837 -0.0358373 0.0101398025 -0.0068902816 0.02091729
0.0020763306 0.0140625 -0.033255167 0.024701579 0.056000415 -0.027700353 0.00437562 -0.035319034
-0.010274662 -0.050192736 -0.008017575 -0.059726924 -0.0004132089 -0.018943952 -0.037218366 0.0011099539
0.028072445 0.027013917 -0.02080901 0.034994323 0.03227264 -0.00885331 0.043472674 0.029006725
0.004333871 -0.0043790443 -0.023879003 -0.010180994 0.029857868 -0.003766385 0.020400757 -0.047758564
-0.015618881 0.027393265 0.021681286 0.0020328006 0.0024714877 -0.02950249 0.013777665 -0.0020178256
-0.00066105754 0.025091665 -0.014309266 0.017926577 -0.0014792508 -0.014526658 -0.0029736992 -0.02216576
0.029199457 0.03293953 0.012197472 0.02316833 0.031477403 -0.02219646 -0.0071492894 -0.045076225
0.01550884 0.009293449 0.011068272 -0.0045977086 0.013282514 0.0018478832 0.01885994 -0.0072417874
0.018725246 -0.010477866 0.06685861 0.00023579682 -0.022153357 -0.00078381796 -0.0072507774 0.020387495
0.0069972845 0.029924719 0.017459383 0.0383392 -0.016984414 0.06809268 0.033354044 0.013905886
-0.036851633 -0.021302188 0.017605523 -0.044759117 -0.040472552 0.018497597 -0.036227535 -0.030550504
0.017690886 -0.0011698715 0.010665233 0.02762332 -0.047672056 0.032975737 -0.0053310036 0.041498348
0.02790401 -0.00685199 0.005488866 0.0136159565 -0.0238849 0.040548615 -0.020023119 -0.009210396
-0.0095827775 -0.002861746 -0.00018861558 0.003370361 -0.045924924 0.0061080875 0.007314427 -0.026095113
-0.03044978 -0.034721937 -0.018396059 -0.02856733 -0.04764273 0.01885073 -0.0019101776 0.03369308

action_model._discrete_distribution.branches.1.bias f4 [2]
00000000: c392 9fb9 ff92 9f39
-0.0003043619 0.00030436364
