results/proba_02/EscapeFromMaze/EscapeFromMaze-999885.pt (torch, 466594 bytes, 43 tensors)

discrete_act_size_vector f4 [1, 2]
00000000: 0000 0040 0000 0040
2.0 2.0

network_body._body_endoder.seq_layers.0.weight f4 [64, 174]
00000000: 542d e33d fc10 513e f42f cd3d f7bb 7ebb
00000010: 934e 1a3d 18d2 c43d 85dc bb3b 6633 563c
00000020: 08ff 16ba 77b3 a83c fb9a d9bd 8b21 47bd
00000030: 6024 c7b8 0e5b b1bd a0ca 37bd 0a0d 803c
00000040: 9b60 923b 4824 bdbb fb4e 423d c760 b4bb
00000050: df00 18bd 24f7 28bd 3e02 7abd b268 9c3d
00000060: fb08 d03d e9ac 40bd 68b6 f8bd 174b 943d
00000070: 1285 10bd 44ac bdbd 13e6 823d 59fb b73b
00000080: 85da c5bd 9144 023d 474d 953d 1229 833c
00000090: 4f41 793d fad2 a4bc 8308 b1bd 4bcc 143e
000000a0: 81f7 fcbc f892 f03c 63ec 1abe e520 403d
000000b0: 0060 a6bd ef75 34bd bb6a dcbd 39fa 77bd
000000c0: abfe 28bd 3625 c1bc a523 2dbc 513f c6bd
000000d0: 67ef 44bd dc8d e63b f960 14bd a16f 4bbd
000000e0: ac49 9d3d d3e1 02be cdca be3c 0381 573c
000000f0: 2af9 393d e28a be3d f0c8 36be 0c1f 44bd
00000100: e19a d4bc c4ce 9c3c 1883 15be cf73 43bc
00000110: 1f74 83bd 5e70 19be ff9e 173d c47b 85be
00000120: 18dd bfbb 5de2 aa3b 907e e03d 8c67 38be
00000130: a000 a8bc 3154 a6bd db56 48bd 7d40 13bd
00000140: 7fc2 7e3d 295c e23c 29ce 08bd 697c 8dbd
00000150: 4489 693c 8902 7dbd 2d80 123d be44 17bd
00000160: 4b60 c43d 4a7b 0ebd 690b 333e df81 00be
00000170: 7860 c9bd 82e8 81bd a653 7a3c 0ad4 90bb
00000180: d825 a5bc 0df7 883d 824f 693b 4204 d3bc
00000190: 88e2 7e3d df2e bcbb 17fe a73d 218f 9ebc
000001a0: 728e 51be 60eb f93c 4433 c33c 9730 d03d
000001b0: 1b53 0f3d 6a69 853d 0730 ccbd 3870 a33d
000001c0: 99ee 723d fdcf b4bd 3f34 4f3e 6202 fd3c
000001d0: 8175 87bc 4680 ecbd 3828 5dbd 9ed2 bc3d
000001e0: 032d c13d 7132 cabd 76fc 2fbd 9796 14bd
000001f0: 3c86 82bc 1375 bc3c c0b6 b9bd cce0 c83d
00000200: 46f6 293b adc8 303d 3e94 293d 4898 86bc
00000210: c509 28bd 904f e73c ce8e 9b3c 8443 0abc
00000220: 3b00 c13d 43cc 943b 4eb7 953d 2ed7 223d
00000230: 29a4 883c 4b3e d7bd 0b30 25be f21c d93d
00000240: 2c00 0c3d 2d2e c03c 80be aebd 3c37 2c3d
00000250: d30c 973d d917 a0bd 7d4e cb3c 370f 59bd
00000260: 3842 90bd 7abb 963d 03e7 323d e9c0 063e
00000270: 2de0 22bc c661 71bb 6366 963d 8d42 33bd
00000280: 578a 833d 3a47 3a3e 58f4 9ebd 573a 223d
00000290: 18a9 92bd 4bb9 253b 9c70 613c 4686 7ebc
000002a0: 91ea b0bd 9cf1 4c3e e081 00bb ab39 033e
000002b0: 1c85 1d3c a2cb 9dbc e21d 043d eb3b 1c3d
000002c0: b256 0d3d 711d 0dbe 468a 143d 6f3f b23d
000002d0: 10cc 15be def4 5a3d 586b 483d 2e66 d8bd
000002e0: 053b 033e c7d6 dbbc 68df 4c3d d1f3 b3bd
000002f0: a8f2 3e3d 06d5 053e 670d 2cbd 8cd4 733d
00000300: aa5a edbb 7dcd 853d 93e3 fa3d f788 69bd
00000310: 867f 74bd d73c 72bd 8eb8 85bd d249 74bd
00000320: c0e2 8e3c 9cbb 16be 9b4a d7bc 912a ad3a
00000330: 480e b13d c56d 093d 69ab dfbd 866a 1d3d
00000340: dcf5 4fbe 81c9 87bd 8dd5 6fbd b602 a93d
00000350: 4831 87bc e6f1 753e e6b1 ac3c 6ca2 e4bd
00000360: 5610 f3bd 6df7 03bd 7dc8 d83d 0bdd 1cbc
00000370: b25e 30be 26cb 25bc 454c aaba 6964 0d3d
00000380: 09b4 c6bb 945f efbd 9d27 433e f0e7 2f3d
00000390: c9ac 51bd fc1b 403d 379a 56be b398 b73d
000003a0: 4e74 fabd eb3b f93c 7317 61bd 3729 0b3e
000003b0: ecc6 9abc 6fc8 0abd d69f 3f3e 2128 0c3d
000003c0: 6ebc aebd eaf2 ac3c 8777 ac3c 17be 12be
000003d0: ced0 0c3e 094c 2dbd 9b98 4c3c 9e02 5dbc
000003e0: 0261 283b 9ab9 eebb 60ff 603d ad8b aabd
000003f0: e173 8e3c 4fc7 63bd 7111 4c3d ee8e 82bd
0.1109263 0.20416635 0.10018912 -0.003886936 0.03767259 0.09610385 0.005733075 0.013073778
-0.00057600485 0.020593388 -0.10625263 -0.048615973 -9.495835e-05 -0.086599454 -0.044870973 0.015631218
0.0044670827 -0.0057721473 0.047438603 -0.005504701 -0.037110206 -0.041251317 -0.061037295 0.076371565
0.10157963 -0.0470399 -0.12144166 0.07240885 -0.035283156 -0.09261373 0.063915394 0.00561468
-0.0966082 0.03180367 0.0729013 0.016010795 0.0608533 -0.020120133 -0.086442016 0.14531057
-0.030879738 0.029366955 -0.15129237 0.04690637 -0.08123779 -0.044057783 -0.10762545 -0.060541365
-0.041258495 -0.023577314 -0.01056758 -0.096800454 -0.048079874 0.007035954 -0.036225293 -0.049667004
0.076800674 -0.12781458 0.023290062 0.013153317 0.045403637 0.093038335 -0.17850089 -0.04788117
-0.025952758 0.019141562 -0.1460079 -0.011929466 -0.06418633 -0.14984271 0.037016865 -0.26070988
-0.005855214 0.005214973 0.1096164 -0.1800825 -0.02050811 -0.08121527 -0.048910957 -0.035950173
0.062197205 0.027631836 -0.033399735 -0.06908495 0.014253918 -0.061769996 0.03576677 -0.036930792
0.09588679 -0.034785546 0.17484821 -0.12549542 -0.09832853 -0.063431755 0.015278732 -0.0044198083
-0.020159647 0.06687746 0.003560037 -0.025758866 0.062227756 -0.005742892 0.08202761 -0.019355359
-0.20464495 0.030507743 0.023828156 0.10165518 0.034991365 0.06514247 -0.09970098 0.079803884
0.059309576 -0.08828733 0.20234774 0.030884925 -0.016535522 -0.11547904 -0.053993434 0.092198595
0.094324134 -0.09872902 -0.042965375 -0.036276426 -0.015933149 0.023005044 -0.0906806 0.098085016
0.0025934144 0.04316013 0.04140114 -0.016430035 -0.041024942 0.02823618 0.018988993 -0.008438949
0.09423872 0.0045409515 0.07310353 0.039755993 0.01667984 -0.10509928 -0.16131608 0.10601224
0.03417985 0.023459518 -0.08532429 0.042044863 0.07375493 -0.078170486 0.0248177 -0.052993026
-0.0704388 0.07359977 0.04367734 0.13159527 -0.009941143 -0.003683196 0.073437475 -0.04376464
0.064228706 0.18191233 -0.077614486 0.03960642 -0.07161158 0.0025287445 0.013759758 -0.015534943
-0.0863849 0.20014042 -0.0019608662 0.12814967 0.009614255 -0.019262139 0.03225506 0.03814308
0.034506507 -0.13780762 0.03626468 0.08703505 -0.14628625 0.05345618 0.048930496 -0.10566364
0.12815483 -0.026835812 0.050017744 -0.08786739 0.046618134 0.13069543 -0.04200497 0.059528872
-0.007243474 0.065333344 0.122504376 -0.057015385 -0.05969193 -0.059140053 -0.06529342 -0.059640713
0.017442107 -0.14720005 -0.026280692 0.0013211538 0.08645302 0.03355195 -0.10921366 0.038431667
-0.20308632 -0.06630231 -0.058553267 0.0825247 -0.016502991 0.24018058 0.021080922 -0.11163792
-0.1186835 -0.032218385 0.10585115 -0.009574185 -0.17223623 -0.010119235 -0.0012992701 0.034519587
-0.0060639423 -0.11688152 0.1905808 0.042945802 -0.05119017 0.046901688 -0.20957266 0.08964672
-0.122292146 0.030424079 -0.054954004 0.13589941 -0.018893681 -0.033882555 0.18713316 0.034217957
-0.08532034 0.021111924 0.021053089 -0.14330326 0.13751528 -0.04230884 0.012487556 -0.0134893935
0.0025692587 -0.007285309 0.054931045 -0.08327422 0.01738924 -0.055609997 0.04982132 -0.06374918

network_body._body_endoder.seq_layers.0.bias f4 [64]
00000000: 2b39 033c 9f87 d53b bbd8 503b 36e9 af3b
00000010: 6460 0f3c 1b08 98bc f90b 9a3c 3599 913c
00000020: a459 833c 93da d93c 5099 843c e261 aa3b
00000030: 00c0 f23c 5903 323b 6bd0 063c f73f a13c
00000040: 7989 ac3c 9d79 603c b0f9 753b 5b5a 883c
00000050: a1de 813c b20d 963c 5834 853c acba a33c
00000060: 5b78 ec3c 307a 5f3c d83c 9b3b 61d0 d73c
00000070: bf4d 613c 35fa 033c 7749 8a3c f85c 973c
00000080: f77a 833c ca44 343c 26e1 043c 7f66 1a3c
00000090: 03f0 fa3c a757 df3c 6433 523c e455 a23c
000000a0: daff c03c c318 4e3b dbcf 073c 8eff a53c
000000b0: bbab 443b 2441 743c 2350 a33c c364 7d3c
000000c0: 51e6 c33c 36fc 703c 8537 4e3c 31a2 f73c
000000d0: 4de0 813c b53e 653c 6779 483c 92de 8d3c
000000e0: 511d 373c f990 653c a96a 323c b805 3c3c
000000f0: 0239 803c 52fa 953c 03ec a53c 34f6 8a3c
0.008009235 0.0065164114 0.0031867463 0.005368377 0.008751009 -0.018558552 0.018804537 0.01777325
0.016033955 0.026593482 0.016186386 0.005199657 0.029632568 0.002716264 0.008228402 0.019683821
0.021061646 0.01370087 0.0037532859 0.016644647 0.015853228 0.018317077 0.016260311 0.019986473
0.028865984 0.013639972 0.0047374777 0.02634448 0.013751446 0.0080552595 0.016880734 0.018476948
0.016049845 0.011002729 0.00811032 0.009423851 0.030632025 0.027263476 0.012829635 0.019816346
0.0235595 0.0031447865 0.008289303 0.02026346 0.0030009586 0.014908109 0.019935673 0.015465918
0.023913534 0.014708569 0.012586479 0.030228706 0.015854025 0.013992001 0.012235976 0.017318044
0.011176423 0.014011615 0.010889688 0.011475973 0.015652183 0.018307839 0.02025414 0.016963102

action_model._discrete_distribution.branches.0.weight f4 [2, 64]
00000000: d28f 2dbd 1ed9 46bd 5f72 a3bc db30 56bc
00000010: e52e e6bc 10b9 efbc 58e7 2c3d 52b8 533d
00000020: e91f 66bd 03d5 823d 5561 1c3c ecbc a0bc
00000030: a635 e23c fc71 ba38 2f67 26bd e891 4bbd
00000040: 31c4 843d 4ee3 85ba a881 2dbd 819c 313c
00000050: be1d 113d 4bac 643c f33c 9fbc d772 6e3d
00000060: 063a d7ba aef6 00bc 6bf4 6ebb 6c9a 11bc
00000070: 7fe2 42bc 7bb0 6f3c 76db d3bc c2f7 4dbd
00000080: 1b87 5dbd 40f5 27bb eef2 71bd c309 c03b
00000090: 2133 633d 9269 a73d e497 14bd bc23 073d
000000a0: aa59 043c c252 48bc 2c43 a9bc 5394 8dbd
000000b0: 9d96 debc e9b4 81bc c6d1 98bd 4b8b 5abd
000000c0: d38c 9e3d 0359 9ebc 616b 26bd c0c7 adbd
000000d0: f27d 41bd b100 ed3c d9a1 1a3d a82c 53bd
000000e0: 9cca d2b9 4e52 d43c 1635 a23c 1867 adbb
000000f0: 8f82 24bc f50b 593d eace 9f3d bf4d 35bc
00000100: d2ee 1b3d 089f f93c 7c93 6b3b ce62 2dba
00000110: 3107 d43c 51a0 b13c f8ff 4fbd 2714 9dbd
00000120: 449b 423d 0f96 05bd 2f94 0d3d e796 043d
00000130: 3e28 cbbc fad4 c13a ccb2 763d 9edd b03d
00000140: 3918 65bd a9ed 933c 81a0 153d fcc0 2fbd
00000150: 27c1 efbc d1e6 fdbc 17bd 7d3c 9155 80bd
00000160: bb90 a2bc d6d8 c4bb 620e 373c 334b 293b
00000170: 63a6 b83c 6b51 953b 808f f73c 16fd 0e3d
00000180: ef39 483d efc0 df3c c9f2 393d fe8a fdbc
00000190: 916a 24bd ef93 52bd 826b d53c f1bd 53bd
000001a0: 44fd 603c dbd1 123c f5a0 1f3d 2004 893d
000001b0: 488f 653c 60d1 ec3c 6d4a 873d d391 583d
000001c0: 4b52 adbd e9ac 5b3d 505e 443d 755f 6d3d
000001d0: e785 e33c 9444 3ebd c0c3 b4bc 384b 893d
000001e0: 2b99 94bc a1a2 613b 8616 94bb 066f 263c
000001f0: 7fc5 583c 16be 4bbd 0566 45bd 9e68 eb3c
-0.042373486 -0.048546903 -0.019951997 -0.0130731715 -0.028098533 -0.02926305 0.042212814 0.051689453
-0.056182776 0.06388285 0.00954469 -0.019621335 0.027613472 8.8904024e-05 -0.040625747 -0.049699694
0.06482733 -0.0010214837 -0.042359978 0.010840536 0.035428755 0.0139570935 -0.019438243 0.05821499
-0.001642049 -0.007871313 -0.0036461602 -0.008886915 -0.011894821 0.014629479 -0.025861483 -0.05028511
-0.054083925 -0.0025628358 -0.059069566 0.0058605387 0.055468682 0.08174433 -0.036277667 0.032993063
0.008078018 -0.012226762 -0.020661913 -0.06913056 -0.027171427 -0.015833335 -0.07461886 -0.053355496
0.07741704 -0.019329553 -0.04062975 -0.08485365 -0.04723925 0.028930994 0.037752006 -0.05155626
-0.00040205277 0.025918152 0.019800704 -0.0052918307 -0.010040893 0.05298992 0.078031376 -0.011065899
0.038069554 0.03047134 0.0035946062 -0.00066141493 0.025882335 0.02168289 -0.05078122 -0.076698594
0.047511354 -0.03261381 0.034565147 0.032370474 -0.024799462 0.0014788203 0.060229108 0.0863602
-0.055931304 0.018057661 0.03653002 -0.042908654 -0.029266907 -0.03099385 0.015486977 -0.062663205
-0.019844403 -0.006007294 0.011172863 0.0025832176 0.022540277 0.004556825 0.030219793 0.03490933
0.048883375 0.027313678 0.045397554 -0.030950066 -0.040140692 -0.05141061 0.02605224 -0.051694814
0.013732258 0.008961166 0.03897186 0.0669024 0.014011212 0.028908432 0.066059925 0.052873444
-0.08462962 0.053631697 0.047941506 0.057952363 0.02777381 -0.04645212 -0.022065997 0.067038
-0.018139442 0.003442921 -0.0045192866 0.010158306 0.0132306805 -0.049741827 -0.048192997 0.028736409

action_model._discrete_distribution.branches.0.bias f4 [2]
00000000: fb29 a03b 032a a0bb
0.004887817 -0.0048878207

action_model._discrete_distribution.branches.1.weight f4 [2, 64]
00000000: cd9a 473c e9c7 793c a07b 07bd ffd5 643c
00000010: f0c2 41bd 61d9 0d3c 9d0d 53bc 32d0 db3c
00000020: b8b2 cebb fee4 033d 0d63 86bd 3ad1 283d
00000030: 22fd a13d 9c38 2abd 18bf 893c 24c9 3abd
00000040: aeb7 bebc 3b37 b0bd 433d 20bc e555 9ebd
00000050: 08a5 943c c128 30bd b3c1 95bd a7b9 09bc
00000060: 2e16 823d 2278 6b3d e0cb 03bd 5170 693d
00000070: 8e03 693d 2c49 19bd f452 8f3d 2834 603d
00000080: e490 06ba 4203 c0bb 6768 f7bc 8ffd b1bc
00000090: dc42 423d 34f5 48bc c9ab 183d cb29 85bd
000000a0: 8df2 6bbd 1d57 3b3d 681e 0a3d 7119 31bb
000000b0: ff04 d63b 7439 45bd 83b4 af3c 45c1 073c
000000c0: 4e9b 153c 260d 303d 2146 96bc 6164 c63c
000000d0: 5c10 7f3c 9b1d a3bc 8651 cdbb 1f14 b2bc
000000e0: 47d2 3b3d b30f 6c3d 5601 f43c 1198 283d
000000f0: 3f90 703d 2324 febc f27d ccba e522 91bd
00000100: fe9b 243c b32e 823b 6ef8 b43c 01d6 32bb
00000110: ffc0 ca3c 3b3a 5a3b e894 cb3c 2891 57bc
00000120: bc14 de3c 726c eabc 0b35 cb3d c058 85bc
00000130: 8356 39bd 0e33 563c c64c a1bc 9740 fb3c
00000140: 8fde a33c 0eb5 863d df77 9d3c 1511 653d
00000150: 4695 11bd 4ebc bc3d a1d7 8d3d 63df bf3c
00000160: e610 94bd e912 54bd 6b59 ed3c cbb7 88bd
00000170: ee4c 85bd e8c9 403d 7f7c 80bd ee86 66bd
00000180: 09a2 b83c acf4 a239 3c29 8b3c 7770 203d
00000190: 439d 85bd 8fe1 293d 06e4 b5bc 51af 703d
000001a0: 4322 8f3d 9c68 cebc 87a3 d6bb 1855 963c
000001b0: 81ec e4bc 2f78 723d 2ade e2bc ccdb 9fbc
000001c0: b2b8 9ebc b5fe a9bc 540e 7c3b 4f6a 3fbb
000001d0: 7ef7 80bd 464d 3c3c 13c7 2d3c 3f46 d9bc
000001e0: 51f1 40bd af5c 73bd 6e64 13bd 5db5 3ebd
000001f0: 5863 99bd b9bb e23c d1bc f5bb f7a5 733d
0.0121829035 0.015245416 -0.033076882 0.013967036 -0.047305048 0.008657784 -0.012881664 0.026832674
-0.006307926 0.032200806 -0.06561861 0.04121516 0.079096094 -0.041557893 0.016814753 -0.04560198
-0.023280945 -0.086042844 -0.009780231 -0.07731227 0.0181451 -0.043007616 -0.07312336 -0.008406079
0.06351887 0.057487614 -0.032176852 0.05699188 0.056888156 -0.037423298 0.06998244 0.05473724
-0.0005133285 -0.0058597634 -0.03020115 -0.021727351 0.047427043 -0.012265492 0.037273202 -0.06502112
-0.05760436 0.045737375 0.033720404 -0.002702322 0.0065313573 -0.048150495 0.02144838 0.008285825
0.009131266 0.04298129 -0.018343987 0.024217786 0.015567865 -0.019911578 -0.006265822 -0.02173811
0.045854833 0.05763216 0.029785793 0.041160647 0.058731314 -0.03102309 -0.00156015 -0.07086734
0.010046957 0.003972852 0.022091117 -0.00272882 0.02475023 0.0033298868 0.024851277 -0.013157167
0.027109496 -0.028616164 0.099222265 -0.01627767 -0.04524852 0.013073696 -0.019689929 0.030670447
0.020003585 0.06577502 0.019222198 0.055924494 -0.03554275 0.09215604 0.069258936 0.023421949
-0.072297856 -0.051775847 0.028973302 -0.06675681 -0.06508814 0.047067553 -0.06273746 -0.056281023
0.022538202 0.00031081343 0.016987436 0.039169755 -0.06524136 0.041474875 -0.022203457 0.058760945
0.06988957 -0.025196366 -0.0065502557 0.018351123 -0.027944805 0.059196647 -0.027693827 -0.019513987
-0.019375179 -0.020751337 0.0038460689 -0.0029207652 -0.062972054 0.011493033 0.010606545 -0.026522754
-0.047105137 -0.05941456 -0.03598445 -0.04655968 -0.074896514 0.027677404 -0.0074993153 0.05948445

action_model._discrete_distribution.branches.1.bias f4 [2]
00000000: 36d1 ad3a 2fd1 adba
0.0013261202 -0.0013261194

exp_avg f4 [64, 174]
00000000: 17ef d339 0000 0000 10f2 6037 23f4 9c38
00000010: da82 3938 8826 fb39 0000 0000 a1b3 8cb7
00000020: 04f1 f238 ce6b a438 86fe fc39 0000 0000
00000030: 78e5 9238 78f4 5938 fe0c fa38 17ef d339
00000040: 0000 0000 10f2 6037 23f4 9c38 da82 3938
00000050: 80fd d339 0000 0000 022c 0d37 3c33 a738
00000060: 0df7 cc38 dd4a e139 0000 0000 da24 e635
00000070: bc0a 8038 782f 8838 3721 f639 0000 0000
00000080: 7c4f f636 bd93 8337 cad9 0139 5aa3 0f3a
00000090: 0000 0000 1de5 6fb8 3e9d e935 0084 ff38
000000a0: 0935 073a 0000 0000 1ced df34 e4e5 c6b7
000000b0: 7026 eb38 4ef8 f739 0000 0000 d6a0 9f36
000000c0: 909b 7737 568c 5139 7844 f939 0000 0000
000000d0: 2fa3 8336 7b15 5c37 b11c 6039 e355 ff39
000000e0: 0000 0000 735c 00b7 0d16 5c37 ddad 0d39
000000f0: 8826 fb39 0000 0000 a1b3 8cb7 04f1 f238
00000100: ce6b a438 e11e f639 0000 0000 67a1 f6b6
00000110: d24c f338 860f 1f39 8c2c 043a 0000 0000
00000120: 7847 6eb6 146c a238 6543 a038 d7a2 0c3a
00000130: 0000 0000 a346 c237 55d7 9a37 3aa6 2039
00000140: 3cec 1e3a 0000 0000 8d17 f0b7 1b20 0135
00000150: 07d8 8f38 80af 173a 0000 0000 74dc e234
00000160: fd27 80b5 c505 1239 71de 1b3a 0000 0000
00000170: 09ca d0b7 8ee9 0c37 1513 e938 d6d3 113a
00000180: 0000 0000 e5b7 6a37 0a44 0337 8431 9339
00000190: 59a4 163a 0000 0000 f0d5 92b6 a446 0337
000001a0: 94d0 b038 86fe fc39 0000 0000 78e5 9238
000001b0: 78f4 5938 fe0c fa38 3dba 1e3a 0000 0000
000001c0: 6adc c636 485e e6b6 fa02 7638 567c 163a
000001d0: 0000 0000 484c 4936 fab2 e637 b718 b238
000001e0: 3054 193a 0000 0000 85f7 6a38 e786 18b8
000001f0: 0439 ce38 2ed8 2d3a 0000 0000 1d65 72b8
00000200: db86 5ab5 e324 6438 5a64 213a 0000 0000
00000210: bd83 e534 2974 41b7 0348 e838 8919 283a
00000220: 0000 0000 bc41 30b8 eee6 b236 4acc e238
00000230: 846b 1a3a 0000 0000 9917 1d37 dbaa cd36
00000240: acd3 9639 5c5a 1e3a 0000 0000 2643 bdb6
00000250: 9fb1 cd36 abb0 9d38 8270 8237 d719 8139
00000260: 57d6 d4b8 3c80 2639 ea97 9538 5877 3b3a
00000270: 0573 48b9 fb0c 2b39 9cf7 2738 c78b 9739
00000280: 89aa d0b8 0ec7 6f39 821d bd38 6259 2f3a
00000290: cadb 5a39 9613 86b8 6ece d3b7 397b 9e39
000002a0: 0ebd 3fb9 9bb5 5539 1f6e ba38 a834 3c3a
000002b0: 0d48 0938 7f7b 7db8 9b18 d439 0000 0000
000002c0: abf6 b136 9b48 9138 9f5c 4137 c3ba 023a
000002d0: 0000 0000 2150 59b8 241f 0539 47e7 2d38
000002e0: 1b3d f839 0000 0000 b142 9e38 d6a6 3938
000002f0: 4161 da38 9b18 d439 0000 0000 abf6 b136
00000300: 9b48 9138 9f5c 4137 96c3 cb39 0000 0000
00000310: 4e47 7837 2db3 9e38 f8d9 c738 bc10 dd39
00000320: 0000 0000 1637 0336 84db 6838 a3ae 6e38
00000330: ff00 ee39 0000 0000 1ca3 c036 07f1 a237
00000340: 135f 1039 8728 103a 0000 0000 2e41 9cb8
00000350: beeb 7836 e3a3 1539 e3d7 033a 0000 0000
00000360: ee4d 5035 0155 ceb7 124a f238 6680 ef39
00000370: 0000 0000 80ab 48b6 eb38 d437 eee9 6e39
00000380: 6876 ef39 0000 0000 ca39 1e35 86d1 b637
00000390: a9f3 6a39 8a44 f939 0000 0000 aff0 97b7
000003a0: d9d1 b637 b62e 0539 c3ba 023a 0000 0000
000003b0: 2150 59b8 241f 0539 47e7 2d38 396a e739
000003c0: 0000 0000 a9be 9434 4d97 0a39 bf7d 3339
000003d0: 03f8 023a 0000 0000 0097 95b6 a205 a538
000003e0: 1322 ab38 3f3b 083a 0000 0000 f41e 0238
000003f0: 4f0b c237 ed38 3839 7b48 203a 0000 0000
0.00040423192 0.0 1.34078e-05 7.484134e-05 4.4229302e-05 0.0004790316 0.0 -1.6772947e-05
0.00011584352 7.8402096e-05 0.0004825482 0.0 7.0045644e-05 5.196451e-05 0.00011923349 0.00040423192
0.0 1.34078e-05 7.484134e-05 4.4229302e-05 0.00040433928 0.0 8.414501e-06 7.972724e-05
9.773495e-05 0.00042971122 0.0 1.7147061e-06 6.105515e-05 6.493827e-05 0.00046945523 0.0
7.3406245e-06 1.5685213e-05 0.00012383531 0.00054793584 0.0 -5.719542e-05 1.7405616e-06 0.000121839345
0.0005157744 0.0 4.1709507e-07 -2.371049e-05 0.00011212833 0.00047296513 0.0 4.757293e-06
1.4758567e-05 0.00019984072 0.00047543994 0.0 3.9231013e-06 1.3118023e-05 0.00021372993 0.0004870138
0.0 -7.6509195e-06 1.3118156e-05 0.00013511577 0.0004790316 0.0 -1.6772947e-05 0.00011584352
7.8402096e-05 0.00046943783 0.0 -7.350161e-06 0.00011601452 0.00015169205 0.00050420384 0.0
-3.5506364e-06 7.744893e-05 7.641948e-05 0.0005364841 0.0 2.3159495e-05 1.8458502e-05 0.00015320713
0.00060624233 0.0 -2.8621196e-05 4.8102964e-07 6.8590096e-05 0.00057863444 0.0 4.225618e-07
-9.548381e-07 0.00013925794 0.0005945927 0.0 -2.4889612e-05 8.399029e-06 0.0001111386 0.0005562877
0.0 1.3990303e-05 7.82405e-06 0.00028074917 0.00057465356 0.0 -4.3760447e-06 7.824656e-06
8.431185e-05 0.0004825482 0.0 7.0045644e-05 5.196451e-05 0.00011923349 0.00060549733 0.0
5.9265194e-06 -6.86551e-06 5.8653743e-05 0.00057405734 0.0 2.9995736e-06 2.7501479e-05 8.492305e-05
0.0005849032 0.0 5.6020468e-05 -3.636526e-05 9.8334654e-05 0.00066316396 0.0 -5.7791465e-05
-8.140757e-07 5.439379e-05 0.0006156616 0.0 4.2750426e-07 -1.1530742e-05 0.00011076035 0.00064124964
0.0 -4.202289e-05 5.331697e-06 0.000108145716 0.0005890655 0.0 9.3634235e-06 6.1293663e-06
0.00028767937 0.0006040686 0.0 -5.640456e-06 6.130154e-06 7.51925e-05 1.5549598e-05 0.0002462405
-0.00010148872 0.00015878765 7.13317e-05 0.00071512675 -0.00019116334 0.00016312666 4.0046507e-05 0.00028905107
-9.9499775e-05 0.0002286697 9.0177185e-05 0.00066890393 0.00020871978 -6.393266e-05 -2.5249286e-05 0.00030227916
-0.00018285608 0.00020380916 8.889683e-05 0.0007179477 3.2730448e-05 -6.0434915e-05 0.00040454124 0.0
5.303727e-06 6.9276626e-05 1.15252615e-05 0.0004986936 0.0 -5.1811458e-05 0.00012695469 4.1461808e-05
0.00047347773 0.0 7.546449e-05 4.4262815e-05 0.00010413165 0.00040454124 0.0 5.303727e-06
6.9276626e-05 1.15252615e-05 0.000388649 0.0 1.4798554e-05 7.567401e-05 9.529659e-05 0.00042164873
0.0 1.9552585e-06 5.551755e-05 5.6906265e-05 0.0004539564 0.0 5.7410343e-06 1.9424142e-05
0.00013768328 0.0005499203 0.0 -7.4508e-05 3.70921e-06 0.000142708 0.0005029423 0.0
7.759944e-07 -2.4596697e-05 0.00011553256 0.00045681297 0.0 -2.9902149e-06 2.5298874e-05 0.00022784594
0.00045673852 0.0 5.894368e-07 2.1793658e-05 0.0002240675 0.00047544047 0.0 -1.811268e-05
2.1793809e-05 0.0001270127 0.0004986936 0.0 -5.1811458e-05 0.00012695469 4.1461808e-05 0.00044138895
0.0 2.7705872e-07 0.0001321707 0.00017117614 0.0004996063 0.0 -4.4581247e-06 7.868862e-05
8.160262e-05 0.00051968166 0.0 3.1023243e-05 2.3131868e-05 0.00017568814 0.0006114316 0.0

exp_avg_sq f4 [64, 174]
00000000: 7ecd 8435 0000 0000 76b6 9832 0907 cf32
00000010: 2608 ba33 f74e 9535 0000 0000 800b a432
00000020: fe70 c132 d31c c533 e2c0 9f35 0000 0000
00000030: 1150 db32 6139 e332 693c db33 7ecd 8435
00000040: 0000 0000 76b6 9832 0907 cf32 2608 ba33
00000050: 0edf 8435 0000 0000 b8ae fe31 e07f de32
00000060: 422c a033 cd74 8535 0000 0000 451f 2132
00000070: b43b 9132 9be2 9633 15df 8735 0000 0000
00000080: bd6f 1132 879b 4532 26a2 b333 0d8f 8835
00000090: 0000 0000 99e6 8232 dfb7 0431 7d6d fa33
000000a0: 32f2 8535 0000 0000 0612 8032 4e32 1832
000000b0: e5c7 8d33 a0b3 8635 0000 0000 96ea af32
000000c0: 5a5d 8031 060d ac33 d286 8235 0000 0000
000000d0: ad3c 4b33 182d 6931 eb09 ba33 322a 8335
000000e0: 0000 0000 1d4e 4b33 5683 7731 fe9f 9b33
000000f0: f74e 9535 0000 0000 800b a432 fe70 c132
00000100: d31c c533 47b6 9535 0000 0000 065f 1532
00000110: 6777 af32 05ea a033 4aa1 9435 0000 0000
00000120: 6f06 2332 3f0e 9232 078f a933 d9e0 9735
00000130: 0000 0000 c5eb 3f32 7c90 6232 4cc9 c933
00000140: 1b45 9835 0000 0000 c778 9b32 8d02 bd30
00000150: 095c 0d34 86d1 9635 0000 0000 f831 8532
00000160: 05ec 2132 6ec5 9a33 b36f 9635 0000 0000
00000170: 78e1 a732 6f99 2c31 8001 bb33 23bb 9235
00000180: 0000 0000 995e 5833 f175 3831 28c1 d333
00000190: a8ea 9235 0000 0000 6f8b 5b33 67a2 3231
000001a0: d7e2 a333 e2c0 9f35 0000 0000 1150 db32
000001b0: 6139 e332 693c db33 e4cf a035 0000 0000
000001c0: fce9 4e32 5c6f f532 1221 b833 be89 9e35
000001d0: 0000 0000 0131 3332 754b aa32 372b ba33
000001e0: 718c 9f35 0000 0000 5848 3332 a82b 9232
000001f0: ba40 de33 a685 a135 0000 0000 1566 b332
00000200: c728 5f31 db4b 2234 9b78 9d35 0000 0000
00000210: 1f8e 8932 3845 4632 fbaa ab33 ccea a035
00000220: 0000 0000 c153 db32 b862 c031 d1b1 c033
00000230: 0472 9c35 0000 0000 f9a2 7c33 f676 ab31
00000240: 5cca e033 e51f 9e35 0000 0000 aeb8 7b33
00000250: f9f5 ab31 8e39 b033 6ed0 3235 e7be 8934
00000260: bfc0 2d35 3b14 ba34 e67e cc32 f71f 0435
00000270: 2591 0135 958a f434 defe 4635 4dc0 9934
00000280: 667e 3935 d114 d834 ce84 e432 f29e 0f35
00000290: 4af2 1035 c863 0335 61ca 5135 c62e a334
000002a0: 9346 4935 0929 f134 0142 f332 f268 1c35
000002b0: f7f5 1435 dfc4 0e35 f195 ef35 0000 0000
000002c0: ae4d 4d33 96d4 c632 412a 2534 d77a 0236
000002d0: 0000 0000 3b31 6333 d4de e932 6c6e 3134
000002e0: 2077 0836 0000 0000 d4fa 6533 51c9 d932
000002f0: 5801 3434 f195 ef35 0000 0000 ae4d 4d33
00000300: 96d4 c632 412a 2534 bce6 f035 0000 0000
00000310: a4cd 8a32 4c94 b332 a4f7 fa33 2520 ef35
00000320: 0000 0000 7f91 9832 00f5 d132 d101 0734
00000330: 2bcf f235 0000 0000 edb1 cc32 42a6 2c32
00000340: b10e 1934 ef42 f335 0000 0000 47dc 0133
00000350: c187 6232 adda 5134 3020 ef35 0000 0000
00000360: cc12 fc32 5e45 4b32 a5ec 0234 88a9 ee35
00000370: 0000 0000 b68d 3833 9522 9232 3ccb 1c34
00000380: 5782 e935 0000 0000 01be b533 8251 2532
00000390: 2bc8 2234 ea20 eb35 0000 0000 ec35 b033
000003a0: dfd9 3332 74e0 1334 d77a 0236 0000 0000
000003b0: 3b31 6333 d4de e932 6c6e 3134 d921 0336
000003c0: 0000 0000 b689 a732 2f3f c532 b059 0734
000003d0: af59 0136 0000 0000 b7f1 a432 724d da32
000003e0: e2de 1334 fd33 0436 0000 0000 2b61 f732
000003f0: 5821 6a32 e886 2834 31c8 0336 0000 0000
9.894572e-07 0.0 1.7778103e-08 2.410117e-08 8.662782e-08 1.1124347e-06 0.0 1.9097342e-08
2.251954e-08 9.1787705e-08 1.190256e-06 0.0 2.5531365e-08 2.6452371e-08 1.0208971e-07 9.894572e-07
0.0 1.7778103e-08 2.410117e-08 8.662782e-08 9.899684e-07 0.0 7.412236e-09 2.5902352e-08
7.458631e-08 9.943266e-07 0.0 9.378543e-09 1.6907372e-08 7.0261386e-08 1.0123209e-06 0.0
8.465517e-09 1.1502272e-08 8.364832e-08 1.0174423e-06 0.0 1.5238856e-08 1.9313047e-09 1.1661448e-07
9.97976e-07 0.0 1.4909357e-08 8.859002e-09 6.602185e-08 1.0036056e-06 0.0 2.0479359e-08
3.735903e-09 8.011743e-08 9.724993e-07 0.0 4.7319805e-08 3.3931595e-09 8.663104e-08 9.772541e-07
0.0 4.7335664e-08 3.6017886e-09 7.2468524e-08 1.1124347e-06 0.0 1.9097342e-08 2.251954e-08
9.1787705e-08 1.1154415e-06 0.0 8.694547e-09 2.042698e-08 7.4931485e-08 1.1073801e-06 0.0
9.489312e-09 1.7003115e-08 7.895692e-08 1.1315816e-06 0.0 1.1171271e-08 1.3187783e-08 9.3964076e-08
1.1344995e-06 0.0 1.8099298e-08 1.3752285e-09 1.316513e-07 1.123685e-06 0.0 1.5505961e-08
9.425098e-09 7.207096e-08 1.120838e-06 0.0 1.954389e-08 2.511651e-09 8.708139e-08 1.0932312e-06
0.0 5.0377455e-08 2.6842566e-09 9.860588e-08 1.0946142e-06 0.0 5.1116725e-08 2.5994724e-09
7.631541e-08 1.190256e-06 0.0 2.5531365e-08 2.6452371e-08 1.0208971e-07 1.1981433e-06 0.0
1.204398e-08 2.8572394e-08 8.574183e-08 1.1812006e-06 0.0 1.04303135e-08 1.9824919e-08 8.669161e-08
1.1887297e-06 0.0 1.043562e-08 1.701649e-08 1.0349454e-07 1.2034332e-06 0.0 2.0884764e-08
3.247395e-09 1.5115022e-07 1.1732512e-06 0.0 1.6013528e-08 1.1540855e-08 7.993909e-08 1.1989264e-06
0.0 2.5533042e-08 5.5991585e-09 8.973041e-08 1.1656089e-06 0.0 5.8821545e-08 4.9902793e-09
1.0467622e-07 1.17812e-06 0.0 5.8608457e-08 5.004719e-09 8.206108e-08 6.661347e-07 2.5657138e-07
6.4728005e-07 3.465992e-07 2.3806432e-08 4.9220347e-07 4.826746e-07 4.5549373e-07 7.413163e-07 2.8638388e-07
6.9101804e-07 4.024828e-07 2.6603086e-08 5.3502947e-07 5.399676e-07 4.8946504e-07 7.815307e-07 3.0395148e-07
7.4981034e-07 4.4919605e-07 2.8318938e-08 5.8267244e-07 5.549222e-07 5.318561e-07 1.7850526e-06 0.0
4.780093e-08 2.3146907e-08 1.5382194e-07 1.9443012e-06 0.0 5.289733e-08 2.72261e-08 1.6524581e-07
2.033492e-06 0.0 5.3546344e-08 2.5353673e-08 1.6764295e-07 1.7850526e-06 0.0 4.780093e-08
2.3146907e-08 1.5382194e-07 1.7948546e-06 0.0 1.6158829e-08 2.090578e-08 1.1686578e-07 1.7816243e-06
0.0 1.7761293e-08 2.4442215e-08 1.2573516e-07 1.8090699e-06 0.0 2.3829637e-08 1.004952e-08
1.425458e-07 1.8124391e-06 0.0 3.0235494e-08 1.3185798e-08 1.9544196e-07 1.7816255e-06 0.0
2.9345209e-08 1.1831927e-08 1.2193284e-07 1.7781722e-06 0.0 4.2969724e-08 1.7012363e-08 1.4602568e-07
1.7397787e-06 0.0 8.463031e-08 9.622797e-09 1.5160246e-07 1.7518444e-06 0.0 8.205447e-08
1.04687095e-08 1.3772097e-07 1.9443012e-06 0.0 5.289733e-08 2.72261e-08 1.6524581e-07 1.9540223e-06
0.0 1.9503982e-08 2.2962551e-08 1.2605483e-07 1.92747e-06 0.0 1.9202032e-08 2.5413758e-08
1.3771526e-07 1.9699794e-06 0.0 2.8798771e-08 1.3628174e-08 1.5695298e-07 1.9637048e-06 0.0

exp_avg f4 [64]
00000000: 387b 1e3a 5181 1b3a 7fc6 8139 a273 d637
00000010: e31c db39 c011 d3b7 6eae 27ba 6418 8cba
00000020: fa27 013a 5724 69ba 9e8f b139 db9d 9839
00000030: 192a 39ba 3bca 0a39 f444 003a 55a7 983a
00000040: f0c5 20ba a8d7 8d39 7483 203a 2ef1 deb8
00000050: 9877 edb9 1be1 78b9 1c50 4e39 04c2 26ba
00000060: a873 21ba 28ea 98b9 0840 0a39 9123 d4b9
00000070: d9cf f8b8 b7b1 b9b8 1073 53b7 161f 1639
00000080: 5c1b 123a a69a 9f38 f3ed 383a a8f2 71b9
00000090: 50d3 80ba 42f9 5cba 4a45 d939 09cc 2aba
000000a0: b792 95b7 f290 a1b8 e20c cc39 6a1a 813a
000000b0: b4c3 bf38 8ed0 013a fc04 4b3a 1e8e 133a
000000c0: 1519 93ba 5c95 8939 25a0 173a 37d5 4d3a
000000d0: 1719 6b39 8d20 1bba 15bd d0b9 ff92 433a
000000e0: f9e1 d7b9 621c e5b9 5139 d2b9 bb2d 5fb9
000000f0: e1cf 92b9 986c 27ba 4893 52ba b347 f339
0.00060455827 0.00059320504 0.00024752688 2.5564634e-05 0.00041792457 -2.5161426e-05 -0.00063965365 -0.0010688421
0.00049269164 -0.00088936597 0.00033867074 0.0002910931 -0.0007063463 0.00013236042 0.00048930873 0.0011646549
-0.00061330106 0.00027054292 0.00061231037 -0.00010630708 -0.00045293267 -0.00023734981 0.00019675534 -0.0006361308
-0.0006158897 -0.0002916616 0.00013184559 -0.0004046229 -0.00011864276 -8.8545894e-05 -1.260337e-05 0.00014316695
0.0005573535 7.610516e-05 0.00070545 -0.00023073948 -0.0009828601 -0.00084294763 0.0004144109 -0.0006515389
-1.7830504e-05 -7.7040764e-05 0.0003891951 0.0009849791 9.144042e-05 0.00049520365 0.0007744578 0.0005628782
-0.0011222685 0.00026241958 0.0005784056 0.0007851901 0.00022420693 -0.0005917631 -0.0003981373 0.0007460564
-0.00041176358 -0.0004369943 -0.00040097025 -0.00021283973 -0.00028002172 -0.0006386726 -0.0008032811 0.00046401992

exp_avg_sq f4 [64]
00000000: c62e a335 2130 0a36 5fa4 a335 0532 2232
00000010: 6c6b ea35 59d5 3432 f5f1 3836 aba3 a136
00000020: 6d4d aa35 3fd1 3f36 c0f1 e036 ba67 a535
00000030: 84a3 aa36 29fd 4135 e98f 0436 ba7a ef36
00000040: dcd1 4c36 5058 9c36 3b09 1036 d3fa b336
00000050: fb96 8d35 5738 a336 f41a 9f36 691d 5136
00000060: 4f8d 8436 fef8 4a36 100f 4135 f066 a636
00000070: e543 6536 6704 be35 6e50 cb36 01cf bb36
00000080: 6f32 e035 1a56 4833 b93a 3836 b9e6 0636
00000090: 7e0e d936 8c4e b536 c4c7 f235 1aae dc36
000000a0: ce3f 4636 e966 7035 8229 ca35 7610 6836
000000b0: b2e0 3534 16cc 9036 225c b836 9cf4 0e36
000000c0: 4288 cf36 35ad a035 54fe fa35 638f 9836
000000d0: 8ab6 2036 2ed5 2636 b032 9235 701a 8636
000000e0: c783 3e36 7c94 3536 1c98 d435 a537 8b35
000000f0: 1756 9536 db88 8236 ee64 6536 1f69 8d36
1.2158059e-06 2.0591617e-06 1.2192285e-06 9.441014e-09 1.7465622e-06 1.0525889e-08 2.7558974e-06 4.8172274e-06
1.2688521e-06 2.8583015e-06 6.7038636e-06 1.2323646e-06 5.0854305e-06 7.22665e-07 1.97533e-06 7.1370423e-06
3.0520523e-06 4.659443e-06 2.1463045e-06 5.3638155e-06 1.054926e-06 4.8643374e-06 4.741707e-06 3.1160546e-06
3.950357e-06 3.0245278e-06 7.192002e-07 4.959169e-06 3.416318e-06 1.4157384e-06 6.0592347e-06 5.5971327e-06
1.6703979e-06 4.6644438e-08 2.7452318e-06 2.0101854e-06 6.468791e-06 5.4033644e-06 1.8088544e-06 6.576779e-06
2.9541438e-06 8.955672e-07 1.5062253e-06 3.4580275e-06 1.6938682e-07 4.315293e-06 5.494353e-06 2.130203e-06
6.1849432e-06 1.1971339e-06 1.8700471e-06 4.5466454e-06 2.394811e-06 2.4860014e-06 1.08926e-06 3.996589e-06
2.838891e-06 2.705753e-06 1.58395e-06 1.0372502e-06 4.450568e-06 3.890234e-06 3.4182408e-06 4.214365e-06

exp_avg f4 [2, 64]
00000000: e707 91bb e0e5 a8bb dc58 a2bb 215d 0f3b
00000010: a7b8 86bb 8632 143b 921d b3bb 7800 5abb
00000020: 3e16 17ba ac91 95bb afc4 90bb 1e29 0fbb
00000030: b6b5 b8b9 fc2e 4bbb 4f21 a2ba 66cb fbbb
00000040: 18bf d5ba 2fc3 2dbb 8b0b 94bb fb02 9bbb
00000050: 28de 7cba 936f 9bbb c95a 4ebb 7e29 e1ba
00000060: b797 97b9 d6fd 7fba f458 eaba 21f6 6a39
00000070: 379b 2ab9 355b e6ba 87a3 67bb 07be 07bb
00000080: 7d10 4bba 47e8 b23a fddf 5fbb 7927 32bc
00000090: a750 c4ba bafc 86bb 5a37 87bb 1d77 04bc
000000a0: af85 66bb ea8c dab9 fb4a 73bb 4f77 81bb
000000b0: 927a c33a 2d8d e6bb fc08 0bbb 17c0 08bb
000000c0: bd80 3fbb 8a91 7c3a 9c1e 57bb 4dfe 04bb
000000d0: 6a21 dfb9 f5aa 0dbc a102 7dbb ec85 1dbb
000000e0: f46d c2ba 744f 6c39 8961 82bb ba95 3b3a
000000f0: d134 a5ba 688f c7bb 9978 13bb 5135 79bb
00000100: e707 913b dee5 a83b dd58 a23b 215d 0fbb
00000110: a7b8 863b 8532 14bb 921d b33b 7900 5a3b
00000120: 3e16 173a ac91 953b afc4 903b 1e29 0f3b
00000130: b8b5 b839 fc2e 4b3b 5021 a23a 66cb fb3b
00000140: 1abf d53a 2fc3 2d3b 8b0b 943b fb02 9b3b
00000150: 29de 7c3a 946f 9b3b cb5a 4e3b 8129 e13a
00000160: b997 9739 d7fd 7f3a f658 ea3a 14f6 6ab9
00000170: 339b 2a39 355b e63a 88a3 673b 09be 073b
00000180: 7c10 4b3a 48e8 b2ba fedf 5f3b 7a27 323c
00000190: a750 c43a bbfc 863b 5b37 873b 1d77 043c
000001a0: af85 663b ed8c da39 fc4a 733b 5077 813b
000001b0: 947a c3ba 2d8d e63b fc08 0b3b 18c0 083b
000001c0: bc80 3f3b 8a91 7cba 9b1e 573b 4cfe 043b
000001d0: 6521 df39 f4aa 0d3c a302 7d3b ec85 1d3b
000001e0: f76d c23a 6f4f 6cb9 8961 823b b895 3bba
000001f0: d234 a53a 6a8f c73b 9978 133b 5035 793b
-0.004425991 -0.0051543564 -0.0049544405 0.0021875578 -0.0041113677 0.0022613122 -0.0054661715 -0.003326444
-0.0005763507 -0.0045644846 -0.0044179778 -0.0021844576 -0.000352306 -0.0031003347 -0.0012369546 -0.007684159
-0.0016307561 -0.0026514044 -0.0045179776 -0.00473058 -0.0009646141 -0.0047435253 -0.0031487218 -0.0017178503
-0.00028914 -0.00097653025 -0.0017879293 0.00022407669 -0.00016270285 -0.0017574789 -0.0035345273 -0.002071263
-0.00077462924 0.0013649546 -0.0034160607 -0.010873669 -0.001497765 -0.004119483 -0.0041264715 -0.008085039
-0.0035174896 -0.0004168519 -0.003712355 -0.0039509903 0.0014913848 -0.0070358724 -0.0021215072 -0.0020866448
-0.002922102 0.0009634724 -0.003282464 -0.0020293177 -0.0004255877 -0.008646716 -0.0038606303 -0.0024036122
-0.0014833794 0.00022536312 -0.0039789123 0.0007155795 -0.0012604241 -0.0060900934 -0.0022502302 -0.0038026164
0.004425991 0.0051543554 0.004954441 -0.0021875578 0.0041113677 -0.002261312 0.0054661715 0.0033264442
0.0005763507 0.0045644846 0.0044179778 0.0021844576 0.00035230606 0.0031003347 0.0012369547 0.007684159
0.0016307563 0.0026514044 0.0045179776 0.00473058 0.00096461416 0.0047435258 0.0031487222 0.0017178507
0.00028914007 0.0009765303 0.0017879296 -0.0002240765 0.0001627028 0.0017574789 0.0035345275 0.0020712635
0.0007746292 -0.0013649547 0.003416061 0.01087367 0.001497765 0.0041194833 0.004126472 0.008085039
0.0035174896 0.00041685198 0.0037123552 0.0039509907 -0.001491385 0.0070358724 0.0021215072 0.002086645
0.0029221019 -0.0009634724 0.0032824639 0.0020293174 0.00042558755 0.008646715 0.0038606308 0.0024036122
0.0014833797 -0.00022536305 0.0039789123 -0.0007155794 0.0012604243 0.0060900943 0.0022502302 0.0038026161

exp_avg_sq f4 [2, 64]
00000000: 5f7e 2b38 7663 7039 dbac 1339 27f9 cd37
00000010: 92a9 3938 dcf3 e637 0c8b fa38 90a3 e538
00000020: 481c e436 f897 a838 47b4 6b38 41a0 1338
00000030: 108c 1a39 2480 1d38 ec08 bb37 e14f 1939
00000040: 347b 2038 012c e237 e638 1439 cf73 9f38
00000050: 75f2 d137 e17b 7338 ab1f 4238 2624 3638
00000060: 82e0 4138 ecec a338 41ea bb37 555b 4539
00000070: 9425 2238 44fb 1b38 286d ea38 f3b9 e938
00000080: e66e ee37 5223 4837 141a 2838 b4ba b939
00000090: ab2c 1339 d64f 0639 2097 a038 da0d 1439
000000a0: e5bb db37 8c8f 9a37 3c13 0d39 9d9c 5638
000000b0: 2cef 1c37 28a1 1839 6de3 ca38 ccc5 3b38
000000c0: 9046 8438 0743 2e37 e6b4 9338 e850 a538
000000d0: 3996 3c38 e6c6 b639 6612 f138 90d6 2239
000000e0: 24fa 2939 0725 1d38 817e 3939 6594 8537
000000f0: 937a 9738 2397 e738 3bea 7a38 973c 6d38
00000100: 5e7e 2b38 7663 7039 dbac 1339 27f9 cd37
00000110: 92a9 3938 def3 e637 0e8b fa38 8da3 e538
00000120: 491c e436 f897 a838 49b4 6b38 41a0 1338
00000130: 108c 1a39 2380 1d38 ec08 bb37 e14f 1939
00000140: 347b 2038 012c e237 e738 1439 d073 9f38
00000150: 76f2 d137 e27b 7338 ac1f 4238 2824 3638
00000160: 84e0 4138 edec a338 42ea bb37 555b 4539
00000170: 9425 2238 44fb 1b38 2a6d ea38 f2b9 e938
00000180: e66e ee37 5223 4837 141a 2838 b3ba b939
00000190: ac2c 1339 d54f 0639 1e97 a038 da0d 1439
000001a0: e4bb db37 898f 9a37 3d13 0d39 9c9c 5638
000001b0: 2cef 1c37 2aa1 1839 70e3 ca38 ccc5 3b38
000001c0: 8e46 8438 0643 2e37 e9b4 9338 e650 a538
000001d0: 3996 3c38 e6c6 b639 6712 f138 90d6 2239
000001e0: 24fa 2939 0625 1d38 7f7e 3939 6594 8537
000001f0: 937a 9738 2597 e738 3cea 7a38 983c 6d38
4.088727e-05 0.00022925236 0.00014083406 2.4553925e-05 4.426536e-05 2.7531692e-05 0.000119468285 0.00010950037
6.798222e-06 8.039171e-05 5.6196262e-05 3.519678e-05 0.00014738762 3.7551057e-05 2.2296292e-05 0.00014620974
3.8261715e-05 2.696179e-05 0.00014135576 7.603282e-05 2.5027644e-05 5.8051086e-05 4.6282697e-05 4.3425847e-05
4.6223875e-05 7.816576e-05 2.240122e-05 0.00018821408 3.8658807e-05 3.718889e-05 0.000111783214 0.000111449415
2.8423452e-05 1.1929153e-05 4.007861e-05 0.00035425054 0.00014035653 0.00012808977 7.657544e-05 0.0001411954
2.619433e-05 1.8425075e-05 0.00013453973 5.1167433e-05 9.354011e-06 0.00014555885 9.674472e-05 4.4768487e-05
6.307394e-05 1.0386814e-05 7.043201e-05 7.882883e-05 4.49626e-05 0.00034861936 0.000114952025 0.00015529455
0.0001621028 3.74662e-05 0.00017690101 1.5923937e-05 7.223072e-05 0.0001104309 5.982279e-05 5.6561632e-05
4.0887266e-05 0.00022925236 0.00014083406 2.4553925e-05 4.426536e-05 2.7531696e-05 0.0001194683 0.000109500346
6.7982223e-06 8.039171e-05 5.619627e-05 3.519678e-05 0.00014738762 3.7551054e-05 2.2296292e-05 0.00014620974
3.8261715e-05 2.696179e-05 0.00014135578 7.6032826e-05 2.5027646e-05 5.805109e-05 4.62827e-05 4.3425855e-05
4.6223882e-05 7.8165765e-05 2.2401222e-05 0.00018821408 3.8658807e-05 3.718889e-05 0.00011178323 0.00011144941
2.8423452e-05 1.1929153e-05 4.007861e-05 0.00035425051 0.00014035654 0.00012808976 7.657542e-05 0.0001411954
2.6194328e-05 1.842507e-05 0.00013453975 5.116743e-05 9.354011e-06 0.00014555888 9.674474e-05 4.4768487e-05
6.307392e-05 1.0386813e-05 7.0432034e-05 7.8828816e-05 4.49626e-05 0.00034861936 0.00011495203 0.00015529455
0.0001621028 3.7466198e-05 0.00017690098 1.5923937e-05 7.223072e-05 0.00011043091 5.9822793e-05 5.6561636e-05

exp_avg f4 [2]
00000000: 5222 13bc 5222 133c
-0.008980351 0.008980351

exp_avg_sq f4 [2]
00000000: a4d6 f639 a4d6 f639
0.00047080696 0.00047080696

exp_avg f4 [2, 64]
00000000: 39e2 da3a 2267 703a 7204 04ba 5be5 773a
00000010: 56f1 853a 27f3 013a 8c62 30bb 364c bebb
00000020: 4d1e 843a 0729 83bb 598c 27b5 b67c 153a
00000030: 79c7 a4bb cf12 04bb 0547 abba 006c 203b
00000040: ca15 c6ba bb3f c638 5648 8b3a 7ca4 f8ba
00000050: aa9a c0ba ae63 2f3a e297 ef3a b040 33bb
00000060: 01a4 99bb c57c 5dbb d9b3 2f3a 844b c4bb
00000070: 1f61 05bb 0180 e33a c936 82bb aa83 a2bb
00000080: 08e7 dbba c326 a43a 42ad 863a a450 1eb9
00000090: 2fb6 c0bb 0d48 26bb 1185 8b3a ec2a 673a
000000a0: 007b 153b 3039 00bb 3ec1 cf39 e338 5b3a
000000b0: 89f3 a139 0339 f4b9 6c3c 56ba 20ae 46bb
000000c0: a9ca e1ba 09cd 963a fe6c 763a c8e8 eb39
000000d0: 3214 fbba 6fa9 f4ba f9c6 abba aa21 82ba
000000e0: c553 9abb 52a9 2ebb d53d b1bb 70d4 12bb
000000f0: bb22 4ebb 0e23 84bb 1058 8eba 3d0e fbb9
00000100: 39e2 daba 2d67 70ba 7104 043a 5ae5 77ba
00000110: 58f1 85ba 25f3 01ba 8b62 303b 354c be3b
00000120: 4d1e 84ba 0829 833b 266f 2735 b87c 15ba
00000130: 79c7 a43b cf12 043b 0247 ab3a 016c 20bb
00000140: cd15 c63a d33f c6b8 5b48 8bba 7da4 f83a
00000150: aa9a c03a b463 2fba e597 efba b140 333b
00000160: 03a4 993b c77c 5d3b ddb3 2fba 854b c43b
00000170: 1e61 053b 0480 e3ba ca36 823b ab83 a23b
00000180: 08e7 db3a c126 a4ba 43ad 86ba a750 1e39
00000190: 30b6 c03b 0c48 263b 1085 8bba f32a 67ba
000001a0: 027b 15bb 3039 003b 40c1 cfb9 e538 5bba
000001b0: 8bf3 a1b9 f838 f439 663c 563a 1fae 463b
000001c0: a8ca e13a 09cd 96ba 046d 76ba d9e8 ebb9
000001d0: 3014 fb3a 68a9 f43a f8c6 ab3a a321 823a
000001e0: c553 9a3b 4fa9 2e3b d63d b13b 6fd4 123b
000001f0: ba22 4e3b 0d23 843b 1158 8e3a 370e fb39
0.00166995 0.00091706414 -0.0005036063 0.0009456479 0.0010219018 0.0004957192 -0.0026914207 -0.005807425
0.0010079831 -0.0040026936 -6.241658e-07 0.00057024823 -0.005028662 -0.0020152812 -0.001306743 0.0024478436
-0.0015112695 9.4532465e-05 0.0010626416 -0.0018969919 -0.0014694531 0.00066905736 0.0018279518 -0.002735179
-0.0046887402 -0.0033796292 0.00067025196 -0.0059904475 -0.0020352078 0.0017356874 -0.003973816 -0.0049595432
-0.0016777227 0.0012523759 0.0010275024 -0.00015098095 -0.005881093 -0.0025372535 0.0010644515 0.00088183465
0.002280891 -0.0019565336 0.00039626093 0.0008362664 0.0003088976 -0.00046581784 -0.0008172456 -0.003031619
-0.0017226535 0.0011505197 0.00094003964 0.00044996128 -0.0019155799 -0.0018666218 -0.0013105563 -0.0009928246
-0.004709693 -0.0026651216 -0.0054089823 -0.0022404455 -0.0031453806 -0.004032499 -0.0010859985 -0.0004788506
-0.00166995 -0.0009170648 0.0005036062 -0.00094564783 -0.0010219021 -0.0004957191 0.0026914205 0.0058074244
-0.0010079831 0.004002694 6.237409e-07 -0.00057024835 0.005028662 0.0020152812 0.0013067427 -0.0024478438
0.0015112698 -9.453264e-05 -0.0010626422 0.001896992 0.0014694531 -0.0006690577 -0.0018279521 0.0027351792
0.004688741 0.0033796297 -0.0006702522 0.005990448 0.0020352076 -0.0017356877 0.0039738165 0.0049595437
0.0016777227 -0.0012523757 -0.0010275025 0.000150981 0.0058810934 0.0025372533 -0.0010644514 -0.00088183506
-0.0022808914 0.0019565336 -0.000396261 -0.0008362665 -0.00030889767 0.00046581752 0.0008172452 0.0030316187
0.0017226534 -0.0011505197 -0.00094004 -0.00044996178 0.0019155797 0.001866621 0.0013105562 0.0009928237
0.004709693 0.0026651209 0.0054089827 0.0022404452 0.0031453804 0.0040324987 0.0010859986 0.00047885042

exp_avg_sq f4 [2, 64]
00000000: 4bb8 3538 5e60 7539 b65f 1939 a479 e337
00000010: 1a17 3e38 fc78 f637 63b1 fe38 1665 0239
00000020: b5e0 e636 a50f bc38 9c82 6438 ac30 0e38
00000030: 19e5 2539 d9fe 1b38 86e9 ce37 cb85 1d39
00000040: 3c85 0e38 926c e237 35b1 1d39 aea6 a538
00000050: ddfd f237 d0b1 7838 d630 4e38 3d27 5138
00000060: 5359 4638 a875 a538 6e71 c537 837d 6439
00000070: 64c6 2e38 9700 0e38 269e 0339 0ec9 0339
00000080: 1089 fe37 d93d 5537 e630 3038 3bf2 c239
00000090: 5836 1d39 43db 0b39 5a0a a838 aab1 0a39
000000a0: 9816 d937 f589 a237 f8d2 0439 9465 5938
000000b0: 05e7 1e37 ec0d 1739 1b12 f138 b970 6638
000000c0: 8bf7 8738 798e 2637 340d 9638 921e b938
000000d0: 5e73 4238 8641 b739 6f6a fa38 cf2c 2d39
000000e0: 81c0 4939 96a6 1c38 7213 4139 9ac0 8337
000000f0: 14b3 9e38 f9ea ef38 75d2 8138 b8a6 7338
00000100: 4cb8 3538 5f60 7539 b65f 1939 a579 e337
00000110: 1a17 3e38 fc78 f637 65b1 fe38 1765 0239
00000120: b6e0 e636 a70f bc38 9b82 6438 ad30 0e38
00000130: 1ce5 2539 d9fe 1b38 85e9 ce37 cc85 1d39
00000140: 3d85 0e38 906c e237 36b1 1d39 ada6 a538
00000150: dffd f237 d1b1 7838 d630 4e38 3e27 5138
00000160: 5359 4638 a875 a538 6f71 c537 827d 6439
00000170: 63c6 2e38 9700 0e38 269e 0339 0ec9 0339
00000180: 1089 fe37 d83d 5537 e530 3038 3af2 c239
00000190: 5a36 1d39 43db 0b39 5a0a a838 abb1 0a39
000001a0: 9816 d937 f689 a237 f7d2 0439 9665 5938
000001b0: 06e7 1e37 eb0d 1739 1b12 f138 b970 6638
000001c0: 8af7 8738 788e 2637 330d 9638 911e b938
000001d0: 5e73 4238 8641 b739 6c6a fa38 cf2c 2d39
000001e0: 7fc0 4939 96a6 1c38 6f13 4139 9bc0 8337
000001f0: 14b3 9e38 f8ea ef38 77d2 8138 b8a6 7338
4.33254e-05 0.0002340092 0.00014626872 2.7117152e-05 4.5321045e-05 2.9381823e-05 0.00012144705 0.00012435424
6.8806935e-06 8.9674526e-05 5.4481075e-05 3.3900767e-05 0.00015820972 3.7192225e-05 2.4665856e-05 0.00015022529
3.3979522e-05 2.6991856e-05 0.00015038702 7.8988596e-05 2.8966862e-05 5.929341e-05 4.915971e-05 4.9866027e-05
4.729007e-05 7.889728e-05 2.353705e-05 0.00021790531 4.16696e-05 3.3855988e-05 0.00012552048 0.00012568032
3.0342984e-05 1.2710189e-05 4.200721e-05 0.0003718304 0.00014992931 0.00013337754 8.0127924e-05 0.0001322689
2.5878937e-05 1.9376146e-05 0.00012667093 5.1831434e-05 9.471322e-06 0.00014405668 0.00011495148 5.4941254e-05
6.48341e-05 9.927543e-06 7.155017e-05 8.8271816e-05 4.636065e-05 0.000349533 0.00011940754 0.00016515258
0.00019240567 3.7348444e-05 0.00018413158 1.5706104e-05 7.567383e-05 0.00011440175 6.1904e-05 5.8090984e-05
4.3325403e-05 0.00023400922 0.00014626872 2.7117154e-05 4.5321045e-05 2.9381823e-05 0.00012144706 0.00012435425
6.880694e-06 8.967454e-05 5.4481072e-05 3.390077e-05 0.00015820976 3.7192225e-05 2.4665855e-05 0.0001502253
3.3979526e-05 2.6991853e-05 0.00015038703 7.898859e-05 2.8966866e-05 5.9293412e-05 4.915971e-05 4.986603e-05
4.729007e-05 7.889728e-05 2.3537052e-05 0.0002179053 4.1669595e-05 3.3855988e-05 0.00012552048 0.00012568032
3.0342984e-05 1.27101885e-05 4.2007207e-05 0.00037183036 0.00014992934 0.00013337754 8.0127924e-05 0.00013226892
2.5878937e-05 1.9376148e-05 0.00012667092 5.183144e-05 9.471323e-06 0.00014405667 0.00011495148 5.4941254e-05
6.4834094e-05 9.927542e-06 7.155016e-05 8.827181e-05 4.636065e-05 0.000349533 0.000119407516 0.00016515258
0.00019240564 3.7348444e-05 0.00018413154 1.5706106e-05 7.567383e-05 0.000114401744 6.1904015e-05 5.8090984e-05

exp_avg f4 [2]
00000000: 3b4a fbba 354a fb3a
-0.0019171903 0.0019171896

exp_avg_sq f4 [2]
00000000: 579f 023a 579f 023a
0.000498285 0.000498285
